blocks/b1_24_112_112.pth (torch, 436234 bytes, 147 tensors)

weight f4 [24, 24, 1, 1]
0.13310939 0.058488786 -0.062515885 0.04717055 0.0145294815 -0.019908622 -0.032874405 0.15695605
0.17892265 -0.15967718 -0.15318553 0.14324304 0.19017908 0.0035860687 -0.04644549 -0.041772336
-0.1909892 -0.017907143 0.0042458326 0.14742997 -0.111372046 0.011602968 -0.20029382 -0.19194432
-0.106623635 0.041051626 0.019651726 -0.008297607 0.15540147 0.12660843 -0.0765696 -0.04119943
0.07620746 -0.18428022 0.14105773 0.12549454 0.0076551437 0.03743823 -0.15507379 0.121513784
0.09343004 0.19782019 0.20182985 0.010312945 -0.005052954 -0.07946857 -0.11761332 0.016856566
-0.18071193 -0.14976497 -0.17104259 0.04540883 -0.02880989 -0.11164083 -0.07889742 -0.082645506
-0.12583601 0.06719303 0.017793745 0.15774038 -0.009637132 -0.06236458 0.07432461 0.09905854
0.0985558 -0.1866266 0.064662725 -0.061913997 0.110605836 0.1942527 -0.076495975 0.00054755807
0.08677855 -0.050703853 0.01481621 -0.15191826 0.07736421 -0.16305047 -0.012887165 -0.0997911
0.087956905 0.19020793 -0.048405573 0.10546586 -0.045460343 -0.043837115 0.07759771 0.03435193
-0.19223101 0.041330487 -0.11856386 -0.044208854 -0.20194253 0.07921952 0.10546082 -0.18545596
0.13310584 -0.049741924 0.02019851 0.05778262 0.19182813 -0.047346294 -0.1552287 -0.16529328
-0.18831928 0.14355516 0.04823333 0.15571025 -0.082423635 -0.12831342 0.02036801 0.17103437
-0.09802152 0.0816147 -0.1947971 -0.11088812 0.054495335 -0.050633624 0.13464648 -0.18751253
-0.17863268 -0.0045342296 0.026252195 0.12476167 -0.09005513 0.15887669 -0.19693781 0.10338554
0.13938442 -0.0048241913 -0.07182357 -0.12743759 0.16515595 0.08352539 0.12827164 -0.20019957
0.14764082 0.15676025 0.13935414 -0.05081904 0.11983481 0.20359698 -0.16997841 -0.19282645
0.07886505 -0.0285974 -0.027829394 0.06723744 0.03524755 -0.04999979 0.074952096 -0.011048898
0.12809408 -0.10463921 -0.10375625 0.13944036 0.18226114 -0.10914437 0.19723952 -0.086408705
0.021188095 -0.15974063 -0.058470324 -0.009243518 -0.11332936 -0.16450775 0.10437915 0.0026216358
0.079256296 0.004749626 0.023321807 -0.04973513 -0.07995617 -0.018007085 0.011680052 -0.124335445
-0.16775441 -0.09329326 0.1769453 -0.08464749 -0.01063405 -0.02963151 -0.14939526 -0.10906927
-0.032819167 -0.11110708 -0.13637388 0.15283838 0.029081568 -0.1573757 -0.062742114 -0.012629554
-0.17119382 0.012127936 0.17863122 0.04821384 -0.16388714 -0.15017006 -0.07375015 -0.03857535
-0.10936397 -0.09949837 -0.04993099 -0.13095549 -0.07698144 0.004717976 -0.20313251 0.1937491
0.11496836 0.034510463 0.007852584 -0.03842558 -0.15800115 -0.052851886 -0.07179454 0.10357797
-0.06511833 0.049057573 0.007650137 -0.14382976 -0.014811188 0.0720821 0.094919294 -0.18617849
-0.0017408878 0.18387365 0.01320228 0.17136651 -0.10905995 -0.113516435 -0.19045253 0.12210485
0.17233759 -0.085122116 -0.1787068 -0.12263948 0.07014239 -0.06613 0.19702482 0.15150663
0.033006653 0.038339496 -0.16596486 -0.12552689 0.13573608 0.20221522 0.19980526 0.06712073
-0.052743778 -0.13413788 -0.17315032 0.176301 -0.15637614 -0.019622654 -0.08514054 0.07198742
00000000: d44d 083e f091 6f3d 5408 80bd e835 413d
00000010: 100d 6e3c 6817 a3bc 50a7 06bd 16b9 203e
00000020: 8037 373e 6a82 23be abdc 1cbe 4eae 123e
00000030: 4ebe 423e 4004 6b3b a03d 3ebd 7819 2bbd
00000040: ac92 43be 00b2 92bc a020 8b3b e2f7 163e
00000050: 0717 e4bd 601a 3e3c d319 4dbe 0d8d 44be
00000060: 7e5d dabd c025 283d a8fc a03c b0f2 07bc
00000070: 9021 1f3e a4a5 013e 86d0 9cbd bcc0 28bd
00000080: a812 9c3d f4b3 3cbe 7071 103e a481 003e
00000090: 00d8 fa3b d458 193d aacb 1ebe 38dc f83d
000000a0: 4058 bf3d 6091 4a3e 7cac 4e3e a0f7 283c
000000b0: 4093 a5bb 6bc0 a2bd 41df f0bd c816 8a3c
000000c0: 8c0c 39be fd5b 19be ca25 2fbe 9cfe 393d
000000d0: b802 ecbc f3a3 e4bd f894 a1bd 0c42 a9bd
000000e0: 28db 00be 809c 893d 30c4 913c b286 213e
000000f0: 10e5 1dbc 0072 7fbd 8037 983d 34df ca3d
00000100: a0d7 c93d 0b1b 3fbe e46d 843d 8899 7dbd
00000110: 5085 e23d 2eea 463e eca9 9cbd 008a 0f3a
00000120: f4b8 b13d d8ae 4fbd b0bf 723c 7690 1bbe
00000130: 2071 9e3d b4f6 26be b024 53bc 475f ccbd
00000140: c022 b43d dec5 423e ec44 46bd 7cfe d73d
00000150: a034 3abd 8c8e 33bd 8ceb 9e3d 9cb4 0c3d
00000160: 35d8 44be 284a 293d 9cd1 f2bd 5814 35bd
00000170: 06ca 4ebe d83d a23d d8fb d73d 2be8 3dbe
00000180: e64c 083e 30be 4bbd 5877 a53c 78ad 6c3d
00000190: 986e 443e 30ee 41bd 46f4 1ebe a442 29be
000001a0: c5d6 40be 2000 133e 5090 453d 8272 1f3e
000001b0: b9cd a8bd 9864 03be d0da a63c a223 2f3e
000001c0: 82bf c8bd 9c25 a73d e478 47be 5019 e3bd
000001d0: 8036 5f3d 3465 4fbd c4e0 093e 4903 40be
000001e0: 7ceb 36be e093 94bb d80e d73c 0c83 ff3d
000001f0: d36e b8bd 92b0 223e 11aa 49be ccbb d33d
00000200: caba 0e3e 4014 9ebb 3c18 93bd 007f 02be
00000210: a41e 293e 5c0f ab3d a459 033e 1e01 4dbe
00000220: 282f 173e c285 203e dab2 0e3e a027 50bd
00000230: f46b f53d ba7b 503e d20e 2ebe 4c74 45be
00000240: 0084 a13d 1845 eabc 78fa e3bc c8b3 893d
00000250: bc5f 103d 94cc 4cbd 7c80 993d 7006 35bc
00000260: 182b 033e 154d d6bd 287e d4bd 74c9 0e3e
00000270: aaa2 3a3e 1587 dfbd 28f9 493e 0cf7 b0bd
00000280: a892 ad3c 0c93 23be 947e 6fbd 2072 17bc
00000290: 3919 e8bd b874 28be bcc4 d53d c0cf 2b3b
000002a0: 2051 a23d c0a2 9b3b 600d bf3c 10b7 4bbd
000002b0: 0fc0 a3bd 9883 93bc b05d 3f3c 95a3 febd
000002c0: d0c7 2bbe 8910 bfbd 2631 353e aa5b adbd
000002d0: 703a 2ebc c8bd f2bc 12fb 18be b65f dfbd
000002e0: 646d 06bd 1c8c e3bd 98a5 0bbe aa81 1c3e
000002f0: 783c ee3c 1827 21be f07e 80bd 30ec 4ebc
00000300: 6f4d 2fbe 40b4 463c 1aeb 363e e07b 453d
00000310: 08d2 27be 2ec6 19be 520a 97bd 3001 1ebd
00000320: 38fa dfbd cdc5 cbbd 7084 4cbd 3219 06be
00000330: 72a8 9dbd 4099 9a3b f801 50be 2a66 463e
00000340: 8874 eb3d d85a 0d3d 20a8 003c 2464 1dbd
00000350: 0ecb 21be 387b 58bd 0409 93bd b020 d43d
00000360: c25c 85bd 98f0 483d 00ae fa3b 1c48 13be
00000370: a0aa 72bc c89f 933d 0c65 c23d 93a5 3ebe
00000380: 802e e4ba 6049 3c3e 604e 583c b47a 2f3e
00000390: d35a dfbd 4e7b e8bd fd05 43be 1c12 fa3d
000003a0: 4479 303e 8154 aebd eafe 36be 682a fbbd
000003b0: d0a6 8f3d 2a6f 87bd e0c0 493e 8e24 1b3e
000003c0: fc31 073d e009 1d3d b1f2 29be 1f8a 00be
000003d0: 66fe 0a3e 8211 4f3e c099 4c3e 9876 893d
000003e0: dc09 58bd 715b 09be 514e 31be 4088 343e
000003f0: 1121 20be b0bf a0bc 2a5e aebd 246e 933d

bias f4 [24]
-0.10445316 -0.14488779 -0.08990131 -0.057608485 -0.07257305 0.11761218 -0.010711193 -0.12031151
-0.087715656 0.18908009 -0.13503537 0.0019726008 -0.005469203 -0.08354078 -0.19308288 0.11106786
-0.19985983 -0.07388143 -0.17689264 -0.03602627 -0.18395343 -0.058738947 -0.19749731 0.072099864
00000000: 8aeb d5bd 775d 14be 2e1e b8bd e0f6 6bbd
00000010: 2ea1 94bd a8de f03d 007e 2fbc e265 f6bd
00000020: 44a4 b3bd 369e 413e b646 0abe c046 013b
00000030: 0037 b3bb 6e17 abbd 85b7 45be 8c77 e33d
00000040: 0ea8 4cbe 264f 97bd 5823 35be 4890 13bd
00000050: 4a5e 3cbe 4098 70bd bc3c 4abe 18a9 933d

weight f4 [24, 1, 3, 3]
0.23849693 -0.32216966 0.29965273 0.27128628 -0.19359621 0.23185495 0.03189203 0.2857274
-0.12606427 0.32109508 -0.05469033 0.28461197 0.07642582 -0.14187035 -0.015611857 -0.17935452
-0.04800734 -0.22549367 -0.26724666 -0.18576758 0.26957843 -0.13450846 -0.22606735 0.21223632
-0.18325317 -0.3190047 -0.22478616 0.2526348 0.30076382 0.19199196 0.24879327 -0.12019579
0.21452805 -0.035621792 0.28246 0.06107366 0.253073 -0.27474278 -0.19861767 -0.30519065
-0.15828967 0.061159253 -0.09000108 -0.24804752 0.23420104 -0.2932794 0.2199687 0.24662223
-0.2880202 0.031605363 -0.048462123 -0.18050322 0.09847233 -0.04663071 0.3091294 -0.1930126
-0.29925472 0.24801227 -0.23147158 -0.03990349 0.00697425 0.3271254 0.2730495 -0.057195187
-0.14203012 -0.23095557 0.20116845 0.27193156 0.0018953085 0.069482535 -0.19814003 0.06422654
-0.25327826 0.047456354 0.027145028 -0.3018341 0.12006235 -0.060076594 -0.07266617 0.3228567
-0.14790103 -0.20501396 0.13633808 -0.21427688 -0.12687556 0.08510956 0.08575836 -0.037864804
-0.14027719 -0.13891368 -0.327903 -0.24310493 0.095775515 -0.21772616 0.10995957 -0.11497001
0.08631703 0.26207277 0.16927806 -0.27717876 0.2580897 0.20770213 0.09520915 -0.30220208
0.16442797 -0.0077370405 0.10770059 0.073550254 -0.25056216 0.046913058 0.28294054 -0.011420846
-0.28654087 0.24418887 -0.017089576 0.10030484 0.26919433 -0.24295136 -0.10253763 0.2444059
-0.29103243 -0.25118297 0.25733414 0.24019042 0.17293242 -0.23966157 0.01650402 0.0741837
0.11277616 -0.10549912 -0.1380808 -0.26578104 -0.29117665 0.1873618 -0.28483912 0.09651637
-0.017220527 -0.23466611 -0.30935678 -0.21391773 -0.32840607 0.14357379 0.24088857 0.3229505
0.15961292 0.036516547 0.29860583 -0.22830002 0.105994314 0.11663127 0.036990166 -0.2963189
0.24019536 0.0778971 0.0022724867 -0.03549108 -0.3142818 -0.02103296 0.26631978 0.22135618
-0.064474195 0.030682296 0.17699793 -0.2561595 -0.146211 -0.099161625 -0.2838398 -0.2348644
0.045775443 0.039363265 -0.20132212 0.13813078 -0.089314386 0.16275379 0.13744962 -0.036392897
0.19013396 0.11523661 0.052717775 -0.32785553 -0.3093836 -0.094310924 0.09663749 0.14804414
-0.1935409 0.19137254 0.05091533 -0.11162031 0.32058302 -0.30293787 0.14000675 -0.08947973
-0.17080364 -0.22533032 -0.1101594 0.18563434 -0.18779139 0.19768867 0.242021 0.24217638
0.12031391 0.017136186 -0.2699686 -0.2985223 0.09394455 0.018242687 0.023614794 0.2299259
-0.041000992 0.15035808 -0.18598175 -0.33206517 -0.04483679 -0.18039653 0.036745816 0.20189825
00000000: 8a38 743e 6cf3 a4be 156c 993e 09e6 8a3e
00000010: 163e 46be 626b 6d3e 38a1 023d dd4a 923e
00000020: fe16 01be 9366 a43e f802 60bd a9b8 913e
00000030: 2485 9c3d 7646 11be e0c8 7fbc b6a8 37be
00000040: 58a3 44bd d0e7 66be 8ed4 88be db39 3ebe
00000050: 2f06 8a3e 96bc 09be 337e 67be 7a54 593e
00000060: b8a6 3bbe 9654 a3be 582e 66be 5959 813e
00000070: b7fd 993e 8a99 443e aac3 7e3e 3629 f6bd
00000080: 3ead 5b3e 28e8 11bd 999e 903e 6028 7a3d
00000090: c992 813e 16ab 8cbe 6e62 4bbe f341 9cbe
000000a0: b016 22be 2082 7a3d 7c52 b8bd 2b00 7ebe
000000b0: 66d2 6f3e b828 96be 7a3f 613e 8a8a 7c3e
000000c0: 6277 93be a074 013d 3880 46bd d6d5 38be
000000d0: dcab c93d d8ff 3ebd 3546 9e3e 18a5 45be
000000e0: ea37 99be eef6 7d3e e306 6dbe d871 23bd
000000f0: 4088 e43b fb7c a73e 25cd 8b3e 8045 6abd
00000100: 5870 11be 9e7f 6cbe 1aff 4d3e 9d3a 8b3e
00000110: 006c f83a dc4c 8e3d 38e5 4abe 3489 833d
00000120: b0ad 81be 9861 423d 405f de3c 008a 9abe
00000130: 40e3 f53d e012 76bd 00d2 94bd 794d a53e
00000140: 5e73 17be 2eef 51be 369c 0b3e 666b 5bbe
00000150: abeb 01be ec4d ae3d 14a2 af3d 2018 1bbd
00000160: d3a4 0fbe 633f 0ebe e7e2 a7be 80f0 78be
00000170: f425 c43d 9bf3 5ebe 7c32 e13d 6675 ebbd
00000180: fcc6 b03d 672e 863e 3a57 2d3e 60ea 8dbe
00000190: 5524 843e deaf 543e 04fd c23d 3bba 9abe
000001a0: ce5f 283e 0087 fdbb 2092 dc3d 84a1 963d
000001b0: af49 80be e827 403d 95dd 903e 801e 3bbc
000001c0: 7cb5 92be a60c 7a3e 70ff 8bbc a06c cd3d
000001d0: d7d3 893e 3ec8 78be 40ff d1bd 8a45 7a3e
000001e0: 3402 95be 0e9b 80be 4dc1 833e 7af4 753e
000001f0: 3215 313e d869 75be 7033 873c a0ed 973d
00000200: 30f7 e63d ec0f d8bd 0e65 0dbe 7414 88be
00000210: 1b15 95be c6db 3f3e 6fd6 91be 60aa c53d
00000220: 1012 8dbc 504c 70be 0364 9ebe 400d 5bbe
00000230: d724 a8be 0205 133e 7eab 763e c559 a53e
00000240: 9271 233e 6092 153d dde2 983e 7bc7 69be
00000250: 8c13 d93d 60dc ee3d 0083 173d 1cb7 97be
00000260: c6f5 753e 8488 9f3d 00ee 143b 185f 11bd
00000270: 8be9 a0be 504d acbc 115b 883e 32ab 623e
00000280: 0c0b 84bd 7059 fb3c f23e 353e 5727 83be
00000290: 56b8 15be 4015 cbbd 7353 91be 4b80 70be
000002a0: 087f 3b3d 603b 213d 6327 4ebe 2872 0d3e
000002b0: 76ea b6bd eea8 263e 98bf 0c3e b810 15bd
000002c0: 7ab2 423e 2c01 ec3d 98ee 573d aedc a7be
000002d0: 8767 9ebe 1626 c1bd e0e9 c53d e298 173e
000002e0: 962f 46be 2af7 433e 988c 503d 3099 e4bd
000002f0: 7523 a43e ac1a 9bbe ee5d 0f3e 2641 b7bd
00000300: 26e7 2ebe febc 66be 409b e1bd ee16 3e3e
00000310: 634c 40be e66e 4a3e 5ad4 773e 16fd 773e
00000320: 2467 f63d 3061 8c3c 5339 8abe ead7 98be
00000330: 0066 c03d b071 953c d073 c13c b271 6b3e
00000340: a8f0 27bd 78f7 193e 0072 3ebe 7204 aabe
00000350: c8a6 37bd deb9 38be c882 163d 6abe 4e3e

weight f4 [24]
1.0 1.0 1.0 1.0 1.0 1.0 1.0 1.0
1.0 1.0 1.0 1.0 1.0 1.0 1.0 1.0
1.0 1.0 1.0 1.0 1.0 1.0 1.0 1.0
00000000: 0000 803f 0000 803f 0000 803f 0000 803f
00000010: 0000 803f 0000 803f 0000 803f 0000 803f
00000020: 0000 803f 0000 803f 0000 803f 0000 803f
00000030: 0000 803f 0000 803f 0000 803f 0000 803f
00000040: 0000 803f 0000 803f 0000 803f 0000 803f
00000050: 0000 803f 0000 803f 0000 803f 0000 803f

bias f4 [24]
0.0 0.0 0.0 0.0 0.0 0.0 0.0 0.0
0.0 0.0 0.0 0.0 0.0 0.0 0.0 0.0
0.0 0.0 0.0 0.0 0.0 0.0 0.0 0.0
00000000: 0000 0000 0000 0000 0000 0000 0000 0000
00000010: 0000 0000 0000 0000 0000 0000 0000 0000
00000020: 0000 0000 0000 0000 0000 0000 0000 0000
00000030: 0000 0000 0000 0000 0000 0000 0000 0000
00000040: 0000 0000 0000 0000 0000 0000 0000 0000
00000050: 0000 0000 0000 0000 0000 0000 0000 0000

running_mean f4 [24]
0.0 0.0 0.0 0.0 0.0 0.0 0.0 0.0
0.0 0.0 0.0 0.0 0.0 0.0 0.0 0.0
0.0 0.0 0.0 0.0 0.0 0.0 0.0 0.0
00000000: 0000 0000 0000 0000 0000 0000 0000 0000
00000010: 0000 0000 0000 0000 0000 0000 0000 0000
00000020: 0000 0000 0000 0000 0000 0000 0000 0000
00000030: 0000 0000 0000 0000 0000 0000 0000 0000
00000040: 0000 0000 0000 0000 0000 0000 0000 0000
00000050: 0000 0000 0000 0000 0000 0000 0000 0000

running_var f4 [24]
1.0 1.0 1.0 1.0 1.0 1.0 1.0 1.0
1.0 1.0 1.0 1.0 1.0 1.0 1.0 1.0
1.0 1.0 1.0 1.0 1.0 1.0 1.0 1.0
00000000: 0000 803f 0000 803f 0000 803f 0000 803f
00000010: 0000 803f 0000 803f 0000 803f 0000 803f
00000020: 0000 803f 0000 803f 0000 803f 0000 803f
00000030: 0000 803f 0000 803f 0000 803f 0000 803f
00000040: 0000 803f 0000 803f 0000 803f 0000 803f
00000050: 0000 803f 0000 803f 0000 803f 0000 803f

weight f4 [24, 24, 1, 1]
0.0027996898 -0.013810128 -0.12656197 -0.07146016 0.046357125 -0.017515764 -0.0064056516 0.17962962
0.09678057 -0.033296347 0.035583496 -0.012804389 0.09212208 -0.049490973 -0.008741543 0.09517461
0.17407471 -0.09662646 -0.07110551 0.04027137 -0.0012557507 -0.01669234 0.05110374 -0.15285112
0.12679958 -0.19833703 -0.14817366 0.19758266 0.14173168 -0.08975694 0.13005641 0.085984945
0.08002317 0.092117906 0.035029843 0.1832428 0.122483015 -0.08669321 -0.14556012 0.109902084
-0.022783324 0.15084463 -0.18021764 0.16724452 0.000995025 0.16155332 0.090145916 0.12572795
0.020865247 -0.08815551 -0.005310595 0.0055211484 -0.12373541 -0.056596115 -0.09333122 -0.115506336
0.12231293 0.016272679 -0.12425544 0.0010063797 0.0043777227 0.14534593 0.18822521 0.04619354
0.15850082 -0.0706799 0.14140159 0.17822748 -0.03682393 0.07415542 -0.1925071 -0.19035259
0.11864224 -0.04936242 0.021751419 -0.13618928 0.0880616 0.03109993 -0.1484907 0.09113857
0.07635456 -0.059321508 -0.1428426 0.18707743 0.06508699 0.096229434 0.036103293 -0.198927
0.07778028 -0.03075017 0.18616101 0.14043465 -0.18541437 0.0031946748 -0.13717836 -0.17336355
0.1473468 0.11206189 -0.14484423 -0.13233495 -0.14246663 -0.15092266 -0.051179692 0.09365815
-0.059323385 0.11970103 0.13388857 -0.10791913 0.14626262 0.15483707 -0.0697207 0.18701032
0.10000989 0.16992879 0.19658375 -0.13073632 -0.007631108 -0.15462592 0.04645458 0.08272943
0.14345011 0.20202193 -0.1873673 -0.01654087 -0.18852444 -0.021568328 -0.17327261 0.124019235
0.06703377 0.04261124 -0.062216803 -0.0367855 0.10288787 -0.13011205 0.16476068 -0.11747467
-0.19167516 -0.010519475 -0.15876824 -0.1955722 0.012994915 0.1855464 0.17563516 -0.1581621
-0.15243538 0.18856731 -0.073154494 -0.08099842 -0.13020065 -0.15812068 0.013981849 -0.076847434
-0.056359053 -0.19359267 -0.022083253 0.1658122 -0.09984795 -0.1676806 -0.17617214 -0.17787807
0.12514368 -0.1193765 0.052546024 -0.20407943 -0.08554786 0.18384135 -0.087140925 0.042305514
-0.06314768 0.17052874 0.09437424 -0.023742676 -0.087732665 -0.053650692 -0.16304809 0.17746243
-0.16395189 -0.15218528 -0.062389478 0.05506739 0.06395522 0.19012722 -0.10346257 0.17338392
0.054695576 0.16978833 0.04533486 -0.12400714 0.19309166 0.17291361 0.08839598 0.08788094
-0.01097317 -0.08040731 -0.16772908 -0.14036992 0.14470175 -0.1620747 0.038979948 0.1640338
-0.09378601 -0.018159896 -0.16334362 -0.12615639 0.035287723 -0.098100096 0.15305465 -0.09410305
-0.13841477 -0.076766625 -0.06929135 0.20386973 0.19715336 0.088216245 0.19322693 -0.17050964
0.0852426 -0.00234887 -0.13770795 -0.11259811 0.0006495565 -0.0066955388 -0.075774625 0.093774706
-0.06071806 -0.17195067 0.06618646 -0.049359158 -0.10113811 0.12863171 -0.03016752 -0.04660088
-0.054909438 -0.037058234 -0.034763604 0.17044562 -0.09178078 -0.19202855 -0.021139681 -0.1758707
0.0723578 -0.022883877 0.17211294 0.17138797 -0.13165653 0.019281477 -0.09420494 -0.048740327
-0.017537192 -0.15765569 -0.16924965 0.04483162 0.17418486 -0.023960456 -0.09582416 0.05231774
00000000: 007b 373b e043 62bc 7699 01be b459 92bd
00000010: f8e0 3d3d 387d 8fbc 80e6 d1bb d4f0 373e
00000020: e434 c63d c061 08bd 00c0 113d 80c9 51bc
00000030: 80aa bc3d 0cb7 4abd b038 0fbc e8ea c23d
00000040: a440 323e 18e4 c5bd c49f 91bd 98f3 243d
00000050: 0098 a4ba 60be 88bc 2852 513d 0185 1cbe
00000060: c0d7 013e dd18 4bbe d6ba 17be 1c53 4a3e
00000070: 1c22 113e 7dd2 b7bd 822d 053e e018 b03d
00000080: 30e3 a33d 50a8 bc3d 747b 0f3d 00a4 3b3e
00000090: 60d8 fa3d 368c b1bd b60d 15be 5814 e13d
000000a0: 18a4 babc 0477 1a3e f98a 38be 2642 2b3e
000000b0: 806b 823a 3c6e 253e 6c9e b83d d4be 003e
000000c0: 98ed aa3c e08a b4bd 8004 aebb c0ea b43b
000000d0: fe68 fdbd 54d1 67bd 7024 bfbd 968e ecbd
000000e0: 347f fa3d 484e 853c a379 febd 80e8 833a
000000f0: 0073 8f3b 90d5 143e 1cbe 403e 7035 3d3d
00000100: 0a4e 223e a0c0 90bd 94cb 103e 4481 363e
00000110: b0d4 16bd ccde 973d 9520 45be caeb 42be
00000120: b4fa f23d 4030 4abd 0830 b23c 3475 0bbe
00000130: a459 b43d 48c5 fe3c f20d 18be dca6 ba3d
00000140: c85f 9c3d 1cfb 72bd 5545 12be 3a91 3f3e
00000150: 544c 853d f013 c53d 0ce1 133d 85b3 4bbe
00000160: 444b 9f3d c8e7 fbbc fea0 3e3e 1ace 0f3e
00000170: 44dd 3dbe c05d 513b 7c78 0cbe 3786 31be
00000180: 14e2 163e b480 e53d 0c52 14be d082 07be
00000190: c6e2 11be 788b 1abe cca1 51bd d8cf bf3d
000001a0: 14fd 72bd d025 f53d 161a 093e b404 ddbd
000001b0: dec5 153e 9c8d 1e3e bac9 8ebd a27f 3f3e
000001c0: fcd1 cc3d d001 2e3e 404d 493e bedf 05be
000001d0: 600e fabb 4256 1ebe 2847 3e3d 0c6e a93d
000001e0: 96e4 123e d6de 4e3e 37dd 3fbe b880 87bc
000001f0: 8d0c 41be 10b0 b0bc 606e 31be ccfd fd3d
00000200: 0049 893d 2089 2e3d 0cd7 7ebd 64ac 16bd
00000210: e0b6 d23d 183c 05be 06b7 283e 8f96 f0bd
00000220: 7e46 44be e059 2cbc 2494 22be 1444 48be
00000230: a0e8 543c e0ff 3d3e b4d9 333e 3ff5 21be
00000240: 0518 1cbe ca17 413e 06d2 95bd 80e2 a5bd
00000250: 5253 05be 63ea 21be 2014 653c 3062 9dbd
00000260: c0d8 66bd 283d 46be f0e7 b4bc acca 293e
00000270: 157d ccbd 77b4 2bbe 7866 34be ab25 36be
00000280: aa25 003e ab7b f4bd 803a 573d 33fa 50be
00000290: b733 afbd e840 3c3e f176 b2bd 8c48 2d3d
000002a0: 9253 81bd 169f 2e3e 4847 c13d 0080 c2bc
000002b0: 2fad b3bd d4c0 5bbd 14f6 26be b6b8 353e
000002c0: 01e3 27be 75d6 1bbe 1c8c 7fbd 588e 613d
000002d0: f4fa 823d b6b0 423e 2fe4 d3bd 8e8b 313e
000002e0: 7808 603d fedc 2d3e 0cb1 393d 75f7 fdbd
000002f0: d2b9 453e 4410 313e f408 b53d ecfa b33d
00000300: d0c8 33bc 96ac a4bd 2cc1 2bbe 22bd 0fbe
00000310: b22c 143e e9f6 25be 70a9 1f3d 7af8 273e
00000320: e112 c0bd 10c4 94bc 8d43 27be 242f 01be
00000330: dc89 103d b4e8 c8bd 5cba 1c3e 1ab9 c0bd
00000340: 9abc 0dbe d237 9dbd a0e8 8dbd 3ac3 503e
00000350: 92e2 493e b8aa b43d 48dd 453e 149a 2ebe
00000360: ac93 ae3d 80ef 19bb 5003 0dbe d799 e6bd
00000370: 0047 2a3a 4066 dbbb ba2f 9bbd f40c c03d
00000380: 80b3 78bd d613 30be c48c 873d d42c 4abd
00000390: 7f21 cfbd 08b8 033e e021 f7bc 90e0 3ebd
000003a0: b8e8 60bd 60ca 17bd 4864 0ebd 4c89 2e3e
000003b0: 90f7 bbbd 22a3 44be 202d adbc 7317 34be
000003c0: 5430 943d f876 bbbc 603e 303e 5480 2f3e
000003d0: f8d0 06be 30f4 9d3c 85ee c0bd f0a3 47bd
000003e0: 28aa 8fbc 7e70 21be c84f 2dbe 5ca1 373d
000003f0: 845d 323e b848 c4bc 753f c4bd 204b 563d

weight f4 [24]
1.0 1.0 1.0 1.0 1.0 1.0 1.0 1.0
1.0 1.0 1.0 1.0 1.0 1.0 1.0 1.0
1.0 1.0 1.0 1.0 1.0 1.0 1.0 1.0
00000000: 0000 803f 0000 803f 0000 803f 0000 803f
00000010: 0000 803f 0000 803f 0000 803f 0000 803f
00000020: 0000 803f 0000 803f 0000 803f 0000 803f
00000030: 0000 803f 0000 803f 0000 803f 0000 803f
00000040: 0000 803f 0000 803f 0000 803f 0000 803f
00000050: 0000 803f 0000 803f 0000 803f 0000 803f

bias f4 [24]
0.0 0.0 0.0 0.0 0.0 0.0 0.0 0.0
0.0 0.0 0.0 0.0 0.0 0.0 0.0 0.0
0.0 0.0 0.0 0.0 0.0 0.0 0.0 0.0
00000000: 0000 0000 0000 0000 0000 0000 0000 0000
00000010: 0000 0000 0000 0000 0000 0000 0000 0000
00000020: 0000 0000 0000 0000 0000 0000 0000 0000
00000030: 0000 0000 0000 0000 0000 0000 0000 0000
00000040: 0000 0000 0000 0000 0000 0000 0000 0000
00000050: 0000 0000 0000 0000 0000 0000 0000 0000

running_mean f4 [24]
0.0 0.0 0.0 0.0 0.0 0.0 0.0 0.0
0.0 0.0 0.0 0.0 0.0 0.0 0.0 0.0
0.0 0.0 0.0 0.0 0.0 0.0 0.0 0.0
00000000: 0000 0000 0000 0000 0000 0000 0000 0000
00000010: 0000 0000 0000 0000 0000 0000 0000 0000
00000020: 0000 0000 0000 0000 0000 0000 0000 0000
00000030: 0000 0000 0000 0000 0000 0000 0000 0000
00000040: 0000 0000 0000 0000 0000 0000 0000 0000
00000050: 0000 0000 0000 0000 0000 0000 0000 0000

running_var f4 [24]
1.0 1.0 1.0 1.0 1.0 1.0 1.0 1.0
1.0 1.0 1.0 1.0 1.0 1.0 1.0 1.0
1.0 1.0 1.0 1.0 1.0 1.0 1.0 1.0
00000000: 0000 803f 0000 803f 0000 803f 0000 803f
00000010: 0000 803f 0000 803f 0000 803f 0000 803f
00000020: 0000 803f 0000 803f 0000 803f 0000 803f
00000030: 0000 803f 0000 803f 0000 803f 0000 803f
00000040: 0000 803f 0000 803f 0000 803f 0000 803f
00000050: 0000 803f 0000 803f 0000 803f 0000 803f

weight f4 [72, 24, 1, 1]
0.16157496 -0.08811703 -0.179415 -0.1463232 -0.11074152 -0.028686851 0.19887757 -0.05964057
0.14715463 -0.0930543 -0.17566523 -0.146992 -0.091612175 0.1378631 -0.07748413 0.05190867
-0.037141412 0.102099985 0.06915602 -0.08758749 -0.11956166 -0.16154048 -0.10523755 -0.037445307
0.1197727 0.13440818 -0.10105365 0.12869203 0.1374932 -0.06613526 -0.1356961 0.043467134
0.13080662 0.1009959 0.101793736 -0.1347461 0.012301013 0.061151862 -0.03869176 -0.036425397
-0.119800754 0.15402189 0.0073821545 -0.065397635 0.019769475 -0.037371412 0.02259767 -0.11791425
-0.018875986 0.20254645 -0.17183894 -0.15334073 -0.20357782 -0.03867638 0.15178683 0.05567789
0.12476492 -0.0278382 0.18939963 -0.04591234 -0.0014919639 -0.09920511 -0.029702663 0.037999645
0.07676476 0.16047049 0.027010083 -0.18692072 0.09004745 -0.11736434 0.050992936 0.18808675
0.05535382 0.15919408 -0.05155334 -0.0042841583 -0.009217083 -0.13066542 -0.15254031 -0.199399
-0.108943105 -0.06502922 0.1163421 0.033470944 0.048918217 0.16782776 -0.0591072 0.17595717
0.18676025 -0.09139201 -0.04868208 -0.13664019 0.14547446 0.020396024 -0.17948712 0.0271803
0.1942968 0.07666454 -0.01673089 -0.04669118 0.10482463 0.07904118 -0.1644459 0.15017527
-0.07570973 -0.14137757 -0.15735921 0.1738027 0.1993576 0.0068597645 -0.118568584 0.18382934
0.14309046 -0.12856314 0.023712575 -0.18044668 -0.06471984 -0.09809621 -0.017871857 -0.007353753
0.1574769 0.044392884 0.13030377 -0.1728858 0.13393971 -0.052982613 0.095745 -0.051378936
0.1544264 0.006596178 -0.109261826 0.081505835 -0.17737487 0.118670285 -0.16411904 -0.116986565
0.20130056 0.18658024 0.16638988 0.10141653 -0.100579925 -0.03808272 -0.18972327 0.014621943
0.015475586 -0.1469548 0.10166645 -0.026802734 0.021337211 -0.15881419 -0.07464348 0.15549472
0.07696077 0.15467584 0.096815795 0.15468124 -0.04034856 0.0053131282 0.10958192 -0.0854578
-0.057017326 0.0929873 -0.061412632 -0.18986292 -0.082693055 -0.008381203 -0.059221566 0.13733512
-0.01787655 0.079019606 0.0062438548 0.1511803 -0.15408894 0.18605474 0.20349613 0.19413206
-0.010009512 0.068991214 -0.032103837 0.17010671 -0.07644312 0.041570634 0.042474136 0.01784414
0.08753079 -0.027531743 -0.020311892 0.15595093 -0.14176622 0.112001956 0.02355443 -0.19306125
-0.18443714 0.051902473 -0.109108694 -0.16916773 -0.073244065 -0.07218103 0.057839096 -0.031202719
-0.20353599 -0.17289221 0.022703424 0.07158086 -0.009507239 -0.19258076 0.041570082 -0.14246176
-0.1699942 -0.07091805 -0.086593226 0.06763762 0.08107433 -0.07951276 0.19920868 0.033015102
-0.04214026 0.045738235 -0.007792458 0.12548536 0.0027200282 0.023103654 0.15833482 -0.034586146
-0.18874222 -0.18985188 -0.08812375 0.08243734 -0.025117591 -0.12599415 -0.03716752 0.1029605
-0.008916721 0.18772903 0.09061563 0.17961693 0.16913608 -0.19204043 -0.023481354 0.12206218
0.015379578 -0.17816819 -0.09023622 0.17655724 0.05436349 0.051462024 -0.05256337 -0.09754972
0.032729745 0.15824005 0.16732407 -0.0015404373 0.12766579 -0.15908483 0.15816143 0.05300045
00000000: e873 253e b476 b4bd 91b8 37be c0d5 15be
00000010: 73cc e2bd b000 ebbc 90a6 4b3e ac49 74bd
00000020: b4af 163e 4193 bebd 96e1 33be 1285 16be
00000030: 2a9f bbbd fc2b 0d3e 00b0 9ebd 309e 543d
00000040: 9821 18bd cc19 d13d aca1 8d3d 1261 b3bd
00000050: bedc f4bd de6a 25be c986 d7bd 4060 19bd
00000060: 644b f53d 4ca2 093e 37f5 cebd d8c7 033e
00000070: 04cb 0c3e ec71 87bd ebf3 0abe 980a 323d
00000080: 2cf2 053e f0d6 ce3d 3c79 d03d e2fa 09be
00000090: 308a 493c 607a 7a3d 407b 1ebd cc32 15bd
000000a0: 195a f5bd eab7 1d3e 00e6 f13b 32ef 85bd
000000b0: 98f3 a13c c412 19bd c01e b93c 077d f1bd
000000c0: d0a1 9abc 5668 4f3e 8cf6 2fbe 5a05 1dbe
000000d0: b476 50be 206b 1ebd 026e 1b3e 800e 643d
000000e0: c084 ff3d f00c e4bc faf1 413e 940e 3cbd
000000f0: 008e c3ba 0c2c cbbd 0053 f3bc 84a5 1b3d
00000100: d836 9d3d 6052 243e 4044 dd3c 2568 3fbe
00000110: cc6a b83d b75c f0bd f8dd 503d d099 403e
00000120: b0ba 623d c603 233e 9829 53bd 2062 8cbb
00000130: 4003 17bc 28cd 05be 8733 1cbe 402f 4cbe
00000140: 901d dfbd 0a2e 85bd c444 ee3d d418 093d
00000150: 785e 483d 0adb 2b3e 641a 72bd 1e2e 343e
00000160: 143e 3f3e bc2b bbbd dc66 47bd 68eb 0bbe
00000170: 42f7 143e 9015 a73c 79cb 37be 38a9 de3c
00000180: bef5 463e 4c02 9d3d 380f 89bc 403f 3fbd
00000190: 4cae d63d 58e0 a13d 8264 28be 8cc7 193e
000001a0: b40d 9bbd 48c5 10be c622 21be 56f9 313e
000001b0: 6624 4c3e e0c7 e03b 16d4 f2bd c23d 3c3e
000001c0: 4e86 123e 0ea6 03be e040 c23c 04c7 38be
000001d0: d68b 84bd aae6 c8bd 0068 92bc c0f7 f0bb
000001e0: a041 213e 50d5 353d 5a6e 053e fa08 31be
000001f0: 7e27 093e 4c04 59bd f415 c43d b872 52bd
00000200: f421 1e3e c024 d83b aac4 dfbd 88ec a63d
00000210: c2a1 35be 6809 f33d d20e 28be a796 efbd
00000220: bc21 4e3e e40e 3f3e 1c62 2a3e 78b3 cf3d
00000230: d9fc cdbd a0fc 1bbd d146 42be e090 6f3c
00000240: 508d 7d3c 527b 16be 8036 d03d 6891 dbbc
00000250: 60cb ae3c 30a0 22be aede 98bd 023a 1f3e
00000260: 9c9d 9d3d 5863 1e3e 5c47 c63d c264 1e3e
00000270: 8844 25bd c019 ae3b 7c6c e03d 8004 afbd
00000280: 008b 69bd 2070 be3d d08b 7bbd 6d6b 42be
00000290: fa5a a9bd 5051 09bc 5092 72bd 94a1 0c3e
000002a0: d871 92bc 08d5 a13d 4099 cc3b 02cf 1a3e
000002b0: 7ec9 1dbe 2285 3e3e 4a61 503e 8eca 463e
000002c0: f0fe 23bc 444b 8d3d 507f 03bd 7430 2e3e
000002d0: 368e 9cbd f845 2a3d 5cf9 2d3d e02d 923c
000002e0: 5843 b33d 408a e1bc 2065 a6bc 9ab1 1f3e
000002f0: 2a2b 11be 4861 e53d 38f5 c03c d9b1 45be
00000300: 17dd 3cbe b097 543d 6174 dfbd 4e3a 2dbe
00000310: fc00 96bd a6d3 93bd b0e8 6c3d d89c ffbc
00000320: bd6b 50be a80a 31be 88fc b93c fc98 923d
00000330: 40c4 1bbc e433 45be 6445 2a3d 7fe1 11be
00000340: f612 2ebe 7c3d 91bd ca57 b1bd 9885 8a3d
00000350: 4c0a a63d 96d7 a2bd 5cfd 4b3e d83a 073d
00000360: 449b 2cbd 0458 3b3d e057 ffbb 3c7f 003e
00000370: 8042 323b e043 bd3c 8622 223e 34aa 0dbd
00000380: a445 41be 8868 42be 3a7a b4bd e8d4 a83d
00000390: 68c3 cdbc 9c04 01be f83c 18bd f4dc d23d
000003a0: 7017 12bc 0a3c 403e b094 b93d 80ed 373e
000003b0: 0232 2d3e 3fa6 44be f85b c0bc bcfb f93d
000003c0: a0fa 7b3c b971 36be c4cd b8bd 6ccb 343e
000003d0: 40ac 5e3d d8c9 523d b04c 57bd 26c8 c7bd
000003e0: a00f 063d ae09 223e 0057 2b3e 80e8 c9ba
000003f0: d2ba 023e 22e7 22be 12f5 213e 0017 593d

weight f4 [72]
1.0 1.0 1.0 1.0 1.0 1.0 1.0 1.0
1.0 1.0 1.0 1.0 1.0 1.0 1.0 1.0
1.0 1.0 1.0 1.0 1.0 1.0 1.0 1.0
1.0 1.0 1.0 1.0 1.0 1.0 1.0 1.0
1.0 1.0 1.0 1.0 1.0 1.0 1.0 1.0
1.0 1.0 1.0 1.0 1.0 1.0 1.0 1.0
1.0 1.0 1.0 1.0 1.0 1.0 1.0 1.0
1.0 1.0 1.0 1.0 1.0 1.0 1.0 1.0
1.0 1.0 1.0 1.0 1.0 1.0 1.0 1.0
00000000: 0000 803f 0000 803f 0000 803f 0000 803f
00000010: 0000 803f 0000 803f 0000 803f 0000 803f
00000020: 0000 803f 0000 803f 0000 803f 0000 803f
00000030: 0000 803f 0000 803f 0000 803f 0000 803f
00000040: 0000 803f 0000 803f 0000 803f 0000 803f
00000050: 0000 803f 0000 803f 0000 803f 0000 803f
00000060: 0000 803f 0000 803f 0000 803f 0000 803f
00000070: 0000 803f 0000 803f 0000 803f 0000 803f
00000080: 0000 803f 0000 803f 0000 803f 0000 803f
00000090: 0000 803f 0000 803f 0000 803f 0000 803f
000000a0: 0000 803f 0000 803f 0000 803f 0000 803f
000000b0: 0000 803f 0000 803f 0000 803f 0000 803f
000000c0: 0000 803f 0000 803f 0000 803f 0000 803f
000000d0: 0000 803f 0000 803f 0000 803f 0000 803f
000000e0: 0000 803f 0000 803f 0000 803f 0000 803f
000000f0: 0000 803f 0000 803f 0000 803f 0000 803f
00000100: 0000 803f 0000 803f 0000 803f 0000 803f
00000110: 0000 803f 0000 803f 0000 803f 0000 803f

bias f4 [72]
0.0 0.0 0.0 0.0 0.0 0.0 0.0 0.0
0.0 0.0 0.0 0.0 0.0 0.0 0.0 0.0
0.0 0.0 0.0 0.0 0.0 0.0 0.0 0.0
0.0 0.0 0.0 0.0 0.0 0.0 0.0 0.0
0.0 0.0 0.0 0.0 0.0 0.0 0.0 0.0
0.0 0.0 0.0 0.0 0.0 0.0 0.0 0.0
0.0 0.0 0.0 0.0 0.0 0.0 0.0 0.0
0.0 0.0 0.0 0.0 0.0 0.0 0.0 0.0
0.0 0.0 0.0 0.0 0.0 0.0 0.0 0.0
00000000: 0000 0000 0000 0000 0000 0000 0000 0000
00000010: 0000 0000 0000 0000 0000 0000 0000 0000
00000020: 0000 0000 0000 0000 0000 0000 0000 0000
00000030: 0000 0000 0000 0000 0000 0000 0000 0000
00000040: 0000 0000 0000 0000 0000 0000 0000 0000
00000050: 0000 0000 0000 0000 0000 0000 0000 0000
00000060: 0000 0000 0000 0000 0000 0000 0000 0000
00000070: 0000 0000 0000 0000 0000 0000 0000 0000
00000080: 0000 0000 0000 0000 0000 0000 0000 0000
00000090: 0000 0000 0000 0000 0000 0000 0000 0000
000000a0: 0000 0000 0000 0000 0000 0000 0000 0000
000000b0: 0000 0000 0000 0000 0000 0000 0000 0000
000000c0: 0000 0000 0000 0000 0000 0000 0000 0000
000000d0: 0000 0000 0000 0000 0000 0000 0000 0000
000000e0: 0000 0000 0000 0000 0000 0000 0000 0000
000000f0: 0000 0000 0000 0000 0000 0000 0000 0000
00000100: 0000 0000 0000 0000 0000 0000 0000 0000
00000110: 0000 0000 0000 0000 0000 0000 0000 0000

running_mean f4 [72]
0.0 0.0 0.0 0.0 0.0 0.0 0.0 0.0
0.0 0.0 0.0 0.0 0.0 0.0 0.0 0.0
0.0 0.0 0.0 0.0 0.0 0.0 0.0 0.0
0.0 0.0 0.0 0.0 0.0 0.0 0.0 0.0
0.0 0.0 0.0 0.0 0.0 0.0 0.0 0.0
0.0 0.0 0.0 0.0 0.0 0.0 0.0 0.0
0.0 0.0 0.0 0.0 0.0 0.0 0.0 0.0
0.0 0.0 0.0 0.0 0.0 0.0 0.0 0.0
0.0 0.0 0.0 0.0 0.0 0.0 0.0 0.0
00000000: 0000 0000 0000 0000 0000 0000 0000 0000
00000010: 0000 0000 0000 0000 0000 0000 0000 0000
00000020: 0000 0000 0000 0000 0000 0000 0000 0000
00000030: 0000 0000 0000 0000 0000 0000 0000 0000
00000040: 0000 0000 0000 0000 0000 0000 0000 0000
00000050: 0000 0000 0000 0000 0000 0000 0000 0000
00000060: 0000 0000 0000 0000 0000 0000 0000 0000
00000070: 0000 0000 0000 0000 0000 0000 0000 0000
00000080: 0000 0000 0000 0000 0000 0000 0000 0000
00000090: 0000 0000 0000 0000 0000 0000 0000 0000
000000a0: 0000 0000 0000 0000 0000 0000 0000 0000
000000b0: 0000 0000 0000 0000 0000 0000 0000 0000
000000c0: 0000 0000 0000 0000 0000 0000 0000 0000
000000d0: 0000 0000 0000 0000 0000 0000 0000 0000
000000e0: 0000 0000 0000 0000 0000 0000 0000 0000
000000f0: 0000 0000 0000 0000 0000 0000 0000 0000
00000100: 0000 0000 0000 0000 0000 0000 0000 0000
00000110: 0000 0000 0000 0000 0000 0000 0000 0000

running_var f4 [72]
1.0 1.0 1.0 1.0 1.0 1.0 1.0 1.0
1.0 1.0 1.0 1.0 1.0 1.0 1.0 1.0
1.0 1.0 1.0 1.0 1.0 1.0 1.0 1.0
1.0 1.0 1.0 1.0 1.0 1.0 1.0 1.0
1.0 1.0 1.0 1.0 1.0 1.0 1.0 1.0
1.0 1.0 1.0 1.0 1.0 1.0 1.0 1.0
1.0 1.0 1.0 1.0 1.0 1.0 1.0 1.0
1.0 1.0 1.0 1.0 1.0 1.0 1.0 1.0
1.0 1.0 1.0 1.0 1.0 1.0 1.0 1.0
00000000: 0000 803f 0000 803f 0000 803f 0000 803f
00000010: 0000 803f 0000 803f 0000 803f 0000 803f
00000020: 0000 803f 0000 803f 0000 803f 0000 803f
00000030: 0000 803f 0000 803f 0000 803f 0000 803f
00000040: 0000 803f 0000 803f 0000 803f 0000 803f
00000050: 0000 803f 0000 803f 0000 803f 0000 803f
00000060: 0000 803f 0000 803f 0000 803f 0000 803f
00000070: 0000 803f 0000 803f 0000 803f 0000 803f
00000080: 0000 803f 0000 803f 0000 803f 0000 803f
00000090: 0000 803f 0000 803f 0000 803f 0000 803f
000000a0: 0000 803f 0000 803f 0000 803f 0000 803f
000000b0: 0000 803f 0000 803f 0000 803f 0000 803f
000000c0: 0000 803f 0000 803f 0000 803f 0000 803f
000000d0: 0000 803f 0000 803f 0000 803f 0000 803f
000000e0: 0000 803f 0000 803f 0000 803f 0000 803f
000000f0: 0000 803f 0000 803f 0000 803f 0000 803f
00000100: 0000 803f 0000 803f 0000 803f 0000 803f
00000110: 0000 803f 0000 803f 0000 803f 0000 803f

weight f4 [72, 1, 3, 3]
0.06873593 -0.29773885 -0.17840199 -0.32545495 -0.2929442 -0.024440527 0.20720914 0.06663892
-0.02693358 -0.18119416 0.28396234 -0.24695253 0.114037395 -0.14176492 0.039024025 0.09087625
-0.031095833 -0.22340211 -0.31023073 -0.0030390024 -0.031609267 -0.027406305 -0.06864822 -0.16905956
0.0070940554 -0.10476665 -0.26010555 0.2283887 -0.21486211 -0.19917385 -0.054474145 -0.09611043
-0.17831549 -0.15327355 -0.07799211 0.011423558 0.3223209 -0.021320343 0.08255792 0.24799249
-0.025646776 0.33106533 0.007398963 -0.14007184 0.089444965 -0.122933626 0.22721389 0.14020726
-0.2960844 0.20833209 0.23456863 0.275629 0.24490336 -0.0072743595 -0.19618766 0.115576655
0.21109465 -0.13928315 -0.05461371 -0.11760104 0.06664643 -0.08770919 0.09510586 -0.19110128
0.013417333 0.070750386 0.06943211 0.025628895 0.18525651 0.19107988 0.057527572 0.14537653
0.10189834 -0.16849737 -0.10095394 -0.2517209 0.21730927 -0.31281587 -0.25581908 -0.26568088
-0.19863555 -0.2965939 -0.075330466 -0.28578734 0.18754283 -0.3235466 -0.00685814 -0.1419789
-0.054549545 0.18747243 0.16971925 0.24225512 -0.063844115 -0.037169367 -0.25888914 0.17767301
-0.012195379 0.049086303 0.18233177 -0.20123212 -0.2913928 -0.032654196 0.26513258 0.07261172
0.2467458 -0.050436884 0.018095702 0.20087829 -0.113984466 0.04168257 -0.10681602 0.2219204
-0.010402769 0.27327487 0.1878123 0.22271338 -0.06994212 0.29492953 -0.018988162 0.2890962
-0.055899113 -0.16998753 -0.13349275 0.1255103 -0.11019966 -0.23136747 -0.26213095 -0.0888983
-0.18536954 -0.19760263 0.07525018 0.214533 0.32169047 0.13515297 0.24479964 -0.121418834
0.26996973 -0.1545516 0.19861624 -0.12012625 0.22500029 -0.018497825 0.26393774 -0.20636985
0.08510089 -0.2017146 -0.18484084 0.18830976 -0.21204686 -0.04867077 0.116615415 -0.17794701
-0.19086456 -0.18409805 0.1008333 0.26512906 -0.11288357 0.2999625 0.29209366 -0.26692188
-0.046760082 -0.21220689 0.28741732 -0.2984656 -0.18459937 0.041122198 -0.00636974 -0.147614
-0.2161278 0.1575686 0.108042 -0.21424115 -0.16656384 0.009172201 -0.017556995 0.3302128
-0.30872148 0.07372311 -0.16214725 0.29293403 0.10919276 0.040682435 0.18354848 -0.20136523
-0.034143776 -0.32822424 -0.29487538 -0.12748766 0.24171379 0.23260787 -0.26345643 -0.13379034
-0.06660128 0.07121134 0.117094845 0.02822873 -0.082652956 -0.23523514 -0.084395856 -0.2864202
-0.21809995 0.3278207 -0.017967314 -0.041267365 0.017324656 0.10549089 0.27240077 0.13460052
-0.049630642 0.3043684 -0.010066509 0.058861285 0.3099803 -0.2559356 -0.03686127 -0.033061415
-0.17810898 0.1427624 0.022168845 0.068624526 -0.21418068 -0.3176996 -0.03919089 0.2969475
0.1553975 -0.031665772 0.26897642 0.086868405 0.29960087 0.1999946 -0.01368928 -0.091790795
0.1307491 -0.33067203 0.09703073 0.23550746 0.30319044 -0.29689237 -0.039866924 -0.27793276
-0.30593216 0.14050415 -0.24846415 -0.15762436 0.21984771 -0.18102095 -0.32334954 -0.29594642
0.2948365 -0.040168673 -0.21592793 -0.08388059 -0.12529847 0.08834565 -0.12218563 -0.11249797
00000000: 6cc5 8c3d 3a71 98be 03af 36be 08a2 a6be
00000010: c8fc 95be 8037 c8bc a22e 543e fc79 883d
00000020: d0a3 dcbc f68a 39be 8363 913e 20e1 7cbe
00000030: 708c e93d d32a 11be a8d7 1f3d 541d ba3d
00000040: b0bc febc 86c3 64be 90d6 9ebe 002a 47bb
00000050: b878 01bd 3083 e0bc 7097 8cbd f31d 2dbe
00000060: 4075 e83b e68f d6bd 8e2c 85be bade 693e
00000070: d004 5cbe 3bf4 4bbe 4820 5fbd 8cd5 c4bd
00000080: 5698 36be bef3 1cbe 54ba 9fbd e029 3b3c
00000090: 3f07 a53e 00a8 aebc 2014 a93d bef1 7d3e
000000a0: 3019 d2bc 6581 a93e 0073 f23b fe6e 0fbe
000000b0: ec2e b73d a0c4 fbbd c2aa 683e 7e92 0f3e
000000c0: 6098 97be 0255 553e c232 703e 3f1f 8d3e
000000d0: f2c7 7a3e c05d eebb 6be5 48be 74b3 ec3d
000000e0: 3229 583e 3ea0 0ebe a0b2 5fbd d0d8 f0bd
000000f0: ec7d 883d e0a0 b3bd dcc6 c23d 0eb0 43be
00000100: 60d4 5b3c 94e5 903d 6c32 8e3d b0f3 d13c
00000110: e2b3 3d3e 72aa 433e 08a2 6b3d 96dd 143e
00000120: 14b0 d03d 938a 2cbe f0c0 cebd 90e1 80be
00000130: 5286 5e3e 6729 a0be b8fa 82be 5307 88be
00000140: 1e67 4bbe 28db 97be dc46 9abd b852 92be
00000150: 3a0b 403e e6a7 a5be 40ba e0bb eb62 11be
00000160: 586f 5fbd c6f8 3f3e e2ca 2d3e ba11 783e
00000170: b4c0 82bd e83e 18bd 1e8d 84be eaef 353e
00000180: 20cf 47bc b80e 493d 2eb5 3a3e cb0f 4ebe
00000190: 7031 95be 68c0 05bd 75bf 873e 74b5 943d
000001a0: eeaa 7c3e e896 4ebd 703d 943c 0ab3 4d3e
000001b0: b070 e9bd 58bb 2a3d 5cc2 dabd 1a3f 633e
000001c0: 6070 2abc afea 8b3e de51 403e fa0e 643e
000001d0: d03d 8fbd 0101 973e 108d 9bbc 6b04 943e
000001e0: 78f6 64bd 3611 2ebe 53b2 08be c685 003e
000001f0: 5cb0 e1bd 98eb 6cbe 0736 86be 5010 b6bd
00000200: 83d1 3dbe 5858 4abe c41c 9a3d 8aae 5b3e
00000210: 9db4 a43e 8a65 0a3e c2ac 7a3e 70aa f8bd
00000220: 7939 8a3e c642 1ebe 0e62 4b3e c004 f6bd
00000230: 7a66 663e c088 97bc d922 873e 9e52 53be
00000240: 6049 ae3d 468e 4ebe eb46 3dbe 46d4 403e
00000250: d022 59be 005b 47bd 10d4 ee3d be37 36be
00000260: 0072 43be 3384 3cbe b081 ce3d ffbe 873e
00000270: 802f e7bd af94 993e 4d8d 953e fca9 88be
00000280: 8087 3fbd c34c 59be 5d28 933e 7cd0 98be
00000290: 9e07 3dbe c06f 283d 40b9 d0bb 2028 17be
000002a0: 9b50 5dbe aa59 213e 2045 dd3d 0862 5bbe
000002b0: b68f 2abe 0047 163c b0d3 8fbc a711 a93e
000002c0: be10 9ebe 24fc 963d ee09 26be 73fb 953e
000002d0: 74a0 df3d a0a2 263d 22f4 3b3e b032 4ebe
000002e0: 58da 0bbd 020d a8be e8f9 96be 208c 02be
000002f0: d283 773e c230 6e3e c3e3 86be 5600 09be
00000300: 4066 88bd 40d7 913d 6ccf ef3d f03f e73c
00000310: f445 a9bd 7be1 70be bcd7 acbd aba5 92be
00000320: 9855 5fbe 1dd8 a73e 3030 93bc f807 29bd
00000330: 70ec 8d3c 9c0b d83d 1d78 8b3e b8d4 093e
00000340: 8049 4bbd 2dd6 9b3e 00ee 24bc 8818 713d
00000350: bdb5 9e3e fe09 83be d8fb 16bd 686b 07bd
00000360: 3362 36be 4e30 123e 709b b53c 048b 8c3d
00000370: 2e52 5bbe 86a9 a2be a086 20bd 8109 983e
00000380: 8620 1f3e f8b3 01bd 47b7 893e 10e8 b13d
00000390: 4965 993e 62cb 4c3e 0049 60bc d0fc bbbd
000003a0: 18e3 053e d84d a9be 0cb8 c63d de28 713e
000003b0: c73b 9b3e 4702 98be 804b 23bd 344d 8ebe
000003c0: 24a3 9cbe 52e0 0f3e 636d 7ebe 4868 21be
000003d0: c21f 613e 8e5d 39be 128e a5be 4a86 97be
000003e0: cff4 963e e887 24bd 361c 5dbe 96c9 abbd
000003f0: 3e4e 00be 90ee b43d 763c fabd 5665 e6bd

weight f4 [72]
1.0 1.0 1.0 1.0 1.0 1.0 1.0 1.0
1.0 1.0 1.0 1.0 1.0 1.0 1.0 1.0
1.0 1.0 1.0 1.0 1.0 1.0 1.0 1.0
1.0 1.0 1.0 1.0 1.0 1.0 1.0 1.0
1.0 1.0 1.0 1.0 1.0 1.0 1.0 1.0
1.0 1.0 1.0 1.0 1.0 1.0 1.0 1.0
1.0 1.0 1.0 1.0 1.0 1.0 1.0 1.0
1.0 1.0 1.0 1.0 1.0 1.0 1.0 1.0
1.0 1.0 1.0 1.0 1.0 1.0 1.0 1.0
00000000: 0000 803f 0000 803f 0000 803f 0000 803f
00000010: 0000 803f 0000 803f 0000 803f 0000 803f
00000020: 0000 803f 0000 803f 0000 803f 0000 803f
00000030: 0000 803f 0000 803f 0000 803f 0000 803f
00000040: 0000 803f 0000 803f 0000 803f 0000 803f
00000050: 0000 803f 0000 803f 0000 803f 0000 803f
00000060: 0000 803f 0000 803f 0000 803f 0000 803f
00000070: 0000 803f 0000 803f 0000 803f 0000 803f
00000080: 0000 803f 0000 803f 0000 803f 0000 803f
00000090: 0000 803f 0000 803f 0000 803f 0000 803f
000000a0: 0000 803f 0000 803f 0000 803f 0000 803f
000000b0: 0000 803f 0000 803f 0000 803f 0000 803f
000000c0: 0000 803f 0000 803f 0000 803f 0000 803f
000000d0: 0000 803f 0000 803f 0000 803f 0000 803f
000000e0: 0000 803f 0000 803f 0000 803f 0000 803f
000000f0: 0000 803f 0000 803f 0000 803f 0000 803f
00000100: 0000 803f 0000 803f 0000 803f 0000 803f
00000110: 0000 803f 0000 803f 0000 803f 0000 803f

bias f4 [72]
0.0 0.0 0.0 0.0 0.0 0.0 0.0 0.0
0.0 0.0 0.0 0.0 0.0 0.0 0.0 0.0
0.0 0.0 0.0 0.0 0.0 0.0 0.0 0.0
0.0 0.0 0.0 0.0 0.0 0.0 0.0 0.0
0.0 0.0 0.0 0.0 0.0 0.0 0.0 0.0
0.0 0.0 0.0 0.0 0.0 0.0 0.0 0.0
0.0 0.0 0.0 0.0 0.0 0.0 0.0 0.0
0.0 0.0 0.0 0.0 0.0 0.0 0.0 0.0
0.0 0.0 0.0 0.0 0.0 0.0 0.0 0.0
00000000: 0000 0000 0000 0000 0000 0000 0000 0000
00000010: 0000 0000 0000 0000 0000 0000 0000 0000
00000020: 0000 0000 0000 0000 0000 0000 0000 0000
00000030: 0000 0000 0000 0000 0000 0000 0000 0000
00000040: 0000 0000 0000 0000 0000 0000 0000 0000
00000050: 0000 0000 0000 0000 0000 0000 0000 0000
00000060: 0000 0000 0000 0000 0000 0000 0000 0000
00000070: 0000 0000 0000 0000 0000 0000 0000 0000
00000080: 0000 0000 0000 0000 0000 0000 0000 0000
00000090: 0000 0000 0000 0000 0000 0000 0000 0000
000000a0: 0000 0000 0000 0000 0000 0000 0000 0000
000000b0: 0000 0000 0000 0000 0000 0000 0000 0000
000000c0: 0000 0000 0000 0000 0000 0000 0000 0000
000000d0: 0000 0000 0000 0000 0000 0000 0000 0000
000000e0: 0000 0000 0000 0000 0000 0000 0000 0000
000000f0: 0000 0000 0000 0000 0000 0000 0000 0000
00000100: 0000 0000 0000 0000 0000 0000 0000 0000
00000110: 0000 0000 0000 0000 0000 0000 0000 0000

running_mean f4 [72]
0.0 0.0 0.0 0.0 0.0 0.0 0.0 0.0
0.0 0.0 0.0 0.0 0.0 0.0 0.0 0.0
0.0 0.0 0.0 0.0 0.0 0.0 0.0 0.0
0.0 0.0 0.0 0.0 0.0 0.0 0.0 0.0
0.0 0.0 0.0 0.0 0.0 0.0 0.0 0.0
0.0 0.0 0.0 0.0 0.0 0.0 0.0 0.0
0.0 0.0 0.0 0.0 0.0 0.0 0.0 0.0
0.0 0.0 0.0 0.0 0.0 0.0 0.0 0.0
0.0 0.0 0.0 0.0 0.0 0.0 0.0 0.0
00000000: 0000 0000 0000 0000 0000 0000 0000 0000
00000010: 0000 0000 0000 0000 0000 0000 0000 0000
00000020: 0000 0000 0000 0000 0000 0000 0000 0000
00000030: 0000 0000 0000 0000 0000 0000 0000 0000
00000040: 0000 0000 0000 0000 0000 0000 0000 0000
00000050: 0000 0000 0000 0000 0000 0000 0000 0000
00000060: 0000 0000 0000 0000 0000 0000 0000 0000
00000070: 0000 0000 0000 0000 0000 0000 0000 0000
00000080: 0000 0000 0000 0000 0000 0000 0000 0000
00000090: 0000 0000 0000 0000 0000 0000 0000 0000
000000a0: 0000 0000 0000 0000 0000 0000 0000 0000
000000b0: 0000 0000 0000 0000 0000 0000 0000 0000
000000c0: 0000 0000 0000 0000 0000 0000 0000 0000
000000d0: 0000 0000 0000 0000 0000 0000 0000 0000
000000e0: 0000 0000 0000 0000 0000 0000 0000 0000
000000f0: 0000 0000 0000 0000 0000 0000 0000 0000
00000100: 0000 0000 0000 0000 0000 0000 0000 0000
00000110: 0000 0000 0000 0000 0000 0000 0000 0000

running_var f4 [72]
1.0 1.0 1.0 1.0 1.0 1.0 1.0 1.0
1.0 1.0 1.0 1.0 1.0 1.0 1.0 1.0
1.0 1.0 1.0 1.0 1.0 1.0 1.0 1.0
1.0 1.0 1.0 1.0 1.0 1.0 1.0 1.0
1.0 1.0 1.0 1.0 1.0 1.0 1.0 1.0
1.0 1.0 1.0 1.0 1.0 1.0 1.0 1.0
1.0 1.0 1.0 1.0 1.0 1.0 1.0 1.0
1.0 1.0 1.0 1.0 1.0 1.0 1.0 1.0
1.0 1.0 1.0 1.0 1.0 1.0 1.0 1.0
00000000: 0000 803f 0000 803f 0000 803f 0000 803f
00000010: 0000 803f 0000 803f 0000 803f 0000 803f
00000020: 0000 803f 0000 803f 0000 803f 0000 803f
00000030: 0000 803f 0000 803f 0000 803f 0000 803f
00000040: 0000 803f 0000 803f 0000 803f 0000 803f
00000050: 0000 803f 0000 803f 0000 803f 0000 803f
00000060: 0000 803f 0000 803f 0000 803f 0000 803f
00000070: 0000 803f 0000 803f 0000 803f 0000 803f
00000080: 0000 803f 0000 803f 0000 803f 0000 803f
00000090: 0000 803f 0000 803f 0000 803f 0000 803f
000000a0: 0000 803f 0000 803f 0000 803f 0000 803f
000000b0: 0000 803f 0000 803f 0000 803f 0000 803f
000000c0: 0000 803f 0000 803f 0000 803f 0000 803f
000000d0: 0000 803f 0000 803f 0000 803f 0000 803f
000000e0: 0000 803f 0000 803f 0000 803f 0000 803f
000000f0: 0000 803f 0000 803f 0000 803f 0000 803f
00000100: 0000 803f 0000 803f 0000 803f 0000 803f
00000110: 0000 803f 0000 803f 0000 803f 0000 803f

weight f4 [32, 72, 1, 1]
-0.06479043 0.022001244 0.1176753 0.03483493 0.040854312 -0.07351914 0.002110362 -0.032325298
-0.041472062 0.11316315 -0.061073508 -0.005832292 0.0050095767 0.06411583 0.03339068 0.047645114
0.061607994 -0.067486614 0.060020275 -0.10287463 0.101455666 0.015159406 0.041623197 -0.056233715
-0.023051292 0.109007545 0.0034753978 0.075782545 0.10845504 -0.038371615 -0.10202132 0.07105108
-0.04597675 0.0855984 0.007521771 0.09232368 0.08077978 0.08266016 -0.022805788 0.07884868
0.025621913 0.050390653 0.06909747 0.08240826 -0.072034866 0.053824835 0.028411753 -0.08712682
-0.005449809 -0.100574166 -0.0754479 0.09471028 0.014090024 0.03670568 -0.09647342 0.1139948
0.059672497 0.07592026 -0.10575916 0.03953243 0.009968884 -0.10093045 -0.09457743 -0.0670639
0.112789296 -0.058916785 -0.078717455 0.07161216 0.047060944 0.08014842 0.0081826225 -0.03528337
0.037005343 0.046309553 -0.10365308 0.018056162 0.09655178 -0.053254932 -0.088088796 0.087989844
0.09740356 0.11429984 0.06014014 -0.09556073 0.08032536 -0.07863772 0.09847755 0.020308562
-0.012810618 0.11077433 0.08839271 -0.008922294 0.09648665 -0.008671969 0.031326927 0.023903199
-0.013759598 -0.10254321 -0.044290856 -0.0761523 0.05962529 -0.097934864 -0.107314475 0.040093713
-0.10273562 -0.001494132 0.06929811 0.018881626 -0.08397879 -0.07789782 0.042660065 -0.032965414
0.08010297 -0.006270595 0.09293956 0.017340131 -0.08854488 0.101229034 -0.09955198 -0.08765539
-0.06402591 -0.0981137 -0.044359066 -0.10600933 0.0119002685 -0.09785168 -0.08754665 -0.058257595
0.06570294 0.109795935 -0.029461123 0.045137532 -0.09462388 -0.012453295 0.07052448 0.05790115
-0.004049301 0.058169313 0.08415597 0.033501633 0.00065851957 -0.07885106 -0.025421351 0.038366325
-0.11132531 -0.081158355 -0.06021141 0.051317208 0.10535646 0.022799946 -0.019655757 0.036848538
-0.05531642 -0.08482927 -0.036687635 0.024263613 -0.04384531 0.0017995834 -0.07885007 -0.036079742
-0.07823308 -0.07968104 0.014911242 -0.014298938 0.11496969 -0.049572676 0.08755935 -0.09941264
0.053537183 0.04594674 -0.10860903 -0.06040537 -0.029242717 0.070101805 0.010202311 0.016765334
0.109280445 0.070450805 -0.10191426 -0.08695899 0.017187096 0.10605455 -0.0006218627 0.09140191
0.015043952 0.089405246 0.0500639 -0.011091307 -0.036602966 0.09582239 -0.050499894 -0.025953554
-0.08030897 -0.042509638 0.034864597 0.09560909 0.06509664 -0.09073404 -0.08794241 0.014862977
-0.097821176 0.035573788 0.059622817 -0.04012624 -0.043836996 0.0521319 -0.07321216 -0.040168725
-0.09328872 0.056359284 0.019693442 -0.073978044 -0.023922637 0.05869413 -0.025058255 -0.024698913
0.07107278 -0.026292413 -0.06385788 0.05472771 0.056468405 -0.05027446 0.087941445 -0.028237239
-0.09174803 0.09631268 -0.026741952 -0.029009983 0.037816115 -0.095556766 -0.11281106 -0.05539224
-0.10171059 -0.08642928 0.08391938 0.08764093 0.0853815 0.04845891 -0.10112267 -0.05652273
-0.021058887 -0.0875368 0.006190568 0.009550713 0.05272221 -0.024447925 0.051434435 -0.04957533
-0.09284532 -0.05715228 -0.029073626 -0.054643415 0.06715318 -0.11067519 0.041541003 0.11177894
00000000: d8b0 84bd f43b b43c bfff f03d 12af 0e3d
00000010: da56 273d 3491 96bd 004e 0a3b 8867 04bd
00000020: 9cde 29bd 15c2 e73d 3728 7abd d01c bfbb
00000030: 6027 a43b 294f 833d aac4 083d 8627 433d
00000040: aa58 7c3d 6c36 8abd d2d7 753d efaf d2bd
00000050: fdc7 cf3d 285f 783c 167d 2a3d 5355 66bd
00000060: 10d6 bcbc 593f df3d 80c3 633b e133 9b3d
00000070: ad1d de3d 8e2b 1dbd 8ef0 d0bd 3b83 913d
00000080: 1e52 3cbd 374e af3d 3079 f63b 3314 bd3d
00000090: df6f a53d bb49 a93d 34d3 babc 6b7b a13d
000000a0: 0ce5 d13c 6e66 4e3d f982 8d3d a9c5 a83d
000000b0: 0487 93bd 6e77 5c3d c4bf e83c 8c6f b2bd
000000c0: 5094 b2bb d4f9 cdbd 6e84 9abd 77f7 c13d
000000d0: d8d9 663c b258 163d db93 c5bd 1b76 e93d
000000e0: 266b 743d 157c 9b3d 4298 d8bd c2ec 213d
000000f0: 8854 233c a0b4 cebd d0b1 c1bd cc58 89bd
00000100: 13fe e63d ba52 71bd 9e36 a1bd 65a9 923d
00000110: fac2 403d db24 a43d 6810 063c 4c85 10bd
00000120: ea92 173d 16af 3d3d 1148 d4bd 84ea 933c
00000130: f1bc c53d d821 5abd e667 b4bd 0534 b43d
00000140: 857b c73d 0916 ea3d 8255 763d 58b5 c3bd
00000150: 9f81 a43d d00c a1bd 99ae c93d 245e a63c
00000160: a0e3 51bc a7dd e23d 3d07 b53d d02e 12bc
00000170: cb9a c53d e014 0ebc aa50 003d a4d0 c33c
00000180: f06f 61bc 2d02 d2bd 546a 35bd bdf5 9bbd
00000190: a639 743d 1392 c8bd b1c7 dbbd 4e39 243d
000001a0: 0e67 d2bd c0d6 c3ba 2bec 8d3d a4ad 9a3c
000001b0: 12fd abbd e488 9fbd 52bc 2e3d be06 07bd
000001c0: 070d a43d 9079 cdbb 1957 be3d e40c 8e3c
000001d0: 0557 b5bd 2b51 cf3d e9e1 cbbd ab84 b3bd
000001e0: 0420 83bd d6ef c8bd dab1 35bd 6b1b d9bd
000001f0: 58f9 423c 7666 c8bd a84b b3bd 849f 6ebd
00000200: 438f 863d b1dc e03d 7458 f1bc 22e2 383d
00000210: 2aca c1bd e808 4cbc 236f 903d c229 6d3d
00000220: 00b0 84bb f242 6e3d f759 ac3d 0239 093d
00000230: 80a0 2c3a aa7c a1bd 7040 d0bc 0226 1d3d
00000240: 86fe e3bd 5a36 a6bd 3da0 76bd fe31 523d
00000250: 21c5 d73d f4c6 ba3c 1c05 a1bc 7eee 163d
00000260: 7893 62bd f8ba adbd c645 16bd 7cc4 c63c
00000270: 2497 33bd 00e0 eb3a 257c a1bd 5ac8 13bd
00000280: aa38 a0bd d02f a3bd 484e 743c 1846 6abc
00000290: 3b75 eb3d b80c 4bbd 5152 b33d db98 cbbd
000002a0: ce49 5b3d a632 3c3d 696e debd 9f6b 77bd
000002b0: 6c8e efbc 8991 8f3d 9827 273c 7457 893c
000002c0: 6dce df3d 8348 903d 6cb8 d0bd 8e17 b2bd
000002d0: f4cb 8c3c 2133 d93d 8004 23ba ed30 bb3d
000002e0: e87a 763c 191a b73d ce0f 4d3d 50b8 35bc
000002f0: feec 15bd 873e c43d fad8 4ebd 8c9c d4bc
00000300: 0779 a4bd 961e 2ebd 2ece 0e3d b3ce c33d
00000310: 6351 853d c5d2 b9bd 261b b4bd d883 733c
00000320: 7856 c8bd d2b5 113d 0e37 743d 6a5b 24bd
00000330: 6c8e 33bd 4288 553d 42f0 95bd f687 24bd
00000340: 280e bfbd fed8 663d 2454 a13c cd81 97bd
00000350: 68f9 c3bc 4269 703d f846 cdbc 6055 cabc
00000360: 9b8e 913d 3063 d7bc ecc7 82bd 2a2a 603d
00000370: 6a4b 673d 98ec 4dbd a51a b43d c851 e7bc
00000380: 64e6 bbbd 953f c53d f011 dbbc 58a6 edbc
00000390: 12e5 1a3d 44b3 c3bd 7c09 e7bd f9e2 62bd
000003a0: a44d d0bd d601 b1bd eddd ab3d 177d b33d
000003b0: 7fdc ae3d da7c 463d 6719 cfbd 6184 67bd
000003c0: b083 acbc 7e46 b3bd 40da ca3b 987a 1c3c
000003d0: 3ef3 573d 0447 c8bc eaac 523d 800f 4bbd
000003e0: b025 bebd 8218 6abd d02b eebc c6d1 5fbd
000003f0: 9b87 893d ada9 e2bd e626 2a3d 5bec e43d
