blocks/b1_24_112_112.pth (torch, 436234 bytes, 147 tensors)

weight f4 [24, 24, 1, 1]
0	0xbd4ee3c8	-0.050510198
1	0x3e18ef7a	0.14935103
2	0x3dd980c4	0.10620263
3	0x3e3ab520	0.18233156
4	0xbe2ac8cf	-0.16678165
5	0x3ce44290	0.02786377
6	0x3cfeecc8	0.031118765
7	0x3cca8110	0.024719745
8	0x3e092ab8	0.13395202
9	0xbd0947a4	-0.033515587
10	0xbe3db564	-0.18526226
11	0x3c54cfb0	0.01298897
12	0xbcb71638	-0.022349462
13	0xbddc4201	-0.10754777
14	0xbd95e8f0	-0.0731982
15	0x3e0b3bb2	0.1359699
16	0xbdddf8a5	-0.10838441
17	0x3e321540	0.17390919
18	0xbdffdba7	-0.12493067
19	0xbdf2310e	-0.11825763
20	0x3d0f09dc	0.034921512
21	0x3e4eebe8	0.20207179
22	0x3cdb57b0	0.026775211
23	0xbd966a40	-0.07344484
24	0xbcc03860	-0.023464382
25	0x3c064160	0.008194298
26	0xbe504626	-0.2033926
27	0x3dd1da04	0.10246661
28	0xbe0590c9	-0.13043512
29	0x3e27a7e0	0.16372633
30	0xbdd502bc	-0.10400912
31	0x3e3fba04	0.18723303
32	0xbe452331	-0.19251706
33	0x3e080eb8	0.13286865
34	0x3e41b03c	0.18914884
35	0xbdd6bb22	-0.104849115
36	0xbbb54dc0	-0.00553295
37	0x3e1a8fb4	0.15093881
38	0xbddcf945	-0.10789732
39	0xbe16f13a	-0.14740458
40	0xbd017740	-0.031607866
41	0x3e083566	0.1330162
42	0x3daa51cc	0.08316383
43	0xbd0b7260	-0.034044623
44	0xbd8d2dce	-0.06893502
45	0x3e37fdd6	0.17967924
46	0xbd078494	-0.03308542
47	0xbe1daa89	-0.15397085
48	0x3d9e01c8	0.077151835
49	0x3e47405e	0.19458148
50	0x3e4947be	0.19656274
51	0xbe2aca28	-0.16678679
52	0xbe297309	-0.16547789
53	0xbe491a56	-0.19638953
54	0x3e3afee6	0.18261299
55	0xbccb9c78	-0.024854884
56	0xbe4f27d2	-0.20230034
57	0xbdcb47c5	-0.09925798
58	0xbd5c3ffc	-0.053771958
59	0xbd39f44c	-0.045398995
60	0xbdfc242a	-0.12311585
61	0xbdea1df0	-0.114314914
62	0xbe00d2fb	-0.12580483
63	0x3e25b14c	0.16180915
64	0x3e149bf0	0.1451261
65	0xbda62d53	-0.08114114
66	0xbdc24b0f	-0.094869725
67	0x3b6c4000	0.003604889
68	0xbd42a63c	-0.047521815
69	0x3db4c98c	0.088275045
70	0xbd417b98	-0.04723701
71	0xbd07f720	-0.03319466
72	0xbe49a5ea	-0.19692197
73	0xbe2de4cb	-0.16981809
74	0xbe0fcc5e	-0.14042804
75	0x3e0631c6	0.13104925
76	0xbd8e666e	-0.06953131
77	0x3e4ccb1e	0.19999358
78	0xbca418b0	-0.020031303
79	0xbdfdbf9e	-0.12390064
80	0x3d488d48	0.04896286
81	0x3d647e68	0.055784613
82	0x3ce3c1a8	0.027802303
83	0x3d528e20	0.051405072
84	0xbd280a18	-0.04102525
85	0xbdf7d8ff	-0.121019356
86	0xbe39b929	-0.18137039
87	0x3e332ffc	0.17498773
88	0xbe339a16	-0.17539248
89	0x3dc1f630	0.09470785
90	0xbd1855cc	-0.037191197
91	0x3e0bc5b2	0.13649634
92	0x3cf1da70	0.029523104
93	0x3d5e2c50	0.05424148
94	0xbd4d7b08	-0.05016616
95	0xbd868cc4	-0.06569818
96	0x3dce3a5c	0.10069725
97	0xbd83a922	-0.06428744
98	0x3dc9c8e0	0.09852767
99	0xbe4d3509	-0.20039763
100	0xbd497ba4	-0.04919018
101	0xbdea5238	-0.11441463
102	0x3dbb2428	0.09137756
103	0x3ba0d620	0.004908338
104	0xbe37f50b	-0.1796457
105	0x3dc82d08	0.09774214
106	0xbcf307f8	-0.029666886
107	0x3dd6d2ac	0.10489401
108	0x3e4c7366	0.19965896
109	0x3ce57700	0.028010845
110	0x3e35d7ce	0.17758104
111	0x3dd98934	0.106218725
112	0x3db9cfe0	0.09072852
113	0xbdb6c2da	-0.08923884
114	0x3e2e082e	0.16995308
115	0xbe15e415	-0.14637788
116	0xbd8039d2	-0.06261028
117	0x3e1c4b1e	0.1526303
118	0x3e3fc43a	0.18727198
119	0xbdf48af7	-0.11940568
120	0xbe49ef19	-0.19720115
121	0xbdc8981d	-0.09794638
122	0xbd321564	-0.04347743
123	0x3e1b8b62	0.15189889
124	0xbd067be8	-0.03283301
125	0xbc46df80	-0.0121382475
126	0xbe1d5e34	-0.15367967
127	0x3dd0e8cc	0.102006525
128	0xbdd7805b	-0.10522529
129	0x3d359f34	0.04434128
130	0x3d1b03b4	0.03784533
131	0x3e051528	0.12996352
132	0xbe0825f0	-0.13295722
133	0xbd83e33c	-0.06439826
134	0xba98de80	-0.001166299
135	0xbbd6c460	-0.0065541714
136	0x3df0c98c	0.11757192
137	0x3e3108b6	0.17288479
138	0x3d8649a4	0.065570146
139	0xbd6e5988	-0.058190852
140	0x3d95c694	0.073132664
141	0xbd8da8ac	-0.06916937
142	0xbe183a32	-0.1486595
143	0xbe44d203	-0.19220738
144	0x3e2e1fb4	0.17004281
145	0x3d321bb4	0.04348345
146	0xbddad472	-0.10685052
147	0x3dedce60	0.116116285
148	0x3d619d08	0.055081397
149	0xbe00e2dc	-0.1258654
150	0xbd8ac168	-0.067751706
151	0xbdda0a12	-0.10646452
152	0xbdc098d0	-0.09404147
153	0xbe001afc	-0.12510294
154	0xbe14d866	-0.14535674
155	0xbdaaf31f	-0.08347153
156	0x3de0a0d4	0.109681755
157	0xbe4fa110	-0.20276284
158	0xbdf1cf9c	-0.118071765
159	0xbd891a4c	-0.06694469
160	0x3cc7be38	0.024382696
161	0x3de70544	0.11280301
162	0xbcd367f0	-0.025806397
163	0xbe2f781c	-0.17135662
164	0x3dbc4994	0.091937214
165	0xbdcc08e5	-0.09962634
166	0x3acd8d00	0.001568228
167	0xbe40ad14	-0.18816024
168	0xbd1bcfcc	-0.038039967
169	0x3e071ee6	0.1319538
170	0xbe28cd74	-0.16484624
171	0x3e031d12	0.12804058
172	0xbe09f7ea	-0.13473478
173	0x3e1ea570	0.15492797
174	0xbe30a1fa	-0.17249289
175	0xbd95c9aa	-0.07313855
176	0xbdc9a5f4	-0.09846106
177	0xbe1707ce	-0.14749071
178	0xbc35f000	-0.011104584
179	0x3e4e98de	0.20175502
180	0xbe1481ea	-0.14502683
181	0x3e3b5342	0.18293479
182	0xbd948826	-0.07252531
183	0xbe33e868	-0.17569125
184	0x3dcb8108	0.0993672
185	0xbd354e50	-0.044264138
186	0xbdfd1986	-0.12358384
187	0x3d1b9c28	0.03799072
188	0xbe1916dc	-0.14950126
189	0xbda8f552	-0.08249916
190	0x3e18877c	0.14895433
191	0x3e3f7846	0.18698224
192	0x3e00e098	0.12585676
193	0xbd509e18	-0.05093202
194	0xbe292ca0	-0.1652093
195	0xbc4da440	-0.012551367
196	0xbe248134	-0.16064912
197	0xbc454ed0	-0.012042716
198	0xbde605a5	-0.11231545
199	0x3cd41f08	0.025893703
200	0xbe07a554	-0.13246661
201	0x3e38d4de	0.18049952
202	0x3c468520	0.0121167
203	0x3d2e35d4	0.042531803
204	0xbe503628	-0.20333159
205	0xbdcc9ddb	-0.09991046
206	0x3c073360	0.008251995
207	0xbe50a400	-0.20375061
208	0x3db2c878	0.08729643
209	0xbe0c695d	-0.13712068
210	0xbdbb1252	-0.09134354
211	0xbd1d7f08	-0.038451225
212	0x3e35ae0e	0.17742178
213	0xbd71ce84	-0.05903484
214	0xbe2826dd	-0.16421075
215	0xbc731e60	-0.014838785
216	0x3e4ea978	0.20181835
217	0xbe4fe0c6	-0.20300588
218	0xbd89aa58	-0.067219436
219	0x3d6319f8	0.055444688
220	0xbdc11223	-0.094272874
221	0xbdc4dea6	-0.09612779
222	0xbdbb37fe	-0.09141539
223	0xbdee8de7	-0.116481595
224	0xbe437bdb	-0.19090216
225	0xbe4db9fd	-0.2009048
226	0x3e1797bc	0.14803976
227	0xbd99b19c	-0.075045794
228	0xbe0d2801	-0.13784792
229	0x3ddc5a30	0.107593894
230	0xbe1b8cc0	-0.1519041
231	0x3e32855c	0.17433685
232	0xbddf9ccf	-0.10918581
233	0x3e421da6	0.18956622
234	0xbccd7c50	-0.02508369
235	0x3cd99800	0.026561737
236	0xbdce1c04	-0.10063937
237	0x3e3e2732	0.1856964
238	0x3e291a2e	0.16513893
239	0x3dc995cc	0.098430246
240	0xba275b00	-0.00063841045
241	0x3d5cf5c8	0.053945333
242	0x3de0585c	0.10954353
243	0xbd7c4738	-0.061591357
244	0x3c60ea20	0.013727695
245	0x3e4b74b4	0.19868737
246	0x3e0c0e12	0.13677242
247	0xbdd3d0a6	-0.10342531
248	0xbc9a8398	-0.018861577
249	0x3cd66648	0.026171818
250	0x3e2138c6	0.15744314
251	0x3e064a84	0.13114363
252	0xbd87a062	-0.066223875
253	0x3da0ec9c	0.0785763
254	0x3db911cc	0.090365976
255	0x3e2be5bc	0.16786855

bias f4 [24]
0	0x3e4e1410	0.2012484
1	0xbdcf4f35	-0.101225294
2	0xbba28560	-0.004959747
3	0x3d24bd4c	0.04021959
4	0x3d75fad0	0.060053647
5	0x3d094db0	0.033521354
6	0xbe421842	-0.18954566
7	0x3e0d5054	0.13800174
8	0x3e3c11ee	0.18366215
9	0xbc0c8f20	-0.0085790455
10	0x3d1ee5f8	0.038793534
11	0x3e362474	0.17787343
12	0xbe0a3373	-0.13496189
13	0xbe31e951	-0.1737416
14	0x3da97f00	0.082761765
15	0xbe2d2e66	-0.16912231
16	0x3e0ec7de	0.13943431
17	0x3b9a5260	0.004709527
18	0x3e121c78	0.14268672
19	0xbdaaf0b6	-0.08346693
20	0x3d9ce78c	0.076613516
21	0xbc370690	-0.011170998
22	0xbd2d34c4	-0.04228665
23	0xbc5a92f0	-0.013340697

weight f4 [24, 1, 3, 3]
0	0xbea04728	-0.31304288
1	0xbe8fba80	-0.28071976
2	0xbe8bfa6c	-0.27339494
3	0xbe1d7d48	-0.15379822
4	0xbe4d6abb	-0.20060246
5	0xbe5e209e	-0.2169213
6	0x3e62726e	0.22113964
7	0xbe8ac2c4	-0.2710172
8	0xbe765510	-0.24055886
9	0xbdac8a1c	-0.0842478
10	0x3e5ef992	0.21774891
11	0x3ea7448d	0.32669488
12	0x3e5f0da6	0.2178255
13	0x3da33c1c	0.07970449
14	0xb9cb7c00	-0.00038811564
15	0xbe0623a6	-0.13099536
16	0xbdcc9926	-0.09990148
17	0xbe5adbde	-0.21372935
18	0xbe4bd5cb	-0.19905774
19	0xbe57a69e	-0.21059653
20	0x3e8a21f7	0.26979038
21	0x3d6a6dc8	0.0572336
22	0xbe2843fe	-0.16432187
23	0xbd1bdde8	-0.038053423
24	0x3e57cf1e	0.21075103
25	0xbe89c100	-0.2690506
26	0x3e44ca36	0.19217762
27	0xbe757d3b	-0.23973553
28	0xbdbd07cc	-0.09230003
29	0xbe68dd83	-0.2274075
30	0xbe572a88	-0.21012318
31	0x3adcab00	0.001683563
32	0x3e143ce0	0.14476347
33	0x3eaa7f75	0.33300367
34	0x3e87cb47	0.26522276
35	0x3e3ee762	0.18642953
36	0xbe85539f	-0.2604036
37	0xbd679dd8	-0.056547016
38	0x3e4fdcda	0.20299092
39	0xbe220058	-0.15820444
40	0x3e4f4572	0.20241335
41	0x3dfa3370	0.12216842
42	0xbd4ee3c8	-0.050510198
43	0x3e3bc33e	0.18336198
44	0xbe2ee338	-0.17078865
45	0xbd7019f8	-0.058618516
46	0x3b3be580	0.0028670728
47	0xbe80b95e	-0.25141424
48	0xbd3354f8	-0.043782204
49	0x3dd16ff4	0.102264315
50	0x3c1f0ca0	0.0097076
51	0xbe43a650	-0.19106412
52	0x3e08a056	0.13342413
53	0xbd2ee308	-0.042696983
54	0x3e945e33	0.28978118
55	0xbdd13410	-0.10215008
56	0x3def891c	0.116960734
57	0xbd83aae0	-0.06429076
58	0xbea1a2cc	-0.31569517
59	0xbe7f4c00	-0.24931335
60	0x3cb525c0	0.022112727
61	0xbe7d4ed0	-0.24737096
62	0x3de47c14	0.111564785
63	0x3e8e2137	0.27759716
64	0x3e5e5a7e	0.21714208
65	0x3e894099	0.26807097
66	0x3d935090	0.071931005
67	0x3ea9840d	0.3310856
68	0x3d4e6cd8	0.05039677
69	0xbde2a220	-0.11066079
70	0x3e971529	0.2950833
71	0xbd4dc8e8	-0.050240427
72	0xbe2e6968	-0.17032397
73	0x3ddc4bd4	0.107566506
74	0x3d4ad368	0.04951802
75	0x3dc69aa0	0.09697461
76	0xbda1c6e0	-0.078992605
77	0xbdd014e0	-0.101602316
78	0xbe8c101c	-0.2735604
79	0xbd8acdac	-0.0677751
80	0xbdb1a4ac	-0.08673987
81	0xbe02e193	-0.12781362
82	0xbe6bdd8e	-0.23033735
83	0xbe8faf27	-0.28063318
84	0x3e3d7a2a	0.18503633
85	0x3e8ced09	0.27524593
86	0xbe0b0613	-0.13576536
87	0x3e80d43b	0.2516192
88	0x3d789ae0	0.060694575
89	0x3e5f363e	0.21798036
90	0xbe8dab3b	-0.276697
91	0xbe9fbf1e	-0.31200498
92	0xbe7d1a33	-0.24717025
93	0x3cd29500	0.025705814
94	0xbe7e7edb	-0.24853079
95	0xbe8e1b7b	-0.2775534
96	0x3ea265ab	0.31718192
97	0x3e309696	0.17244944
98	0xbd0bd698	-0.0341402
99	0x3cd24f90	0.025672704
100	0x3e7fb27a	0.24970427
101	0xbe672a76	-0.22574791
102	0x3ea44c85	0.3208963
103	0xbe5419f6	-0.20713028
104	0xbd992be4	-0.074790746
105	0xbdb5cbd0	-0.08876765
106	0xbdabd046	-0.083893344
107	0x3e6e4dea	0.2327191
108	0xbda9f120	-0.08297944
109	0xbe6e5dfb	-0.23278038
110	0xbe6fddeb	-0.23424499
111	0x3e567d6a	0.20946279
112	0x3e0764f0	0.13222098
113	0x3da9d424	0.08292416
114	0x3e32580a	0.17416397
115	0x3e962fb3	0.29333267
116	0x3ea33f2d	0.31884137
117	0x3c12c760	0.0089586675
118	0xbe321343	-0.1739016
119	0x3c3f0f00	0.011661291
120	0x3e320102	0.17383197
121	0xbdb48d86	-0.08816056
122	0x3e2a4922	0.1662946
123	0x3ea96341	0.33083537
124	0xbe2eadab	-0.17058437
125	0xbe5dd690	-0.2166388
126	0xbe2524e8	-0.1612736
127	0x3e45284e	0.19253656
128	0xbd17ede8	-0.03709212
129	0xbe205698	-0.15658033
130	0x3e46437e	0.19361684
131	0x3e9b8c07	0.3038027
132	0x3e234022	0.15942433
133	0xbe721933	-0.23642425
134	0xbe829f4f	-0.25512168
135	0x3e5dd15e	0.21661898
136	0x3e83a3e3	0.25710973
137	0xbdef8e10	-0.11697018
138	0xbdd7b936	-0.10533373
139	0x3e406612	0.18788937
140	0xbd1d6338	-0.0384247
141	0xbea03e64	-0.312976
142	0xbe6e8516	-0.23292956
143	0xbdc04070	-0.093872905
144	0xbe99b750	-0.3002267
145	0xbe09a44e	-0.13441584
146	0xbe21c673	-0.15798359
147	0x3e64c36a	0.2234017
148	0xbdc7453c	-0.09730002
149	0xbd1938e8	-0.037407786
150	0xbdf489c6	-0.11940341
151	0x3e7026aa	0.23452249
152	0x3e77e686	0.24209031
153	0xbe1f127e	-0.15534398
154	0xbd649148	-0.055802613
155	0x3e19a7c8	0.1500541
156	0xbea53d4c	-0.32273328
157	0xbea8d110	-0.32972002
158	0x3de39c1c	0.1111376
159	0x3da25c80	0.07927799
160	0x3e9cb445	0.30606285
161	0xbe865794	-0.26238692
162	0x3e537d5a	0.20653287
163	0x3d275980	0.04085684
164	0xbd4be2f8	-0.049777
165	0x3e830d3d	0.25596038
166	0xbea31732	-0.31853634
167	0xbd993364	-0.07480505
168	0xbbbbac40	-0.005727321
169	0x3e65e75e	0.22451541
170	0xbe2c74a0	-0.16841364
171	0x3e226ed6	0.15862593
172	0xbe8d1c9b	-0.27560887
173	0xbe17c43e	-0.14820954
174	0x3e0dc5ae	0.1384494
175	0xbe821203	-0.25404367
176	0xbd567aa8	-0.052363068
177	0xbe1e7c53	-0.15477113
178	0x3e553ae6	0.20823249
179	0xbdd180dc	-0.10229656
180	0x3c78a4a0	0.015175968
181	0x3e371f72	0.17883089
182	0xbafab800	-0.0019128323
183	0xbcb0e3f0	-0.021593064
184	0xbcf74730	-0.030185312
185	0xbea45887	-0.3209879
186	0x3e0fd20e	0.14044973
187	0xbe97587a	-0.2955969
188	0xbe56dfb6	-0.20983776
189	0xbea40b66	-0.32039946
190	0xbd7c9248	-0.061662942
191	0x3e559992	0.20859364
192	0xbe6cc790	-0.23123002
193	0x3c8d3a70	0.01723978
194	0xbe5f322e	-0.21796486
195	0xbe5e5b18	-0.21714437
196	0x3c772680	0.015084863
197	0xbd0a2eb8	-0.03373596
198	0xbea17b5b	-0.31539425
199	0x3e9e574d	0.3092598
200	0xbd0f6560	-0.035008788
201	0xbcfad640	-0.03061974
202	0x3daa755c	0.08323166
203	0xbea9c932	-0.33161312
204	0x3e9371ef	0.28797862
205	0xbe9e2072	-0.3088413
206	0xbdb1318c	-0.086520284
207	0x3d286a18	0.041116804
208	0xbe03ebbe	-0.12882897
209	0xbe0e69eb	-0.13907592
210	0x3e0c3946	0.13693723
211	0x3e60718a	0.21918312
212	0xbe3db7ae	-0.185271
213	0xbea717f7	-0.3263547
214	0xbe9b849a	-0.30374604
215	0xbe005dd6	-0.12535796

weight f4 [24]
0	0x3f800000	1.0
1	0x3f800000	1.0
2	0x3f800000	1.0
3	0x3f800000	1.0
4	0x3f800000	1.0
5	0x3f800000	1.0
6	0x3f800000	1.0
7	0x3f800000	1.0
8	0x3f800000	1.0
9	0x3f800000	1.0
10	0x3f800000	1.0
11	0x3f800000	1.0
12	0x3f800000	1.0
13	0x3f800000	1.0
14	0x3f800000	1.0
15	0x3f800000	1.0
16	0x3f800000	1.0
17	0x3f800000	1.0
18	0x3f800000	1.0
19	0x3f800000	1.0
20	0x3f800000	1.0
21	0x3f800000	1.0
22	0x3f800000	1.0
23	0x3f800000	1.0

bias f4 [24]
0	0x00000000	0.0
1	0x00000000	0.0
2	0x00000000	0.0
3	0x00000000	0.0
4	0x00000000	0.0
5	0x00000000	0.0
6	0x00000000	0.0
7	0x00000000	0.0
8	0x00000000	0.0
9	0x00000000	0.0
10	0x00000000	0.0
11	0x00000000	0.0
12	0x00000000	0.0
13	0x00000000	0.0
14	0x00000000	0.0
15	0x00000000	0.0
16	0x00000000	0.0
17	0x00000000	0.0
18	0x00000000	0.0
19	0x00000000	0.0
20	0x00000000	0.0
21	0x00000000	0.0
22	0x00000000	0.0
23	0x00000000	0.0

running_mean f4 [24]
0	0x00000000	0.0
1	0x00000000	0.0
2	0x00000000	0.0
3	0x00000000	0.0
4	0x00000000	0.0
5	0x00000000	0.0
6	0x00000000	0.0
7	0x00000000	0.0
8	0x00000000	0.0
9	0x00000000	0.0
10	0x00000000	0.0
11	0x00000000	0.0
12	0x00000000	0.0
13	0x00000000	0.0
14	0x00000000	0.0
15	0x00000000	0.0
16	0x00000000	0.0
17	0x00000000	0.0
18	0x00000000	0.0
19	0x00000000	0.0
20	0x00000000	0.0
21	0x00000000	0.0
22	0x00000000	0.0
23	0x00000000	0.0

running_var f4 [24]
0	0x3f800000	1.0
1	0x3f800000	1.0
2	0x3f800000	1.0
3	0x3f800000	1.0
4	0x3f800000	1.0
5	0x3f800000	1.0
6	0x3f800000	1.0
7	0x3f800000	1.0
8	0x3f800000	1.0
9	0x3f800000	1.0
10	0x3f800000	1.0
11	0x3f800000	1.0
12	0x3f800000	1.0
13	0x3f800000	1.0
14	0x3f800000	1.0
15	0x3f800000	1.0
16	0x3f800000	1.0
17	0x3f800000	1.0
18	0x3f800000	1.0
19	0x3f800000	1.0
20	0x3f800000	1.0
21	0x3f800000	1.0
22	0x3f800000	1.0
23	0x3f800000	1.0

weight f4 [24, 24, 1, 1]
0	0x3e15a8be	0.14615151
1	0x3e3b58ea	0.18295637
2	0xbe2f5c8a	-0.17125145
3	0x3d51d920	0.051232457
4	0x3e001e26	0.125115
5	0x3c217a30	0.009855792
6	0xbd9b1ab0	-0.075734496
7	0x3da907b0	0.082534194
8	0xbe13e110	-0.14441323
9	0x3e17d25e	0.14826342
10	0x3e127d72	0.14305666
11	0x3db8756c	0.090067714
12	0xbc623d90	-0.013808623
13	0xbd1bab28	-0.038005024
14	0xbe45457c	-0.19264787
15	0xbd91cef6	-0.07119553
16	0xbd8be118	-0.068300426
17	0x3daff6fc	0.085920304
18	0x3d5121b8	0.051057547
19	0x3e3d3ebc	0.18480963
20	0xbd9dbe3a	-0.077022985
21	0xbc1b42e0	-0.009476393
22	0xbe2e9e52	-0.17052582
23	0x3d902c48	0.07039696
24	0x3baafa80	0.00521785
25	0x3c180170	0.0092776865
26	0xbdb730ab	-0.089448296
27	0xbe3f10ca	-0.18658748
28	0x3e19d1f6	0.150215
29	0x3e0c36a6	0.13692722
30	0xbccb36f8	-0.024806485
31	0xbe47dd6c	-0.1951806
32	0xbe4ed1e2	-0.20197251
33	0xbd85098a	-0.0649596
34	0xbdf30125	-0.11865453
35	0x3de8f4a8	0.113747895
36	0xbe36d476	-0.17854485
37	0xbdae7351	-0.085180886
38	0x3b0b70c0	0.002127692
39	0xbe4aaba0	-0.19792032
40	0xbddfb040	-0.10922289
41	0x3d802518	0.06257075
42	0x3cd5dfc0	0.026107669
43	0x3df836d4	0.12119833
44	0x3dba89f4	0.09108344
45	0x3df376d8	0.11887902
46	0x3dcb0114	0.09912315
47	0x3e3189e4	0.17337757
48	0x3dfd861c	0.12379095
49	0x3ccf0480	0.0252707
50	0x3d147f50	0.036254227
51	0xbe166499	-0.14686812
52	0x3df8cafc	0.12148091
53	0xbd453d6c	-0.04815428
54	0xbe359e6b	-0.17736213
55	0xbd86549e	-0.06559108
56	0x3c7a2a30	0.015268847
57	0xbd6e6a78	-0.058207005
58	0xbc899f20	-0.01679951
59	0x3e29a860	0.16568136
60	0x3d6978b0	0.056999862
61	0x3d40c158	0.047059387
62	0xbe46a248	-0.19397843
63	0xbe37201f	-0.17883347
64	0xbde56c42	-0.11202289
65	0x3d5e01a8	0.0542008
66	0x3e40b86c	0.18820351
67	0x3e3fd122	0.18732122
68	0x3e132f3c	0.14373487
69	0x3e138270	0.14405227
70	0xbe38d62e	-0.18050453
71	0x3dd314b4	0.10306683
72	0xbe2a549a	-0.16633835
73	0x3dae01c8	0.084964335
74	0xbdcfd92c	-0.10148844
75	0xbdd4efb6	-0.10397284
76	0x3e113e5c	0.14183944
77	0x3d1bb9e8	0.03801909
78	0xbd3c5c60	-0.045986533
79	0xbc38f680	-0.011289239
80	0x3d925d5c	0.07146713
81	0x3d9bc0c0	0.076051235
82	0x3e0ca580	0.13735008
83	0x3d8a1764	0.06742743
84	0xbdecf0a4	-0.11569336
85	0x3d510870	0.051033437
86	0xbe18c546	-0.14919004
87	0xbe07f6c4	-0.13277727
88	0xbe3bf431	-0.1835487
89	0xbdef7bec	-0.11693558
90	0x3e283dca	0.1642982
91	0x3db054a8	0.08609897
92	0xbe0733b8	-0.13203323
93	0xbcaa2900	-0.020771503
94	0x3d3cf268	0.046129614
95	0x3d925394	0.071448475
96	0x3d2ac35c	0.041690215
97	0x3d9a0134	0.07519761
98	0x3e0fa998	0.14029539
99	0x3e2a5654	0.16634494
100	0xbafd1400	-0.0019308329
101	0xbd6be100	-0.057587624
102	0xbc7913b0	-0.015202448
103	0x3e4a9ba4	0.19785935
104	0xbe27992d	-0.16367026
105	0x3dfe9230	0.12430227
106	0x3d579bb8	0.05263874
107	0x3d26d07c	0.04072617
108	0xbddcf8d0	-0.10789645
109	0x3d7f6208	0.06234935
110	0x3d8e0084	0.06933692
111	0x3e264d7a	0.16240492
112	0x3dd2615c	0.10272476
113	0xbc65a8e0	-0.014017314
114	0x3dbfc374	0.093634516
115	0xbe304136	-0.17212376
116	0xbdf619ab	-0.120166145
117	0x3e331958	0.17490137
118	0x3d09bfcc	0.033630177
119	0x3cc97730	0.024592966
120	0xbdfacf51	-0.12246574
121	0x3d14076c	0.03613989
122	0x3e4a169e	0.1973519
123	0xbe4ccc5f	-0.19999836
124	0x3e1b85ae	0.15187714
125	0xbe176cd8	-0.14787614
126	0xbe0e65af	-0.13905977
127	0x3e357568	0.17720568
128	0x3ce84e00	0.028357506
129	0x3c99eed8	0.018790647
130	0xbd5d907c	-0.05409287
131	0x3bd85340	0.006601721
132	0xbe0795a8	-0.13240683
133	0x3dfd312c	0.123628944
134	0x3e3d7a98	0.18503797
135	0x3d27986c	0.040916845
136	0xbdf79aa6	-0.12090044
137	0x3df17de4	0.1179159
138	0xbdd66495	-0.10468403
139	0x3d99d724	0.07511738
140	0xbdc1a14e	-0.094545946
141	0x3e0a7c52	0.13523987
142	0xbe0d35a8	-0.1379
143	0xbe1aff77	-0.15136515
144	0xbe0521a0	-0.13001108
145	0xbe0d69c6	-0.1380988
146	0xbd5e7d34	-0.05431862
147	0x3dca772c	0.098860115
148	0xbe0c0ff5	-0.13677962
149	0xbd4ac134	-0.04950066
150	0xbe2928e0	-0.16519499
151	0x3d712408	0.058872253
152	0xbd28978c	-0.04116015
153	0x3e08e94a	0.13370243
154	0xbd98d596	-0.07462613
155	0x3dcf40e4	0.10119799
156	0x3dd15238	0.1022076
157	0x3e285f64	0.16442639
158	0x3dfac594	0.12244716
159	0x3e44fb8e	0.19236585
160	0x3da0ee8c	0.07857999
161	0xbd537af0	-0.051630914
162	0x3c07a910	0.008280054
163	0x3d348c30	0.044079006
164	0x3caa2a40	0.0207721
165	0x3d8a3608	0.06748587
166	0x3e4ab548	0.19795716
167	0xbe00b654	-0.12569553
168	0x3dea8a44	0.11452153
169	0x3cda64c0	0.02665937
170	0xbe171dc6	-0.14757451
171	0x3dac3eac	0.08410391
172	0x3c89f188	0.016838804
173	0x3d2c7d08	0.042111427
174	0xbdd3fc1e	-0.10350822
175	0xbe1386c4	-0.14406878
176	0x3d9e18e4	0.07719591
177	0x3c67ae20	0.014140636
178	0xbd396304	-0.045260444
179	0xbdbb0dad	-0.09133468
180	0x3e0e5198	0.13898313
181	0xbda8e7f3	-0.08247366
182	0xbd798530	-0.060918033
183	0xbe434636	-0.19069752
184	0xbe4f0194	-0.20215446
185	0x3e35fee8	0.1777302
186	0x3e173a5e	0.14768359
187	0xbe3a6a0c	-0.18204516
188	0xbcc16530	-0.02360782
189	0xbe3ba751	-0.18325545
190	0x3e02a22c	0.12757176
191	0x3e045f2a	0.12926927
192	0x3a637400	0.0008676648
193	0xbe2be526	-0.16786632
194	0x3d7a9248	0.06117466
195	0xbe2ef662	-0.17086175
196	0x3e3be2b8	0.18348205
197	0x39d9ee00	0.0004156679
198	0x3ded3264	0.11581877
199	0xbe1ac1d5	-0.15113004
200	0x3b8f0480	0.00436455
201	0xbe0f9874	-0.14023
202	0xbc8754b8	-0.01651989
203	0x3c9f9630	0.019480795
204	0x3e28bb7a	0.16477767
205	0x3e10507a	0.140932
206	0x3cd84090	0.026397973
207	0xbe48aa72	-0.1959627
208	0xbcad3b00	-0.021146297
209	0x3d2dd6f8	0.04244134
210	0xbccf6838	-0.02531825
211	0x3d9cd65c	0.07658073
212	0xbba5aa00	-0.005055666
213	0xbe2a3c26	-0.16624507
214	0xbe0d0c0d	-0.13774128
215	0x3e22e67c	0.15908235
216	0x3de09cbc	0.10967395
217	0xbe15af36	-0.14617619
218	0xbe12fd60	-0.14354467
219	0x3e06bcfc	0.1315803
220	0xbd5281f8	-0.05139348
221	0xbd43a818	-0.04776773
222	0xbdef441f	-0.11682915
223	0xbd319fe0	-0.04336536
224	0x3d10f2fc	0.035387978
225	0xbe39e900	-0.18155289
226	0xbe2d921a	-0.16950265
227	0xbe0db58e	-0.13838789
228	0x3e4b2c46	0.19841108
229	0x3e28a9e4	0.16471058
230	0xbe2529fc	-0.16129297
231	0x3e3e3e40	0.18578434
232	0xbd5980fc	-0.053101525
233	0x3e2b4a18	0.16727483
234	0x3dd60418	0.104499996
235	0xbd176c2c	-0.036968395
236	0x3db67980	0.08909893
237	0x3dc17a20	0.094471216
238	0x3dd928e0	0.106034994
239	0x3d6400a0	0.05566466
240	0x3d303e48	0.043028146
241	0xbe27dc82	-0.16392711
242	0x3b908b00	0.0044111013
243	0xbe10d748	-0.14144623
244	0x3e00fa0c	0.12595385
245	0x3e3c74cc	0.1840393
246	0x3d91458c	0.07093343
247	0x3dd98d00	0.10622597
248	0xbdb6cc1a	-0.08925648
249	0x3e203404	0.15644842
250	0xbe0f9761	-0.1402259
251	0xbdd65be8	-0.104667485
252	0xbd83dc4a	-0.06438501
253	0x3d8296a0	0.06376386
254	0xbd30e588	-0.043187648
255	0x3d1f9400	0.038959503

weight f4 [24]
0	0x3f800000	1.0
1	0x3f800000	1.0
2	0x3f800000	1.0
3	0x3f800000	1.0
4	0x3f800000	1.0
5	0x3f800000	1.0
6	0x3f800000	1.0
7	0x3f800000	1.0
8	0x3f800000	1.0
9	0x3f800000	1.0
10	0x3f800000	1.0
11	0x3f800000	1.0
12	0x3f800000	1.0
13	0x3f800000	1.0
14	0x3f800000	1.0
15	0x3f800000	1.0
16	0x3f800000	1.0
17	0x3f800000	1.0
18	0x3f800000	1.0
19	0x3f800000	1.0
20	0x3f800000	1.0
21	0x3f800000	1.0
22	0x3f800000	1.0
23	0x3f800000	1.0

bias f4 [24]
0	0x00000000	0.0
1	0x00000000	0.0
2	0x00000000	0.0
3	0x00000000	0.0
4	0x00000000	0.0
5	0x00000000	0.0
6	0x00000000	0.0
7	0x00000000	0.0
8	0x00000000	0.0
9	0x00000000	0.0
10	0x00000000	0.0
11	0x00000000	0.0
12	0x00000000	0.0
13	0x00000000	0.0
14	0x00000000	0.0
15	0x00000000	0.0
16	0x00000000	0.0
17	0x00000000	0.0
18	0x00000000	0.0
19	0x00000000	0.0
20	0x00000000	0.0
21	0x00000000	0.0
22	0x00000000	0.0
23	0x00000000	0.0

running_mean f4 [24]
0	0x00000000	0.0
1	0x00000000	0.0
2	0x00000000	0.0
3	0x00000000	0.0
4	0x00000000	0.0
5	0x00000000	0.0
6	0x00000000	0.0
7	0x00000000	0.0
8	0x00000000	0.0
9	0x00000000	0.0
10	0x00000000	0.0
11	0x00000000	0.0
12	0x00000000	0.0
13	0x00000000	0.0
14	0x00000000	0.0
15	0x00000000	0.0
16	0x00000000	0.0
17	0x00000000	0.0
18	0x00000000	0.0
19	0x00000000	0.0
20	0x00000000	0.0
21	0x00000000	0.0
22	0x00000000	0.0
23	0x00000000	0.0

running_var f4 [24]
0	0x3f800000	1.0
1	0x3f800000	1.0
2	0x3f800000	1.0
3	0x3f800000	1.0
4	0x3f800000	1.0
5	0x3f800000	1.0
6	0x3f800000	1.0
7	0x3f800000	1.0
8	0x3f800000	1.0
9	0x3f800000	1.0
10	0x3f800000	1.0
11	0x3f800000	1.0
12	0x3f800000	1.0
13	0x3f800000	1.0
14	0x3f800000	1.0
15	0x3f800000	1.0
16	0x3f800000	1.0
17	0x3f800000	1.0
18	0x3f800000	1.0
19	0x3f800000	1.0
20	0x3f800000	1.0
21	0x3f800000	1.0
22	0x3f800000	1.0
23	0x3f800000	1.0

weight f4 [72, 24, 1, 1]
0	0x3df19528	0.117960274
1	0x3e480bb2	0.19535711
2	0xbe476943	-0.19473748
3	0x3e418dae	0.18901703
4	0xbe4490f8	-0.19195926
5	0xbba99e80	-0.0051763654
6	0xbe25c627	-0.1618887
7	0xbd8386aa	-0.064221695
8	0x3e3a525c	0.1819548
9	0x3e37bae2	0.17942384
10	0x3dd1f6dc	0.10252163
11	0xbe136891	-0.14395358
12	0xbc6dc4d0	-0.014512256
13	0xbe38cd84	-0.18047148
14	0x3e3f628e	0.1868994
15	0x3df350a8	0.11880618
16	0xbe2b418d	-0.16724224
17	0x3d943e68	0.072384655
18	0xbdf7500a	-0.12075813
19	0xbe3a7c42	-0.18211463
20	0xbd4fd4bc	-0.05073999
21	0x3ca4a2b0	0.020097107
22	0xbd49eb80	-0.049296856
23	0x3c3e1420	0.011601478
24	0x3cf39468	0.029733852
25	0xbc245c70	-0.010031804
26	0x3e031bdc	0.12803596
27	0xbe3ccf6a	-0.18438497
28	0xbcbc2cb0	-0.022970527
29	0x3dc7f470	0.0976342
30	0xbdeb2485	-0.11481575
31	0xbd204c18	-0.03913507
32	0x3dd2f4bc	0.10300586
33	0xbdba1a28	-0.0908702
34	0x3e41c6ca	0.18923488
35	0xbdaefb3d	-0.08544014
36	0x3d1e0950	0.0385831
37	0x3dec46d8	0.1153695
38	0xbe1aaebc	-0.15105718
39	0xbd294774	-0.04132791
40	0xbb994000	-0.004676819
41	0x3e46d05c	0.1941542
42	0x3e260c3c	0.16215605
43	0xbcde6410	-0.027147323
44	0x3daf5df0	0.08562839
45	0x3e4ba35e	0.19886538
46	0x3e355f30	0.17712092
47	0xbe38f7ba	-0.1806325
48	0xbdc43734	-0.09580842
49	0xbcadef40	-0.021232247
50	0xbd82e8a4	-0.06392029
51	0x3e0750a0	0.1321435
52	0xbd9bc158	-0.07605237
53	0xbe16db0d	-0.14731999
54	0x3e4469fc	0.19181055
55	0x3d9636f8	0.07334703
56	0x3a87b680	0.0010354072
57	0xbda3dbbb	-0.08000895
58	0xbde24bc9	-0.11049611
59	0xbe3b6b90	-0.1830275
60	0xbd0075e8	-0.031362444
61	0xbe4bef2b	-0.19915454
62	0xbbc8c3c0	-0.006126851
63	0x3c537910	0.0129072815
64	0xbd319ddc	-0.043363437
65	0x3d0545c0	0.032537222
66	0xbe0d3b65	-0.13792188
67	0x3e494c24	0.19657952
68	0x3e22d92c	0.15903157
69	0xbd148070	-0.0362553
70	0x3df0bea8	0.11755115
71	0x3d22a5b4	0.039708808
72	0xbe237bf8	-0.15965259
73	0xbbbbd000	-0.0057315826
74	0x3e3786b0	0.17922473
75	0xbe3cfa1b	-0.18454783
76	0x3da8ef0c	0.082487196
77	0x3c72c150	0.014816597
78	0xbd91ce1a	-0.07119389
79	0x3e0327e0	0.1280818
80	0x3e4e0522	0.20119146
81	0xbe122d90	-0.14275193
82	0x3dcd6558	0.100290954
83	0xbdeeb903	-0.11656382
84	0x3b895b80	0.004191816
85	0xbc052cd0	-0.00812836
86	0xbe492fb5	-0.19647105
87	0x3d637c60	0.055538535
88	0xbd8db216	-0.06918733
89	0xbc86b8c8	-0.016445532
90	0x3d871054	0.06594911
91	0xbd9b0b88	-0.07570559
92	0xbe0d1fce	-0.13781664
93	0x3e4a0048	0.1972667
94	0xbd8e26f0	-0.069410205
95	0xbd300e00	-0.0429821
96	0xbcf6a308	-0.030107036
97	0x3daedab4	0.08537808
98	0xbdd2807c	-0.10278413
99	0xbd560fb4	-0.05226107
100	0x3c4e3b00	0.012587309
101	0x3d35bcd0	0.04436952
102	0x3e381e14	0.17980224
103	0xbe20cf18	-0.15704
104	0x3dd70794	0.10499492
105	0xbdc75799	-0.09733505
106	0x3cecaf08	0.028892055
107	0x3d8dfb48	0.06932694
108	0x3c70c230	0.014694735
109	0x3d91ccd8	0.07119149
110	0x3e0565aa	0.13027063
111	0x3defd530	0.11710584
112	0xbe4939d1	-0.19650961
113	0xbd5cd8fc	-0.05391787
114	0x3ddad8fc	0.10685918
115	0xbd78271c	-0.060584173
116	0xbdd5638a	-0.10419376
117	0x3da7567c	0.081707925
118	0xbe3057d8	-0.1722101
119	0xbe18ff92	-0.14941242
120	0x3ca00ea8	0.019538239
121	0xbcd8ffc8	-0.026489154
122	0xbde5e558	-0.112253845
123	0x3e23b4fe	0.15987012
124	0xbcb2c3e0	-0.021821916
125	0x3de305c4	0.11085084
126	0x3c1ffff0	0.00976561
127	0x3df0d4b4	0.1175932
128	0x3cb2a2c0	0.02180612
129	0xbe00e71a	-0.12588158
130	0xbde98c7a	-0.11403747
131	0xbd983250	-0.07431471
132	0x3e433d16	0.19066271
133	0x3e0678e4	0.13132054
134	0x3cf53368	0.029931739
135	0x3d49e0e8	0.049286753
136	0x3dd63998	0.10460204
137	0xbe338e68	-0.17534792
138	0xbe2089da	-0.15677586
139	0x3dde5380	0.1085577
140	0x3e4def36	0.20110783
141	0x3ba484c0	0.005020708
142	0x3e102b18	0.14078939
143	0xbe27f31e	-0.16401336
144	0xbdb6a646	-0.08918433
145	0xbd5793b8	-0.05263111
146	0x3cd40ab0	0.025884002
147	0xbe078122	-0.13232854
148	0x3cb51f78	0.022109732
149	0x39ac8a00	0.00032909214
150	0x3df4f1a8	0.11960155
151	0xbe1e95e8	-0.15486872
152	0xbdf09d07	-0.117487006
153	0xbc505cd0	-0.012717441
154	0x3d741540	0.059590578
155	0x3c2f4290	0.010697022
156	0xbd819550	-0.06327307
157	0xbdaaa0b8	-0.08331436
158	0x3dba27fc	0.09089658
159	0x3e4cddda	0.20006505
160	0xb98b6000	-0.00026583672
161	0xbe1a6a9b	-0.1507973
162	0x3d74a3e8	0.059726626
163	0xbddd8595	-0.108164944
164	0xbe4b49b4	-0.19852334
165	0x3e23c7d6	0.159942
166	0xbe2f14c0	-0.17097759
167	0x3e08b30a	0.13349548
168	0xbdb14e8a	-0.08657558
169	0x3e186564	0.14882427
170	0xbe1a00bb	-0.15039341
171	0xbdf53834	-0.119736105
172	0x3d4a6070	0.049408376
173	0xbe088240	-0.13330936
174	0x3dfdfa60	0.12401271
175	0x3dae7128	0.085176766
176	0x3d9f38d8	0.07774514
177	0xbdcc5377	-0.09976857
178	0x3b69b000	0.0035657883
179	0x3e462d84	0.193533
180	0xbd040108	-0.032227546
181	0xbd947b40	-0.072500706
182	0x3e34b9f6	0.17649063
183	0xbd88b470	-0.06675041
184	0xbccb1d18	-0.024794146
185	0xbdc974e9	-0.09836752
186	0xbdaecab2	-0.08534755
187	0x3e504c40	0.20341587
188	0x3e095d8c	0.13414592
189	0xbe08a79c	-0.13345188
190	0x3dc996a4	0.098431855
191	0xbd948574	-0.07252017
192	0xbd5b7b94	-0.05358465
193	0xbe004dee	-0.12529728
194	0x3e177da2	0.14794019
195	0x3dc72040	0.09722948
196	0xbd0b3e00	-0.033994675
197	0xbd829bd4	-0.06377378
198	0x3e31d204	0.17365271
199	0xbe114ac8	-0.14188683
200	0xbdf55101	-0.11978341
201	0xbdec4006	-0.11535649
202	0x3e327928	0.1742903
203	0x3cfb7608	0.03069593
204	0x3df1298c	0.117755026
205	0xbd82b9f0	-0.06383121
206	0x3de639ec	0.112415165
207	0xbdbada19	-0.0912363
208	0xbd75acd0	-0.05997926
209	0x3e4d17ae	0.20028564
210	0xbe46344a	-0.19355884
211	0x3e35c33a	0.17750254
212	0xbda41b3a	-0.080130056
213	0x3e2c26da	0.16811696
214	0x3e2485c8	0.16066658
215	0x3e0ca53e	0.1373491
216	0x3e29c73a	0.16579905
217	0x3e3a7418	0.18208349
218	0xbe05f631	-0.13082196
219	0xbe12f8e6	-0.1435276
220	0x3e457056	0.19281134
221	0xbcfa4c40	-0.030553937
222	0xbe404974	-0.1877802
223	0xbdee2e9a	-0.11629982
224	0x3d94766c	0.0724915
225	0xbdbf5328	-0.09342033
226	0xbe241e6e	-0.16027233
227	0x3c9a2ea0	0.01882106
228	0x3e12452a	0.14284196
229	0x3e1cc51c	0.15309566
230	0xbe3b9e3a	-0.18322077
231	0x3e24b788	0.16085637
232	0x3e1c88b0	0.15286517
233	0x3d8e2dbc	0.06942317
234	0x3e22ebf2	0.15910318
235	0x3dc01880	0.09379673
236	0x3db96004	0.09051517
237	0xbd9d4dba	-0.07680841
238	0xbd693880	-0.05693865
239	0xbe34bb68	-0.17649615
240	0x3e097ee2	0.13427308
241	0x3e2927e8	0.1651913
242	0xbe44e26d	-0.19227
243	0xbc2cd740	-0.0105493665
244	0x3da14ee8	0.07876378
245	0x3da7cf50	0.081938386
246	0x3e48bbf0	0.19602942
247	0x3d425990	0.047448695
248	0xbdd3354c	-0.103129
249	0x3e382232	0.17981794
250	0xbda92ca4	-0.08260468
251	0x3e2be672	0.16787127
252	0xbdf1aa6c	-0.118000835
253	0x3d8d8904	0.06910899
254	0xbe4ed4f7	-0.20198427
255	0x3dd56ae8	0.104207814

weight f4 [72]
0	0x3f800000	1.0
1	0x3f800000	1.0
2	0x3f800000	1.0
3	0x3f800000	1.0
4	0x3f800000	1.0
5	0x3f800000	1.0
6	0x3f800000	1.0
7	0x3f800000	1.0
8	0x3f800000	1.0
9	0x3f800000	1.0
10	0x3f800000	1.0
11	0x3f800000	1.0
12	0x3f800000	1.0
13	0x3f800000	1.0
14	0x3f800000	1.0
15	0x3f800000	1.0
16	0x3f800000	1.0
17	0x3f800000	1.0
18	0x3f800000	1.0
19	0x3f800000	1.0
20	0x3f800000	1.0
21	0x3f800000	1.0
22	0x3f800000	1.0
23	0x3f800000	1.0
24	0x3f800000	1.0
25	0x3f800000	1.0
26	0x3f800000	1.0
27	0x3f800000	1.0
28	0x3f800000	1.0
29	0x3f800000	1.0
30	0x3f800000	1.0
31	0x3f800000	1.0
32	0x3f800000	1.0
33	0x3f800000	1.0
34	0x3f800000	1.0
35	0x3f800000	1.0
36	0x3f800000	1.0
37	0x3f800000	1.0
38	0x3f800000	1.0
39	0x3f800000	1.0
40	0x3f800000	1.0
41	0x3f800000	1.0
42	0x3f800000	1.0
43	0x3f800000	1.0
44	0x3f800000	1.0
45	0x3f800000	1.0
46	0x3f800000	1.0
47	0x3f800000	1.0
48	0x3f800000	1.0
49	0x3f800000	1.0
50	0x3f800000	1.0
51	0x3f800000	1.0
52	0x3f800000	1.0
53	0x3f800000	1.0
54	0x3f800000	1.0
55	0x3f800000	1.0
56	0x3f800000	1.0
57	0x3f800000	1.0
58	0x3f800000	1.0
59	0x3f800000	1.0
60	0x3f800000	1.0
61	0x3f800000	1.0
62	0x3f800000	1.0
63	0x3f800000	1.0
64	0x3f800000	1.0
65	0x3f800000	1.0
66	0x3f800000	1.0
67	0x3f800000	1.0
68	0x3f800000	1.0
69	0x3f800000	1.0
70	0x3f800000	1.0
71	0x3f800000	1.0

bias f4 [72]
0	0x00000000	0.0
1	0x00000000	0.0
2	0x00000000	0.0
3	0x00000000	0.0
4	0x00000000	0.0
5	0x00000000	0.0
6	0x00000000	0.0
7	0x00000000	0.0
8	0x00000000	0.0
9	0x00000000	0.0
10	0x00000000	0.0
11	0x00000000	0.0
12	0x00000000	0.0
13	0x00000000	0.0
14	0x00000000	0.0
15	0x00000000	0.0
16	0x00000000	0.0
17	0x00000000	0.0
18	0x00000000	0.0
19	0x00000000	0.0
20	0x00000000	0.0
21	0x00000000	0.0
22	0x00000000	0.0
23	0x00000000	0.0
24	0x00000000	0.0
25	0x00000000	0.0
26	0x00000000	0.0
27	0x00000000	0.0
28	0x00000000	0.0
29	0x00000000	0.0
30	0x00000000	0.0
31	0x00000000	0.0
32	0x00000000	0.0
33	0x00000000	0.0
34	0x00000000	0.0
35	0x00000000	0.0
36	0x00000000	0.0
37	0x00000000	0.0
38	0x00000000	0.0
39	0x00000000	0.0
40	0x00000000	0.0
41	0x00000000	0.0
42	0x00000000	0.0
43	0x00000000	0.0
44	0x00000000	0.0
45	0x00000000	0.0
46	0x00000000	0.0
47	0x00000000	0.0
48	0x00000000	0.0
49	0x00000000	0.0
50	0x00000000	0.0
51	0x00000000	0.0
52	0x00000000	0.0
53	0x00000000	0.0
54	0x00000000	0.0
55	0x00000000	0.0
56	0x00000000	0.0
57	0x00000000	0.0
58	0x00000000	0.0
59	0x00000000	0.0
60	0x00000000	0.0
61	0x00000000	0.0
62	0x00000000	0.0
63	0x00000000	0.0
64	0x00000000	0.0
65	0x00000000	0.0
66	0x00000000	0.0
67	0x00000000	0.0
68	0x00000000	0.0
69	0x00000000	0.0
70	0x00000000	0.0
71	0x00000000	0.0

running_mean f4 [72]
0	0x00000000	0.0
1	0x00000000	0.0
2	0x00000000	0.0
3	0x00000000	0.0
4	0x00000000	0.0
5	0x00000000	0.0
6	0x00000000	0.0
7	0x00000000	0.0
8	0x00000000	0.0
9	0x00000000	0.0
10	0x00000000	0.0
11	0x00000000	0.0
12	0x00000000	0.0
13	0x00000000	0.0
14	0x00000000	0.0
15	0x00000000	0.0
16	0x00000000	0.0
17	0x00000000	0.0
18	0x00000000	0.0
19	0x00000000	0.0
20	0x00000000	0.0
21	0x00000000	0.0
22	0x00000000	0.0
23	0x00000000	0.0
24	0x00000000	0.0
25	0x00000000	0.0
26	0x00000000	0.0
27	0x00000000	0.0
28	0x00000000	0.0
29	0x00000000	0.0
30	0x00000000	0.0
31	0x00000000	0.0
32	0x00000000	0.0
33	0x00000000	0.0
34	0x00000000	0.0
35	0x00000000	0.0
36	0x00000000	0.0
37	0x00000000	0.0
38	0x00000000	0.0
39	0x00000000	0.0
40	0x00000000	0.0
41	0x00000000	0.0
42	0x00000000	0.0
43	0x00000000	0.0
44	0x00000000	0.0
45	0x00000000	0.0
46	0x00000000	0.0
47	0x00000000	0.0
48	0x00000000	0.0
49	0x00000000	0.0
50	0x00000000	0.0
51	0x00000000	0.0
52	0x00000000	0.0
53	0x00000000	0.0
54	0x00000000	0.0
55	0x00000000	0.0
56	0x00000000	0.0
57	0x00000000	0.0
58	0x00000000	0.0
59	0x00000000	0.0
60	0x00000000	0.0
61	0x00000000	0.0
62	0x00000000	0.0
63	0x00000000	0.0
64	0x00000000	0.0
65	0x00000000	0.0
66	0x00000000	0.0
67	0x00000000	0.0
68	0x00000000	0.0
69	0x00000000	0.0
70	0x00000000	0.0
71	0x00000000	0.0

running_var f4 [72]
0	0x3f800000	1.0
1	0x3f800000	1.0
2	0x3f800000	1.0
3	0x3f800000	1.0
4	0x3f800000	1.0
5	0x3f800000	1.0
6	0x3f800000	1.0
7	0x3f800000	1.0
8	0x3f800000	1.0
9	0x3f800000	1.0
10	0x3f800000	1.0
11	0x3f800000	1.0
12	0x3f800000	1.0
13	0x3f800000	1.0
14	0x3f800000	1.0
15	0x3f800000	1.0
16	0x3f800000	1.0
17	0x3f800000	1.0
18	0x3f800000	1.0
19	0x3f800000	1.0
20	0x3f800000	1.0
21	0x3f800000	1.0
22	0x3f800000	1.0
23	0x3f800000	1.0
24	0x3f800000	1.0
25	0x3f800000	1.0
26	0x3f800000	1.0
27	0x3f800000	1.0
28	0x3f800000	1.0
29	0x3f800000	1.0
30	0x3f800000	1.0
31	0x3f800000	1.0
32	0x3f800000	1.0
33	0x3f800000	1.0
34	0x3f800000	1.0
35	0x3f800000	1.0
36	0x3f800000	1.0
37	0x3f800000	1.0
38	0x3f800000	1.0
39	0x3f800000	1.0
40	0x3f800000	1.0
41	0x3f800000	1.0
42	0x3f800000	1.0
43	0x3f800000	1.0
44	0x3f800000	1.0
45	0x3f800000	1.0
46	0x3f800000	1.0
47	0x3f800000	1.0
48	0x3f800000	1.0
49	0x3f800000	1.0
50	0x3f800000	1.0
51	0x3f800000	1.0
52	0x3f800000	1.0
53	0x3f800000	1.0
54	0x3f800000	1.0
55	0x3f800000	1.0
56	0x3f800000	1.0
57	0x3f800000	1.0
58	0x3f800000	1.0
59	0x3f800000	1.0
60	0x3f800000	1.0
61	0x3f800000	1.0
62	0x3f800000	1.0
63	0x3f800000	1.0
64	0x3f800000	1.0
65	0x3f800000	1.0
66	0x3f800000	1.0
67	0x3f800000	1.0
68	0x3f800000	1.0
69	0x3f800000	1.0
70	0x3f800000	1.0
71	0x3f800000	1.0

weight f4 [72, 1, 3, 3]
0	0xbea304aa	-0.31839496
1	0xbe9fae1c	-0.31187522
2	0x3e42da02	0.19028476
3	0xbe31865b	-0.17336409
4	0xbdeb4f76	-0.11489765
5	0xbe9b0782	-0.30279166
6	0x3cf35790	0.029704839
7	0x3d0710a8	0.03297487
8	0x3e3d1fe2	0.18469194
9	0xbca11270	-0.019662112
10	0xbd577ec8	-0.052611142
11	0xbdb16c46	-0.0866323
12	0xbe250fd6	-0.16119322
13	0xbe0ec530	-0.13942409
14	0x3e4b39e2	0.198463
15	0x3e4825f2	0.19545725
16	0xbcfe7230	-0.031060308
17	0xbdfd2c80	-0.12362003
18	0xbe6b7778	-0.22994792
19	0x3e083806	0.13302621
20	0xbdb1b33c	-0.08676764
21	0xbe23bea3	-0.15990691
22	0xbe70ad03	-0.23503499
23	0xbe66c7c3	-0.2253714
24	0x3d3533c0	0.044238806
25	0x3d08daa8	0.03341165
26	0xbea446c0	-0.32085228
27	0x3e84835d	0.25881472
28	0x3d0b28e8	0.033974558
29	0x3cc69170	0.024239272
30	0xbcb4acb0	-0.022055
31	0xbe852b8c	-0.26009786
32	0xbe99e7e7	-0.3005974
33	0x3e92b015	0.28649965
34	0x3d5f9bf8	0.054592103
35	0x3e76ec6a	0.24113622
36	0xbd30e9f8	-0.04319188
37	0x3e02a61a	0.12758675
38	0x3e95b90f	0.2924275
39	0x3e08e6ce	0.13369295
40	0x3da4839c	0.08032915
41	0x3ea2fdb5	0.31834188
42	0x3e7d3fbe	0.24731347
43	0xbe71933e	-0.23591325
44	0xbddd213c	-0.107973546
45	0x3dd02270	0.101628184
46	0x3e839aa5	0.25703922
47	0x3d7ead98	0.06217727
48	0x3d985dbc	0.074397534
49	0x3e999763	0.2999831
50	0xbe0f244b	-0.13978688
51	0x3e47edba	0.19524279
52	0x3e80f2b3	0.25185165
53	0x3e4cd5e2	0.20003465
54	0xbd97c374	-0.074103266
55	0x3d2116e8	0.039328486
56	0xbe8e287e	-0.27765268
57	0x3e97a3f9	0.2961729
58	0xbe722938	-0.23648536
59	0xbe8eaff6	-0.27868623
60	0xbbce97c0	-0.006304711
61	0xbe5834ce	-0.21113893
62	0x3e8a7c11	0.2704778
63	0xbea2c496	-0.31790608
64	0x3dc0a660	0.094067335
65	0x3e7de4da	0.24794331
66	0x3d5afd38	0.053464144
67	0x3e4518d2	0.1924775
68	0x3e65a7f2	0.22427347
69	0x3e9de213	0.30836543
70	0xbe5bd993	-0.21469717
71	0xbe900ccc	-0.28134763
72	0x3e6662a6	0.22498569
73	0x3e1ed488	0.15510762
74	0x3e960b85	0.29305664
75	0x3ea53419	0.3226631
76	0xbdec66ac	-0.115430206
77	0x3e4ddf6e	0.20104763
78	0x3d99def4	0.07513228
79	0xbe6a4abb	-0.2288007
80	0xbe7061e3	-0.23474841
81	0xbe838f12	-0.2569509
82	0x3e939e81	0.28831866
83	0x3c500060	0.012695402
84	0x3e8598c1	0.26093104
85	0x3e3e3616	0.1857532
86	0xbe63a068	-0.22229159
87	0xbea28412	-0.31741387
88	0xbd7f6198	-0.062348932
89	0xbe4643fb	-0.1936187
90	0x3e931ced	0.28733006
91	0xbd8d6a7c	-0.06905076
92	0x3df315bc	0.1186938
93	0xbcd5a0d0	-0.026077658
94	0xbe4cf0bb	-0.20013706
95	0x3ea00355	0.31252542
96	0x3e33ba1a	0.17551461
97	0x3e5dc0ca	0.21655574
98	0x3e9f9acd	0.3117279
99	0xbe52932e	-0.20563957
100	0x3d1c00e0	0.038086772
101	0x3e74c93a	0.23904887
102	0xbe30653e	-0.17226121
103	0x3e139eaa	0.14415994
104	0xbe45cdf0	-0.1931684
105	0xbe60243b	-0.21888821
106	0x3ded1eec	0.115781635
107	0xbe3ca766	-0.18423232
108	0xbeaa7f3f	-0.33300206
109	0x3e2119de	0.15732524
110	0xbdf52776	-0.11970417
111	0xbe487ad3	-0.19578104
112	0x3e1f3d06	0.15550622
113	0x3d327060	0.0435642
114	0x3b0ed680	0.0021795332
115	0xbdf13a16	-0.11778657
116	0x3e9d5afb	0.30733475
117	0xbad8f300	-0.0016551912
118	0x3d7722e0	0.060335994
119	0xbd90910c	-0.070589155
120	0xbadc5c00	-0.0016812086
121	0xbe1b1e5e	-0.15148303
122	0xbe54745b	-0.20747511
123	0x3e4c7ebe	0.19970223
124	0xbe86541e	-0.2623605
125	0xbb949a40	-0.0045349896
126	0xbe401436	-0.1875771
127	0x3d1d7540	0.038441896
128	0xbdb33750	-0.087507844
129	0x3e951f9d	0.29125682
130	0x3e2a3d1a	0.16624871
131	0x3e0f582a	0.13998476
132	0xbe8a39fb	-0.2699736
133	0x3e969905	0.2941362
134	0xbe47b4b3	-0.19502525
135	0xbdabd47c	-0.083901376
136	0x3d83b254	0.06430498
137	0xbd566d18	-0.052350134
138	0x3d379668	0.044821173
139	0x3e999daf	0.30003116
140	0x3db9b3e4	0.090675145
141	0x3e8ba33f	0.27272984
142	0xbd452680	-0.04813242
143	0x3ea5016d	0.3222765
144	0x3e8cfb47	0.2753546
145	0x3e14484e	0.14480707
146	0xbe5f1426	-0.2178503
147	0x3e911363	0.28335103
148	0x3d52fc28	0.051510006
149	0x3cb6bd10	0.022306949
150	0x3e0eaac8	0.13932335
151	0xbd11da80	-0.03560877
152	0xbe64abae	-0.22331116
153	0xbe40d280	-0.188303
154	0xbdbe8cf0	-0.093042254
155	0x3e60afd6	0.21942076
156	0x3e851929	0.25995758
157	0xbea342c3	-0.31886873
158	0xbe77813b	-0.24170391
159	0x3e78725e	0.24262378
160	0x3d539020	0.05165112
161	0x3e18c238	0.14917839
162	0xbd53c1f8	-0.051698655
163	0x3e6ede7a	0.23327056
164	0x3e3d382a	0.18478456
165	0xbe7c860b	-0.24660508
166	0xbe9c9397	-0.30581352
167	0xbe8c6ecc	-0.2742828
168	0x3ea0bc79	0.31393793
169	0xbe685323	-0.22687964
170	0x3e6abcc2	0.22923568
171	0x3e152ce6	0.14567909
172	0xbd597138	-0.05308649
173	0x3d2844e0	0.04108131
174	0x3d7031d8	0.058641285
175	0xbe66c15b	-0.22534697
176	0xbe56385e	-0.2091994
177	0xbe5b2163	-0.21399455
178	0xbe8becea	-0.2732919
179	0x3e7df2aa	0.247996
180	0xbd6ecaa0	-0.058298707
181	0xbd08f3b8	-0.033435553
182	0x3e3046f6	0.1721457
183	0x3e081800	0.13290405
184	0x3dfaa0a0	0.12237668
185	0xbe564d48	-0.20927918
186	0x3e4b5ea2	0.19860318
187	0x3e767616	0.24068484
188	0x3d3dc448	0.046329767
189	0xbe7ee2a0	-0.24891138
190	0xbdf0c2a6	-0.11755876
191	0x3e62ce9a	0.22149125
192	0xbe85ab1a	-0.26107103
193	0x3e138bc0	0.14408779
194	0xbd7bb040	-0.061447382
195	0xbd7b10d8	-0.06129536
196	0xbb9d58c0	-0.0048018396
197	0xbc270580	-0.010194182
198	0x3c750800	0.014955521
199	0x3e5f12e2	0.21784547
200	0x3c57f5a0	0.01318112
201	0x3d113688	0.035452396
202	0xbe2a9a10	-0.16660333
203	0x3e7faafa	0.24967566
204	0x3e478012	0.19482449
205	0x3d902ca4	0.070397645
206	0x3d938884	0.07203773
207	0x3db59e4c	0.08868083
208	0xbe29f466	-0.16597137
209	0xbdf1e290	-0.118107915
210	0xbe257fe3	-0.16162066
211	0xbea576a7	-0.32317087
212	0xbe4720a0	-0.19446039
213	0xbe908717	-0.28228065
214	0x3e9242d9	0.28566626
215	0xbe6b6dd6	-0.22991118
216	0xbe977868	-0.2958405
217	0xbc67fba0	-0.014159113
218	0xbe56f250	-0.20990872
219	0x3e98e577	0.29862568
220	0x3e61f9ca	0.22067943
221	0x3e64a7d6	0.2232965
222	0x3e02d330	0.12775874
223	0x3e3e228a	0.18567863
224	0x3e4903f2	0.19630411
225	0x3cee98f0	0.02912566
226	0xbe1ec0e6	-0.15503272
227	0x3e29ae46	0.16570386
228	0xbe78f3b0	-0.2431171
229	0xbea3306f	-0.3187289
230	0x3e20957e	0.15682027
231	0xbe34744e	-0.17622492
232	0x3c84a950	0.016194016
233	0x3e8b2469	0.27176216
234	0xbdf93be6	-0.12169628
235	0xbda74bb0	-0.08168733
236	0x3e10041e	0.1406407
237	0x3dc77224	0.097385675
238	0x3e03684e	0.12832758
239	0xbe4ac9e3	-0.19803576
240	0xbe17b550	-0.14815259
241	0xbe625328	-0.22102034
242	0x3e70d21a	0.23517647
243	0x3d5d9fd8	0.054107517
244	0xbe0d0423	-0.1377111
245	0x3d8fa0b0	0.070130706
246	0x3ea63d59	0.3246868
247	0xbe8c9e38	-0.2746446
248	0x3e04bec0	0.1296339
249	0x3d182da0	0.037152886
250	0x3d348c80	0.044079304
251	0x3d05ade8	0.032636553
252	0xbc9bb870	-0.019008845
253	0xbc932270	-0.017960757
254	0xbe85578f	-0.26043364
255	0xbe4ffc08	-0.20310986

weight f4 [72]
0	0x3f800000	1.0
1	0x3f800000	1.0
2	0x3f800000	1.0
3	0x3f800000	1.0
4	0x3f800000	1.0
5	0x3f800000	1.0
6	0x3f800000	1.0
7	0x3f800000	1.0
8	0x3f800000	1.0
9	0x3f800000	1.0
10	0x3f800000	1.0
11	0x3f800000	1.0
12	0x3f800000	1.0
13	0x3f800000	1.0
14	0x3f800000	1.0
15	0x3f800000	1.0
16	0x3f800000	1.0
17	0x3f800000	1.0
18	0x3f800000	1.0
19	0x3f800000	1.0
20	0x3f800000	1.0
21	0x3f800000	1.0
22	0x3f800000	1.0
23	0x3f800000	1.0
24	0x3f800000	1.0
25	0x3f800000	1.0
26	0x3f800000	1.0
27	0x3f800000	1.0
28	0x3f800000	1.0
29	0x3f800000	1.0
30	0x3f800000	1.0
31	0x3f800000	1.0
32	0x3f800000	1.0
33	0x3f800000	1.0
34	0x3f800000	1.0
35	0x3f800000	1.0
36	0x3f800000	1.0
37	0x3f800000	1.0
38	0x3f800000	1.0
39	0x3f800000	1.0
40	0x3f800000	1.0
41	0x3f800000	1.0
42	0x3f800000	1.0
43	0x3f800000	1.0
44	0x3f800000	1.0
45	0x3f800000	1.0
46	0x3f800000	1.0
47	0x3f800000	1.0
48	0x3f800000	1.0
49	0x3f800000	1.0
50	0x3f800000	1.0
51	0x3f800000	1.0
52	0x3f800000	1.0
53	0x3f800000	1.0
54	0x3f800000	1.0
55	0x3f800000	1.0
56	0x3f800000	1.0
57	0x3f800000	1.0
58	0x3f800000	1.0
59	0x3f800000	1.0
60	0x3f800000	1.0
61	0x3f800000	1.0
62	0x3f800000	1.0
63	0x3f800000	1.0
64	0x3f800000	1.0
65	0x3f800000	1.0
66	0x3f800000	1.0
67	0x3f800000	1.0
68	0x3f800000	1.0
69	0x3f800000	1.0
70	0x3f800000	1.0
71	0x3f800000	1.0

bias f4 [72]
0	0x00000000	0.0
1	0x00000000	0.0
2	0x00000000	0.0
3	0x00000000	0.0
4	0x00000000	0.0
5	0x00000000	0.0
6	0x00000000	0.0
7	0x00000000	0.0
8	0x00000000	0.0
9	0x00000000	0.0
10	0x00000000	0.0
11	0x00000000	0.0
12	0x00000000	0.0
13	0x00000000	0.0
14	0x00000000	0.0
15	0x00000000	0.0
16	0x00000000	0.0
17	0x00000000	0.0
18	0x00000000	0.0
19	0x00000000	0.0
20	0x00000000	0.0
21	0x00000000	0.0
22	0x00000000	0.0
23	0x00000000	0.0
24	0x00000000	0.0
25	0x00000000	0.0
26	0x00000000	0.0
27	0x00000000	0.0
28	0x00000000	0.0
29	0x00000000	0.0
30	0x00000000	0.0
31	0x00000000	0.0
32	0x00000000	0.0
33	0x00000000	0.0
34	0x00000000	0.0
35	0x00000000	0.0
36	0x00000000	0.0
37	0x00000000	0.0
38	0x00000000	0.0
39	0x00000000	0.0
40	0x00000000	0.0
41	0x00000000	0.0
42	0x00000000	0.0
43	0x00000000	0.0
44	0x00000000	0.0
45	0x00000000	0.0
46	0x00000000	0.0
47	0x00000000	0.0
48	0x00000000	0.0
49	0x00000000	0.0
50	0x00000000	0.0
51	0x00000000	0.0
52	0x00000000	0.0
53	0x00000000	0.0
54	0x00000000	0.0
55	0x00000000	0.0
56	0x00000000	0.0
57	0x00000000	0.0
58	0x00000000	0.0
59	0x00000000	0.0
60	0x00000000	0.0
61	0x00000000	0.0
62	0x00000000	0.0
63	0x00000000	0.0
64	0x00000000	0.0
65	0x00000000	0.0
66	0x00000000	0.0
67	0x00000000	0.0
68	0x00000000	0.0
69	0x00000000	0.0
70	0x00000000	0.0
71	0x00000000	0.0

running_mean f4 [72]
0	0x00000000	0.0
1	0x00000000	0.0
2	0x00000000	0.0
3	0x00000000	0.0
4	0x00000000	0.0
5	0x00000000	0.0
6	0x00000000	0.0
7	0x00000000	0.0
8	0x00000000	0.0
9	0x00000000	0.0
10	0x00000000	0.0
11	0x00000000	0.0
12	0x00000000	0.0
13	0x00000000	0.0
14	0x00000000	0.0
15	0x00000000	0.0
16	0x00000000	0.0
17	0x00000000	0.0
18	0x00000000	0.0
19	0x00000000	0.0
20	0x00000000	0.0
21	0x00000000	0.0
22	0x00000000	0.0
23	0x00000000	0.0
24	0x00000000	0.0
25	0x00000000	0.0
26	0x00000000	0.0
27	0x00000000	0.0
28	0x00000000	0.0
29	0x00000000	0.0
30	0x00000000	0.0
31	0x00000000	0.0
32	0x00000000	0.0
33	0x00000000	0.0
34	0x00000000	0.0
35	0x00000000	0.0
36	0x00000000	0.0
37	0x00000000	0.0
38	0x00000000	0.0
39	0x00000000	0.0
40	0x00000000	0.0
41	0x00000000	0.0
42	0x00000000	0.0
43	0x00000000	0.0
44	0x00000000	0.0
45	0x00000000	0.0
46	0x00000000	0.0
47	0x00000000	0.0
48	0x00000000	0.0
49	0x00000000	0.0
50	0x00000000	0.0
51	0x00000000	0.0
52	0x00000000	0.0
53	0x00000000	0.0
54	0x00000000	0.0
55	0x00000000	0.0
56	0x00000000	0.0
57	0x00000000	0.0
58	0x00000000	0.0
59	0x00000000	0.0
60	0x00000000	0.0
61	0x00000000	0.0
62	0x00000000	0.0
63	0x00000000	0.0
64	0x00000000	0.0
65	0x00000000	0.0
66	0x00000000	0.0
67	0x00000000	0.0
68	0x00000000	0.0
69	0x00000000	0.0
70	0x00000000	0.0
71	0x00000000	0.0

running_var f4 [72]
0	0x3f800000	1.0
1	0x3f800000	1.0
2	0x3f800000	1.0
3	0x3f800000	1.0
4	0x3f800000	1.0
5	0x3f800000	1.0
6	0x3f800000	1.0
7	0x3f800000	1.0
8	0x3f800000	1.0
9	0x3f800000	1.0
10	0x3f800000	1.0
11	0x3f800000	1.0
12	0x3f800000	1.0
13	0x3f800000	1.0
14	0x3f800000	1.0
15	0x3f800000	1.0
16	0x3f800000	1.0
17	0x3f800000	1.0
18	0x3f800000	1.0
19	0x3f800000	1.0
20	0x3f800000	1.0
21	0x3f800000	1.0
22	0x3f800000	1.0
23	0x3f800000	1.0
24	0x3f800000	1.0
25	0x3f800000	1.0
26	0x3f800000	1.0
27	0x3f800000	1.0
28	0x3f800000	1.0
29	0x3f800000	1.0
30	0x3f800000	1.0
31	0x3f800000	1.0
32	0x3f800000	1.0
33	0x3f800000	1.0
34	0x3f800000	1.0
35	0x3f800000	1.0
36	0x3f800000	1.0
37	0x3f800000	1.0
38	0x3f800000	1.0
39	0x3f800000	1.0
40	0x3f800000	1.0
41	0x3f800000	1.0
42	0x3f800000	1.0
43	0x3f800000	1.0
44	0x3f800000	1.0
45	0x3f800000	1.0
46	0x3f800000	1.0
47	0x3f800000	1.0
48	0x3f800000	1.0
49	0x3f800000	1.0
50	0x3f800000	1.0
51	0x3f800000	1.0
52	0x3f800000	1.0
53	0x3f800000	1.0
54	0x3f800000	1.0
55	0x3f800000	1.0
56	0x3f800000	1.0
57	0x3f800000	1.0
58	0x3f800000	1.0
59	0x3f800000	1.0
60	0x3f800000	1.0
61	0x3f800000	1.0
62	0x3f800000	1.0
63	0x3f800000	1.0
64	0x3f800000	1.0
65	0x3f800000	1.0
66	0x3f800000	1.0
67	0x3f800000	1.0
68	0x3f800000	1.0
69	0x3f800000	1.0
70	0x3f800000	1.0
71	0x3f800000	1.0
