Mobilenet_V3_Search_space_blocks/blocks_quantization_vitis_ai_3.0/float/ResidualBlock-in_24x112x112-out_24-k_7-e_1-s_1-act_relu-use_se_False.pth (torch, 16706 bytes, 10 tensors)

weight f4 [24, 1, 7, 7]
-0.0070021898 -0.048927188 0.12748553 0.10327856 0.047047958 -0.08546058 0.030776694 0.072563976
-0.14243428 -0.12475229 0.054013148 -0.116355136 -0.07270262 0.060589314 -0.09180413 -0.063444175
-0.14261459 -0.0747132 -0.10721862 -0.0073203743 0.032484233 -0.06284215 0.009106755 0.09139229
0.047902703 -0.040278167 -0.050165877 -0.14066155 -0.016351908 0.04838489 -0.03750357 0.08526112
0.060664535 -0.070223115 -0.12603326 -0.04067348 0.11958219 0.034521192 0.12913968 0.047673717
0.12920834 0.1017548 -0.10095304 0.13922335 -0.12175864 0.008881584 -0.054520674 0.010479376
0.068669185 -0.023314066 -0.02573669 0.11285497 -0.08153723 0.0022582114 0.010962456 0.014298394
-0.07452643 -0.11080122 0.090433955 -0.07518046 0.021359459 0.06554949 0.03294468 -0.11284953
-0.02375535 0.112040505 0.13469629 -0.07012674 0.07328273 0.0133521855 -0.082642935 0.05181788
0.044116944 -0.046941847 -0.12991601 -0.0031534284 -0.07576326 -0.12329093 0.09481262 -0.005178228
0.13393404 0.12983085 0.036731377 0.057125553 0.12401317 0.06565036 -0.09854617 0.010087267
0.07801835 -0.00086034834 0.061828256 0.052155912 0.1361704 0.12539865 0.12539865 0.12620048
0.032892555 -0.09445071 0.024445638 -0.017733827 0.12840946 0.087567925 -0.013584763 0.100541115
-0.12914369 -0.10676442 0.022616372 0.12809841 -0.007665798 0.12231167 -0.0039669126 -0.13070077
-0.13917367 -0.075946026 0.011215478 0.1371894 -0.098032415 -0.09601203 -0.00316599 -0.14279127
-0.10993682 -0.12674613 0.0029024184 0.107540116 0.06883901 0.0012468994 -0.10310068 -0.09873493
0.010662749 0.011083767 0.101030335 0.014756039 -0.06418823 0.05954893 -0.119297884 0.060492367
0.053749397 0.04520996 0.062883124 0.089398086 -0.09675582 -0.12121029 -0.0750422 -0.11537743
0.06698841 0.09402703 -0.019918561 0.13519065 -0.04195784 -0.013280138 -0.14104453 0.001064539
0.13203107 0.11245914 -8.575618e-05 -0.08434719 0.03524086 -0.07177162 0.13275622 -0.13685977
-0.045519352 -0.05674509 0.0034304708 -0.02297151 0.11678545 -0.11797935 -0.0066928715 -0.041358918
0.04442729 0.0564778 -0.0037952513 -0.13605791 0.055089787 -0.10490334 -0.105440706 -0.115928926
-0.011788696 0.0654743 0.09674482 0.14115359 -0.14049125 0.041562498 0.06980546 0.014480501
-0.10479459 -0.10760939 -0.039021462 0.12159087 0.012330219 -0.12276284 0.035702407 0.07817517
0.1420074 -0.038820744 0.008325115 0.040782332 0.01856196 -0.0009845942 -0.026767254 0.08472967
-0.010846496 0.075990856 -0.11238943 -0.058913678 0.12434517 0.09030926 -0.10689792 0.12073164
0.13267528 -0.11671227 0.056191444 -0.047202058 -0.08151046 0.11514969 0.11145042 0.1330388
0.13305561 0.11622204 0.045543417 -0.096488714 0.10980578 -0.122647956 -0.045556054 -0.1284457
-0.062464617 0.028355137 -0.13674954 0.14139615 -0.013180286 0.10636096 -0.070349954 0.109940305
-0.0629282 0.0347514 -0.03773102 0.050114423 0.07809906 0.047034457 -0.03643658 -0.09194255
-0.0387913 -0.14136538 0.13671027 0.09786403 -0.07307234 0.11229892 -0.026306719 -0.14230683
0.111520156 0.11746906 -0.022659153 0.03662467 -0.081793964 -0.031698003 0.04512018 0.02184166
00000000: a072 e5bb e067 48bd 918b 023e b683 d33d
00000010: 5cb5 403d f505 afbd 681f fc3c 6c9c 943d
00000020: 4bda 11be 217e ffbd e43c 5d3d 9a4b eebd
00000030: 1ce5 94bd 802c 783d ce03 bcbd 05ef 81bd
00000040: 8f09 12be 3c03 99bd 7095 dbbd c0df efbb
00000050: 300e 053d 63b3 80bd 8034 153c e22b bb3d
00000060: a035 443d b8fa 24bd bc7a 4dbd 9509 10be
00000070: 70f4 85bc 3c2f 463d 589d 19bd 629d ae3d
00000080: 607b 783d 23d1 8fbd dd0e 01be 3c99 26bd
00000090: 82e7 f43d 1866 0d3d 313d 043e 8445 433d
000000a0: 314f 043e d264 d03d 78c0 cebd 9190 0e3e
000000b0: 985c f9bd 1084 113c 1251 5fbd b0b1 2b3c
000000c0: 6ea2 8c3d 24fd bebc c0d5 d2bc 8220 e73d
000000d0: fefc a6bd 80fe 133b e09b 333c d043 6a3c
000000e0: 50a1 98bd c0eb e2bd 7035 b93d 37f8 99bd
000000f0: 08fa ae3c d03e 863d 00f1 063d a81d e7bd
00000100: 949a c2bc 7e75 e53d d3ed 093e 9c9e 8fbd
00000110: 4215 963d 20c3 5a3c b340 a9bd fc3e 543d
00000120: f8b3 343d 1846 40bd b408 05be c0a9 4ebb
00000130: c529 9bbd f57f fcbd 1e2d c23d 20ae a9bb
00000140: 0126 093e 61f2 043e a473 163d 7cfc 693d
00000150: 9efa fd3d b273 863d 93d2 c9bd 1045 253c
00000160: 16c8 9f3d 0089 61ba a03f 7d3d 70a1 553d
00000170: 4170 0b3e 8168 003e 8168 003e b33a 013e
00000180: 58ba 063d 606f c1bd 3842 c83c 8846 91bc
00000190: c57d 033e d056 b33d a092 5ebc 80e8 cd3d
000001a0: 3e3e 04be 4ea7 dabd f845 b93c 3b2c 033e
000001b0: 6031 fbbb 8a7e fa3d e0fc 81bb 6cd6 05be
000001c0: 8b83 0ebe 9789 9bbd 20c1 373c 617b 0c3e
000001d0: 38c5 c8bd f5a1 c4bd 807c 4fbb e037 12be
000001e0: 8e26 e1bd bdc9 01be 8036 3e3b fe3d dc3d
000001f0: 78fb 8c3d 006f a33a 7326 d3bd 8a35 cabd
00000200: d0b2 2e3c b098 353c fee8 ce3d 50c3 713c
00000210: 1e75 83bd 94e9 733d 7352 f4bd d8c6 773d
00000220: 5428 5c3d 142e 393d dec8 803d 5816 b73d
00000230: ea27 c6bd 1a3d f8bd baaf 99bd 014b ecbd
00000240: 3831 893d 3e91 c03d 402c a3bc 6b6f 0a3e
00000250: fcdb 2bbd f094 59bc fa6d 10be 0088 8b3a
00000260: 2733 073e fa50 e63d 00d8 b3b8 38be acbd
00000270: b858 103d 00fd 92bd 3ff1 073e f824 0cbe
00000280: 8072 3abd 8a6d 68bd c0d1 603b c02e bcbc
00000290: 362d ef3d 289f f1bd e04f dbbb f867 29bd
000002a0: 64f9 353d 4455 673d c0b9 78bb c452 0bbe
000002b0: d4a5 613d 90d7 d6bd 4cf1 d7bd 256c edbd
000002c0: 6025 41bc 6417 863d 2622 c63d 918a 103e
000002d0: f0dc 0fbe 703d 2a3d 2af6 8e3d a03f 6d3c
000002e0: 8c9e d6bd 5062 dcbd f8d4 1fbd a204 f93d
000002f0: b004 4a3c 156b fbbd b03c 123d 4e1a a03d
00000300: 636a 113e 8002 1fbd 1066 083c 600b 273d
00000310: 400f 983c 800d 81ba 0047 dbbc c086 ad3d
00000320: 80b5 31bc 18a1 9b3d 6e2c e6bd 784f 71bd
00000330: aea8 fe3d 10f4 b83d 4ced dabd 2642 f73d
00000340: 07dc 073e d806 efbd 0029 663d f256 41bd
00000350: f5ee a6bd 9ad3 eb3d 1e40 e43d 533b 083e
00000360: bb3f 083e d205 ee3d bc8b 3a3d e09b c5bd
00000370: dae1 e03d da2e fbbd fc98 3abd 4587 03be
00000380: e6da 7fbd 0849 e83c 1208 0cbe 27ca 103e
00000390: 20f2 57bc c6d3 d93d a313 90bd 6228 e13d
000003a0: 80e0 80bd 7c57 0e3d d88b 1abd c844 4d3d
000003b0: 66f2 9f3d 34a7 403d 863e 15bd 604c bcbd
000003c0: a0e3 1ebd 16c2 10be c7fd 0b3e f06c c83d
000003d0: f3a6 95bd fafc e53d 3081 d7bc e2b8 11be
000003e0: ae64 e43d 9e93 f03d b09f b9bc c003 163d
000003f0: 9883 a7bd c4d5 01bd f0cf 383d 48ed b23c

weight f4 [24]
1.0 1.0 1.0 1.0 1.0 1.0 1.0 1.0
1.0 1.0 1.0 1.0 1.0 1.0 1.0 1.0
1.0 1.0 1.0 1.0 1.0 1.0 1.0 1.0
00000000: 0000 803f 0000 803f 0000 803f 0000 803f
00000010: 0000 803f 0000 803f 0000 803f 0000 803f
00000020: 0000 803f 0000 803f 0000 803f 0000 803f
00000030: 0000 803f 0000 803f 0000 803f 0000 803f
00000040: 0000 803f 0000 803f 0000 803f 0000 803f
00000050: 0000 803f 0000 803f 0000 803f 0000 803f

bias f4 [24]
0.0 0.0 0.0 0.0 0.0 0.0 0.0 0.0
0.0 0.0 0.0 0.0 0.0 0.0 0.0 0.0
0.0 0.0 0.0 0.0 0.0 0.0 0.0 0.0
00000000: 0000 0000 0000 0000 0000 0000 0000 0000
00000010: 0000 0000 0000 0000 0000 0000 0000 0000
00000020: 0000 0000 0000 0000 0000 0000 0000 0000
00000030: 0000 0000 0000 0000 0000 0000 0000 0000
00000040: 0000 0000 0000 0000 0000 0000 0000 0000
00000050: 0000 0000 0000 0000 0000 0000 0000 0000

running_mean f4 [24]
0.0 0.0 0.0 0.0 0.0 0.0 0.0 0.0
0.0 0.0 0.0 0.0 0.0 0.0 0.0 0.0
0.0 0.0 0.0 0.0 0.0 0.0 0.0 0.0
00000000: 0000 0000 0000 0000 0000 0000 0000 0000
00000010: 0000 0000 0000 0000 0000 0000 0000 0000
00000020: 0000 0000 0000 0000 0000 0000 0000 0000
00000030: 0000 0000 0000 0000 0000 0000 0000 0000
00000040: 0000 0000 0000 0000 0000 0000 0000 0000
00000050: 0000 0000 0000 0000 0000 0000 0000 0000

running_var f4 [24]
1.0 1.0 1.0 1.0 1.0 1.0 1.0 1.0
1.0 1.0 1.0 1.0 1.0 1.0 1.0 1.0
1.0 1.0 1.0 1.0 1.0 1.0 1.0 1.0
00000000: 0000 803f 0000 803f 0000 803f 0000 803f
00000010: 0000 803f 0000 803f 0000 803f 0000 803f
00000020: 0000 803f 0000 803f 0000 803f 0000 803f
00000030: 0000 803f 0000 803f 0000 803f 0000 803f
00000040: 0000 803f 0000 803f 0000 803f 0000 803f
00000050: 0000 803f 0000 803f 0000 803f 0000 803f

weight f4 [24, 24, 1, 1]
-0.18637598 -0.18381384 0.20312962 0.13051087 0.11282644 -0.06333016 -0.1605535 -0.057945833
0.080388635 0.15565568 0.0061303824 0.19068098 0.046016037 -0.18911706 0.015972137 0.010689512
-0.05327566 0.03546746 -0.16950978 0.17359534 -0.11648298 -0.0065601915 0.064073116 0.07620937
-0.1900168 0.00040498376 0.1841569 -0.054906175 0.019460812 0.046761185 0.02504152 -0.10064297
0.08945894 0.11318794 -0.04604888 0.12101036 0.19323811 -0.16745085 0.047196716 0.019266218
0.16172108 -0.13243696 0.12062925 -0.16498779 -0.0957753 0.18687984 -0.16815642 -0.08967377
0.014524609 -0.13793766 -0.10427209 -0.052376613 -0.1326092 0.04116553 -0.05197555 0.178561
0.19195566 -0.049205765 0.16470441 -0.03225653 0.14025399 -0.096220896 -0.03159809 0.10368866
0.1663742 0.14594382 0.19733423 -0.028020456 -0.1913066 0.15219074 0.17851469 -0.012400493
0.15749964 -0.13177958 0.13665402 0.079434425 0.1607467 0.18225953 0.12494406 -0.1040374
-0.10643748 0.0044118613 -0.19604257 0.1599279 -0.12989348 0.19886324 -0.20265459 -0.008279905
0.18527076 0.03764808 -0.0864526 -0.060536012 0.1039502 -0.042313874 -0.0517765 -0.052757666
0.044862762 -0.17536345 0.14980993 0.16013324 0.048753977 0.17107153 -0.06968026 0.040369943
0.112714976 0.12419373 -0.119762994 0.19895333 0.2031951 -0.15764111 0.045941114 0.091058046
-0.09183933 0.05613914 0.017330706 -0.07681763 0.09234083 -0.018445805 0.14532086 -0.044664696
-0.102425374 -0.023353174 -0.16055335 0.0028316677 0.15642992 -0.18639623 -0.086052604 -0.047662556
-0.04612969 0.11157307 0.032680303 -0.106993645 -0.0068692267 -0.1796036 -0.17886728 0.14175454
-0.15184283 0.021063149 -0.14455953 0.16558483 0.0999473 0.16819113 -0.05736184 -0.06425768
0.18006489 -0.12604383 0.19299626 -0.123934336 0.19560868 -0.10709678 0.054764807 -0.037270203
0.16620123 0.03751059 -0.059121877 0.1669173 -0.11213558 -0.089653455 0.1756432 -0.040391386
-0.020370886 -0.06803371 0.16611367 -0.08291361 0.09009972 0.096437246 0.063272476 0.1299555
-0.0926383 0.04155606 -0.029272467 -0.16175151 -0.16013038 0.17844567 -0.12766695 -0.1743045
0.14157292 0.010142788 0.13139272 -0.18614179 -0.0068527013 -0.091292486 0.05449128 0.030220374
0.116310894 0.08908641 0.12311864 -0.13801008 -0.1372486 0.097163826 -0.071787804 -0.006453708
0.01613836 0.013692021 -0.20013265 -0.11546635 0.053487748 0.15794209 0.042962506 0.10054541
0.103416055 -0.13164878 0.17227799 -0.16423762 0.1287699 0.08379677 0.15982252 -0.12044294
-0.038227975 -0.06934725 0.009367108 -0.16607857 0.14265162 -0.16823567 -0.1236845 -0.0053845644
0.07458609 -0.07753864 -0.20153801 0.076676756 -0.18326613 0.19233495 -0.20218357 -0.017742425
0.12542164 0.12693393 -0.14503983 -0.14881937 -0.20025827 0.112214506 0.2025517 0.09516409
-0.14954393 -0.008672997 0.08581588 -0.009086609 0.09148744 -0.1462428 0.18602392 -0.11161361
0.1894227 0.12471551 -0.06505519 0.02771692 0.13648629 0.19856969 0.10968804 0.1488508
-0.038249254 0.15381387 0.19913813 -0.09898138 0.1936636 0.08770591 -0.163549 -0.009474859
00000000: 58d9 3ebe b239 3cbe 3601 503e a4a4 053e
00000010: 8c11 e73d 3eb3 81bd 2368 24be 9c58 6dbd
00000020: cca2 a43d 3464 1f3e 60e1 c83b e041 433e
00000030: 507b 3c3d e7a7 41be 00d8 823c 1023 2f3c
00000040: 9437 5abd 5446 113d f993 2dbe fac2 313e
00000050: a18e eebd e0f6 d6bb c438 833d a813 9c3d
00000060: c493 42be 0054 d439 a093 3c3e 4ce5 60bd
00000070: 486c 9f3c a888 3f3d e023 cd3c e71d cebd
00000080: 4036 b73d 14cf e73d c09d 3cbd 48d4 f73d
00000090: 36e0 453e 3c78 2bbe 5851 413d 30d4 9d3c
000000a0: 369a 253e 8e9d 07be 780c f73d 8ff2 28be
000000b0: d725 c4bd 6e5d 3f3e 3231 2cbe e2a6 b7bd
000000c0: a0f8 6d3c 883f 0dbe 9b8c d5bd dc88 56bd
000000d0: b5ca 07be 309d 283d 50e4 54bd b2d8 363e
000000e0: 0690 443e fc8b 49bd 46a8 283e 6c1f 04bd
000000f0: be9e 0f3e 760f c5bd 006d 01bd b85a d43d
00000100: 005e 2a3e 4c72 153e fc11 4a3e 288b e5bc
00000110: e1e5 43be e4d7 1b3e 8ecc 363e 702b 4bbc
00000120: 9647 213e 3af1 06be 08ef 0b3e 84ae a23d
00000130: c89a 243e 3ea2 3a3e ace2 ff3d 8f11 d5bd
00000140: e5fb d9bd 6091 903b 62bf 48be 24c4 233e
00000150: cc02 05be cea2 4b3e af84 4fbe 70a8 07bc
00000160: 9eb7 3d3e e034 1a3d 100e b1bd 9cf4 77bd
00000170: d8e3 d43d 5051 2dbd 9813 54bd 6c18 58bd
00000180: 04c2 373d 7a92 33be c667 193e f8f9 233e
00000190: 40b2 473d 602d 2f3e 86b4 8ebd f45a 253d
000001a0: 1cd7 e63d 4859 fe3d 4d46 f5bd 6cba 4b3e
000001b0: 6012 503e ac6c 21be c02c 3c3d a47c ba3d
000001c0: 4216 bcbd 28f2 653d 20f9 8d3c 9052 9dbd
000001d0: 301d bd3d a81b 97bc fece 143e 54f2 36bd
000001e0: 65c4 d1bd 284f bfbc 1968 24be 8093 393b
000001f0: 2a2f 203e a7de 3ebe 593c b0bd d039 43bd
00000200: 7cf2 3cbd 6c80 e43d c8db 053d 7c1f dbbd
00000210: 4017 e1bb 02ea 37be fc28 37be 1a28 113e
00000220: b07c 1bbe a08c ac3c 6a07 14be 128f 293e
00000230: 2cb1 cc3d 4c3a 2c3e 40f4 6abd 8899 83bd
00000240: ee62 383e a211 01be d0a0 453e 49d1 fdbd
00000250: a44d 483e 8e55 dbbd 1051 603d a4a8 18bd
00000260: a830 2a3e b4a4 193d c829 72bd 5eec 2a3e
00000270: 57a7 e5bd 3b9c b7bd d0db 333e 7071 25bd
00000280: d8e0 a6bc 4255 8bbd b419 2a3e 9cce a9bd
00000290: 3486 b83d e480 c53d 0095 813d 0e13 053e
000002a0: 26b9 bdbd b036 2a3d d0cc efbc 30a2 25be
000002b0: 38f9 23be 76ba 363e 20bb 02be e17c 32be
000002c0: 7ef8 103e f02d 263c d08b 063e f49b 3ebe
000002d0: a08c e0bb 8ef7 babd 4032 5f3d b890 f73c
000002e0: 6834 ee3d f072 b63d a025 fc3d 8452 0dbe
000002f0: e68a 0cbe d4fd c63d 7c05 93bd a079 d3bb
00000300: 9834 843c 8054 603c 93ef 4cbe 9f79 ecbd
00000310: f815 5b3d 92bb 213e 74f9 2f3d c0ea cd3d
00000320: cccb d33d f0ce 06be a469 303e e82d 28be
00000330: 42dc 033e a49d ab3d 84a8 233e caaa f6bd
00000340: f094 1cbd ee05 8ebd 8078 193c 8010 2abe
00000350: 4413 123e f945 2cbe 4d4e fdbd 0071 b0bb
00000360: 98c0 983d 94cc 9ebd fb5f 4ebe b408 9d3d
00000370: 1eaa 3bbe 74f3 443e 3609 4fbe 9058 91bc
00000380: 886e 003e f8fa 013e 5285 14be 1b64 18be
00000390: 8110 4dbe b8d0 e53d b669 4f3e 64e5 c23d
000003a0: 0b22 19be 3019 0ebc 3cc0 af3d 00e0 14bc
000003b0: c45d bb3d acc0 15be 0e7d 3e3e ad95 e4bd
000003c0: 06f8 413e d86a ff3d a83b 85bd 980e e33c
000003d0: 10c3 0b3e da55 4b3e 20a4 e03d 586c 183e
000003e0: 40ab 1cbd 6281 1d3e deea 4b3e c0b6 cabd
000003f0: c04f 463e 289f b33d 6479 27be 703c 1bbc

weight f4 [24]
1.0 1.0 1.0 1.0 1.0 1.0 1.0 1.0
1.0 1.0 1.0 1.0 1.0 1.0 1.0 1.0
1.0 1.0 1.0 1.0 1.0 1.0 1.0 1.0
00000000: 0000 803f 0000 803f 0000 803f 0000 803f
00000010: 0000 803f 0000 803f 0000 803f 0000 803f
00000020: 0000 803f 0000 803f 0000 803f 0000 803f
00000030: 0000 803f 0000 803f 0000 803f 0000 803f
00000040: 0000 803f 0000 803f 0000 803f 0000 803f
00000050: 0000 803f 0000 803f 0000 803f 0000 803f

bias f4 [24]
0.0 0.0 0.0 0.0 0.0 0.0 0.0 0.0
0.0 0.0 0.0 0.0 0.0 0.0 0.0 0.0
0.0 0.0 0.0 0.0 0.0 0.0 0.0 0.0
00000000: 0000 0000 0000 0000 0000 0000 0000 0000
00000010: 0000 0000 0000 0000 0000 0000 0000 0000
00000020: 0000 0000 0000 0000 0000 0000 0000 0000
00000030: 0000 0000 0000 0000 0000 0000 0000 0000
00000040: 0000 0000 0000 0000 0000 0000 0000 0000
00000050: 0000 0000 0000 0000 0000 0000 0000 0000

running_mean f4 [24]
0.0 0.0 0.0 0.0 0.0 0.0 0.0 0.0
0.0 0.0 0.0 0.0 0.0 0.0 0.0 0.0
0.0 0.0 0.0 0.0 0.0 0.0 0.0 0.0
00000000: 0000 0000 0000 0000 0000 0000 0000 0000
00000010: 0000 0000 0000 0000 0000 0000 0000 0000
00000020: 0000 0000 0000 0000 0000 0000 0000 0000
00000030: 0000 0000 0000 0000 0000 0000 0000 0000
00000040: 0000 0000 0000 0000 0000 0000 0000 0000
00000050: 0000 0000 0000 0000 0000 0000 0000 0000

running_var f4 [24]
1.0 1.0 1.0 1.0 1.0 1.0 1.0 1.0
1.0 1.0 1.0 1.0 1.0 1.0 1.0 1.0
1.0 1.0 1.0 1.0 1.0 1.0 1.0 1.0
00000000: 0000 803f 0000 803f 0000 803f 0000 803f
00000010: 0000 803f 0000 803f 0000 803f 0000 803f
00000020: 0000 803f 0000 803f 0000 803f 0000 803f
00000030: 0000 803f 0000 803f 0000 803f 0000 803f
00000040: 0000 803f 0000 803f 0000 803f 0000 803f
00000050: 0000 803f 0000 803f 0000 803f 0000 803f
