Mobilenet_V3_Search_space_blocks/blocks_quantization_vitis_ai_3.0/float/ResidualBlock-in_32x56x56-out_48-k_7-e_3-s_2-act_relu-use_se_True.pth (torch, 86584 bytes, 19 tensors)

weight f4 [96, 32, 1, 1]
-0.0019697696 0.09530358 0.17438082 -0.13412061 0.038688555 0.114535674 0.020631284 -0.057794705
0.16756885 -0.099684544 0.10621919 0.01845862 -0.062030844 0.06437719 -0.17656423 -0.08672323
0.00763762 0.15555795 0.13064788 -0.08377763 0.0775135 -0.032067448 0.12767576 -0.17058241
-0.005843401 0.07489209 0.15396865 -0.040509045 -0.11695328 0.16941251 0.02208811 0.14333649
0.029233769 -0.16509245 -0.1528691 -0.0025332123 -0.0009497851 0.114920095 0.012213886 -0.16280438
-0.10049431 0.09142707 -0.09298317 0.10418914 0.11521803 0.008608982 -0.094182126 0.0767086
0.09743212 -0.13160184 0.05874385 0.13457738 -0.044965297 0.089012906 0.10351999 -0.07981281
0.14895771 0.037887067 0.12882464 0.085019395 -0.07669605 0.15396439 0.08707021 0.16817431
-0.12828448 0.07016647 -0.08820084 0.025410295 0.041754737 0.06660256 0.15521781 -0.12348983
0.08963959 0.15597777 -0.026565999 0.13518386 0.12264423 -0.0822871 -0.0028943568 -0.091358036
0.025168598 0.0002811849 -0.11398931 0.1308281 0.14727153 -0.106360376 0.14897923 -0.12730058
-0.116147146 -0.13641372 -0.05154696 0.025794804 0.06943363 0.11786313 0.17286058 -0.15180477
-0.036779642 -0.0011047125 0.010883242 -0.054743066 -0.08666073 0.1102124 -0.14368619 0.16314052
0.052969217 -0.15744472 0.009241104 0.074891046 -0.13208188 0.05285965 -0.1540793 0.01802437
0.106694505 -0.0015232712 0.06328878 0.1244743 -0.17526141 0.0523811 -0.018595755 0.15460365
0.0082874 -0.025880635 0.09017949 -0.07743185 0.11058308 -0.13633218 0.032914534 0.04973899
0.018638015 0.11987881 0.12033577 0.06442167 0.06391832 0.0107816905 0.17326824 0.0077325106
-0.14300765 0.16089948 0.08936946 -0.10538674 0.040209755 -0.11229697 0.11509611 0.0442449
0.060528144 -0.13977686 0.025373623 0.0035684258 0.11703001 -0.0676463 0.13743599 0.09118588
0.030170962 -0.021671906 0.022173345 0.04817772 -0.083368406 -0.092718236 -0.023858607 0.069630265
-0.1645695 0.022545785 0.1755655 -0.009910226 -0.05790644 -0.14079633 0.06713031 0.03191115
-0.13879234 0.14202048 0.1757529 -0.07021545 -0.103683144 0.0004798621 0.11366443 -0.039210394
-0.023197547 -0.16693366 -0.092066355 -0.14174975 -0.078747466 0.12436111 0.016972914 -0.14295214
-0.11801435 -0.08264428 -0.14329785 -0.03172505 0.081147715 0.026253268 0.15885423 0.109005764
-0.14269869 0.087329134 0.14162605 0.08579369 0.030498087 0.06450008 0.005212888 0.15007697
0.02377516 -0.14929162 -0.056848995 0.11321436 0.046572417 0.020492792 0.076383546 -0.11392192
0.15418701 0.0182589 0.16268958 0.16799812 0.15129055 0.012791902 -0.1151206 -0.06605178
0.14644729 -0.13695964 -0.057852298 0.12750562 0.13939388 0.021226108 -0.12485089 0.030359402
-0.14441961 -0.056591265 -0.02136217 0.021601886 0.16614343 0.15182202 -0.10731437 0.060490742
0.11916782 -0.044013336 -0.010974899 -0.06397234 0.0054600835 0.17400308 0.040124476 0.041434884
0.13827436 -0.1662007 -0.021788746 0.10538329 0.01601091 0.13613348 -0.14258076 -0.10018137
-0.07871219 0.12844025 -0.064050965 -0.07981049 0.076988414 0.17604472 0.041643783 -0.14686705
00000000: 4017 01bb 862e c33d e390 323e ea56 09be
00000010: e477 1e3d ae91 ea3d f002 a93c 24ba 6cbd
00000020: 2b97 2b3e 6927 ccbd 7289 d93d 8836 973c
00000030: 0e14 7ebd 30d8 833d 41cd 34be f39b b1bd
00000040: 0045 fa3b 954a 1f3e 8fc8 053e 9b93 abbd
00000050: 66bf 9e3d 2859 03bd 6fbd 023e 28ad 2ebe
00000060: 007a bfbb 0661 993d f5a9 1d3e d0ec 25bd
00000070: 3485 efbd 797a 2d3e 20f2 b43c cdc6 123e
00000080: a87b ef3c ff0d 29be b889 1cbe 4004 26bb
00000090: 00fb 78ba 3a5b eb3d c01c 483c 31b6 26be
000000a0: f6cf cdbd 1e3e bb3d f66d bebd 1e61 d53d
000000b0: 6ef7 eb3d b00c 0d3c 8fe2 c0bd 6619 9d3d
000000c0: 7e8a c73d a2c2 06be 649d 703d a7ce 093e
000000d0: 882d 38bd 664c b63d 4a02 d43d e674 a3bd
000000e0: 5f88 183e 782f 1b3d 9bea 033e a61e ae3d
000000f0: d212 9dbd d7a8 1d3e de51 b23d e335 2c3e
00000100: 025d 03be 70b3 8f3d a4a2 b4bd 4029 d03c
00000110: 0407 2b3d ec66 883d 6bf1 1e3e 3ce8 fcbd
00000120: f694 b73d a3b8 1f3e f0a0 d9bc a36d 0a3e
00000130: e62c fb3d 2486 a8bd 40af 3dbb ec19 bbbd
00000140: 602e ce3c 006c 9339 3a73 e9bd cdf7 053e
00000150: 59ce 163e 78d3 d9bd 038e 183e 155b 02be
00000160: 8ede edbd 0ab0 0bbe e822 53bd a04f d33c
00000170: 3833 8e3d 3a62 f13d 5d02 313e b672 1bbe
00000180: 40a6 16bd 00cc 90ba a04f 323c 443a 60bd
00000190: 2e7b b1bd 0ab7 e13d 7922 13be 4f0e 273e
000001a0: 40f6 583d 3039 21be 0068 173c 7a60 993d
000001b0: 7940 07be 5c83 583d f7c6 1dbe d8a7 933c
000001c0: a682 da3d 80a8 c7ba 8c9d 813d 62ec fe3d
000001d0: ba77 33be 908d 563d 2056 98bc 6b50 1e3e
000001e0: e0c7 073c a003 d4bc 06b0 b83d 9794 9ebd
000001f0: 6279 e23d aa9a 0bbe 64d1 063d 1cbb 4b3d
00000200: c0ae 983c 0683 f53d 9a72 f63d 82ef 833d
00000210: 9ce7 823d b0a5 303c 3b6d 313e 0061 fd3b
00000220: 9970 12be d5c2 243e 5607 b73d 01d5 d7bd
00000230: fcb2 243d f4fb e5bd 82b7 eb3d 243a 353d
00000240: 5cec 773d aa21 0fbe 58dc cf3c 40dc 693b
00000250: 6ead ef3d 258a 8abd 05bc 0c3e aabf ba3d
00000260: 1829 f73c 4889 b1bc e0a4 b53c 0056 453d
00000270: 0ebd aabd 0fe3 bdbd 2073 c3bc 509a 8e3d
00000280: e884 28be f0b1 b83c 71c7 333e 805e 22bc
00000290: 4e2f 6dbd ea2c 10be 9e7b 893d 44b5 023d
000002a0: 941f 0ebe d16d 113e 91f8 333e 1ecd 8fbd
000002b0: d457 d4bd 0096 fb39 e6c8 e83d 149b 20bd
000002c0: c808 bebc a8f0 2abe 498d bcbd d926 11be
000002d0: 5a46 a1bd 0ab1 fe3d c80a 8b3c 0c62 12be
000002e0: 82b1 f1bd 6741 a9bd acbc 12be 20f2 01bd
000002f0: c630 a63d 1811 d73c afaa 223e 6a3e df3d
00000300: 9b1f 12be 9ed9 b23d 6b06 113e 9ab4 af3d
00000310: 20d7 f93c 9e18 843d e0d0 aa3b c7ad 193e
00000320: 20c4 c23c e7df 18be 7eda 68bd eedc e73d
00000330: b8c2 3e3d 80e0 a73c fa6e 9c3d e54f e9bd
00000340: 33e3 1d3e b093 953c 1998 263e b307 2c3e
00000350: e9eb 1a3e 2095 513c 59c4 ebbd 2846 87bd
00000360: 47f6 153e 263f 0cbe 88f6 6cbd d590 023e
00000370: 45bd 0e3e 60e2 ad3c d3b1 ffbd 48b4 f83c
00000380: bce2 13be 3ecc 67bd b8ff aebc 70f6 b03c
00000390: 8121 2a3e 3b77 1b3e a3c7 dbbd 24c5 773d
000003a0: 420e f43d 5447 34bd 10d0 33bc ee03 83bd
000003b0: 80ea b23b dd2d 323e 9059 243d a0b7 293d
000003c0: cb97 0d3e 8430 2abe 507e b2bc 32d3 d73d
000003d0: 5029 833c 9366 0b3e b100 12be e42b cdbd
000003e0: db33 a1bd d785 033e 272d 83bd af73 a3bd
000003f0: 1aac 9d3d 1145 343e ac92 2a3d 5164 16be

weight f4 [96]
1.0 1.0 1.0 1.0 1.0 1.0 1.0 1.0
1.0 1.0 1.0 1.0 1.0 1.0 1.0 1.0
1.0 1.0 1.0 1.0 1.0 1.0 1.0 1.0
1.0 1.0 1.0 1.0 1.0 1.0 1.0 1.0
1.0 1.0 1.0 1.0 1.0 1.0 1.0 1.0
1.0 1.0 1.0 1.0 1.0 1.0 1.0 1.0
1.0 1.0 1.0 1.0 1.0 1.0 1.0 1.0
1.0 1.0 1.0 1.0 1.0 1.0 1.0 1.0
1.0 1.0 1.0 1.0 1.0 1.0 1.0 1.0
1.0 1.0 1.0 1.0 1.0 1.0 1.0 1.0
1.0 1.0 1.0 1.0 1.0 1.0 1.0 1.0
1.0 1.0 1.0 1.0 1.0 1.0 1.0 1.0
00000000: 0000 803f 0000 803f 0000 803f 0000 803f
00000010: 0000 803f 0000 803f 0000 803f 0000 803f
00000020: 0000 803f 0000 803f 0000 803f 0000 803f
00000030: 0000 803f 0000 803f 0000 803f 0000 803f
00000040: 0000 803f 0000 803f 0000 803f 0000 803f
00000050: 0000 803f 0000 803f 0000 803f 0000 803f
00000060: 0000 803f 0000 803f 0000 803f 0000 803f
00000070: 0000 803f 0000 803f 0000 803f 0000 803f
00000080: 0000 803f 0000 803f 0000 803f 0000 803f
00000090: 0000 803f 0000 803f 0000 803f 0000 803f
000000a0: 0000 803f 0000 803f 0000 803f 0000 803f
000000b0: 0000 803f 0000 803f 0000 803f 0000 803f
000000c0: 0000 803f 0000 803f 0000 803f 0000 803f
000000d0: 0000 803f 0000 803f 0000 803f 0000 803f
000000e0: 0000 803f 0000 803f 0000 803f 0000 803f
000000f0: 0000 803f 0000 803f 0000 803f 0000 803f
00000100: 0000 803f 0000 803f 0000 803f 0000 803f
00000110: 0000 803f 0000 803f 0000 803f 0000 803f
00000120: 0000 803f 0000 803f 0000 803f 0000 803f
00000130: 0000 803f 0000 803f 0000 803f 0000 803f
00000140: 0000 803f 0000 803f 0000 803f 0000 803f
00000150: 0000 803f 0000 803f 0000 803f 0000 803f
00000160: 0000 803f 0000 803f 0000 803f 0000 803f
00000170: 0000 803f 0000 803f 0000 803f 0000 803f

bias f4 [96]
0.0 0.0 0.0 0.0 0.0 0.0 0.0 0.0
0.0 0.0 0.0 0.0 0.0 0.0 0.0 0.0
0.0 0.0 0.0 0.0 0.0 0.0 0.0 0.0
0.0 0.0 0.0 0.0 0.0 0.0 0.0 0.0
0.0 0.0 0.0 0.0 0.0 0.0 0.0 0.0
0.0 0.0 0.0 0.0 0.0 0.0 0.0 0.0
0.0 0.0 0.0 0.0 0.0 0.0 0.0 0.0
0.0 0.0 0.0 0.0 0.0 0.0 0.0 0.0
0.0 0.0 0.0 0.0 0.0 0.0 0.0 0.0
0.0 0.0 0.0 0.0 0.0 0.0 0.0 0.0
0.0 0.0 0.0 0.0 0.0 0.0 0.0 0.0
0.0 0.0 0.0 0.0 0.0 0.0 0.0 0.0
00000000: 0000 0000 0000 0000 0000 0000 0000 0000
00000010: 0000 0000 0000 0000 0000 0000 0000 0000
00000020: 0000 0000 0000 0000 0000 0000 0000 0000
00000030: 0000 0000 0000 0000 0000 0000 0000 0000
00000040: 0000 0000 0000 0000 0000 0000 0000 0000
00000050: 0000 0000 0000 0000 0000 0000 0000 0000
00000060: 0000 0000 0000 0000 0000 0000 0000 0000
00000070: 0000 0000 0000 0000 0000 0000 0000 0000
00000080: 0000 0000 0000 0000 0000 0000 0000 0000
00000090: 0000 0000 0000 0000 0000 0000 0000 0000
000000a0: 0000 0000 0000 0000 0000 0000 0000 0000
000000b0: 0000 0000 0000 0000 0000 0000 0000 0000
000000c0: 0000 0000 0000 0000 0000 0000 0000 0000
000000d0: 0000 0000 0000 0000 0000 0000 0000 0000
000000e0: 0000 0000 0000 0000 0000 0000 0000 0000
000000f0: 0000 0000 0000 0000 0000 0000 0000 0000
00000100: 0000 0000 0000 0000 0000 0000 0000 0000
00000110: 0000 0000 0000 0000 0000 0000 0000 0000
00000120: 0000 0000 0000 0000 0000 0000 0000 0000
00000130: 0000 0000 0000 0000 0000 0000 0000 0000
00000140: 0000 0000 0000 0000 0000 0000 0000 0000
00000150: 0000 0000 0000 0000 0000 0000 0000 0000
00000160: 0000 0000 0000 0000 0000 0000 0000 0000
00000170: 0000 0000 0000 0000 0000 0000 0000 0000

running_mean f4 [96]
0.0 0.0 0.0 0.0 0.0 0.0 0.0 0.0
0.0 0.0 0.0 0.0 0.0 0.0 0.0 0.0
0.0 0.0 0.0 0.0 0.0 0.0 0.0 0.0
0.0 0.0 0.0 0.0 0.0 0.0 0.0 0.0
0.0 0.0 0.0 0.0 0.0 0.0 0.0 0.0
0.0 0.0 0.0 0.0 0.0 0.0 0.0 0.0
0.0 0.0 0.0 0.0 0.0 0.0 0.0 0.0
0.0 0.0 0.0 0.0 0.0 0.0 0.0 0.0
0.0 0.0 0.0 0.0 0.0 0.0 0.0 0.0
0.0 0.0 0.0 0.0 0.0 0.0 0.0 0.0
0.0 0.0 0.0 0.0 0.0 0.0 0.0 0.0
0.0 0.0 0.0 0.0 0.0 0.0 0.0 0.0
00000000: 0000 0000 0000 0000 0000 0000 0000 0000
00000010: 0000 0000 0000 0000 0000 0000 0000 0000
00000020: 0000 0000 0000 0000 0000 0000 0000 0000
00000030: 0000 0000 0000 0000 0000 0000 0000 0000
00000040: 0000 0000 0000 0000 0000 0000 0000 0000
00000050: 0000 0000 0000 0000 0000 0000 0000 0000
00000060: 0000 0000 0000 0000 0000 0000 0000 0000
00000070: 0000 0000 0000 0000 0000 0000 0000 0000
00000080: 0000 0000 0000 0000 0000 0000 0000 0000
00000090: 0000 0000 0000 0000 0000 0000 0000 0000
000000a0: 0000 0000 0000 0000 0000 0000 0000 0000
000000b0: 0000 0000 0000 0000 0000 0000 0000 0000
000000c0: 0000 0000 0000 0000 0000 0000 0000 0000
000000d0: 0000 0000 0000 0000 0000 0000 0000 0000
000000e0: 0000 0000 0000 0000 0000 0000 0000 0000
000000f0: 0000 0000 0000 0000 0000 0000 0000 0000
00000100: 0000 0000 0000 0000 0000 0000 0000 0000
00000110: 0000 0000 0000 0000 0000 0000 0000 0000
00000120: 0000 0000 0000 0000 0000 0000 0000 0000
00000130: 0000 0000 0000 0000 0000 0000 0000 0000
00000140: 0000 0000 0000 0000 0000 0000 0000 0000
00000150: 0000 0000 0000 0000 0000 0000 0000 0000
00000160: 0000 0000 0000 0000 0000 0000 0000 0000
00000170: 0000 0000 0000 0000 0000 0000 0000 0000

running_var f4 [96]
1.0 1.0 1.0 1.0 1.0 1.0 1.0 1.0
1.0 1.0 1.0 1.0 1.0 1.0 1.0 1.0
1.0 1.0 1.0 1.0 1.0 1.0 1.0 1.0
1.0 1.0 1.0 1.0 1.0 1.0 1.0 1.0
1.0 1.0 1.0 1.0 1.0 1.0 1.0 1.0
1.0 1.0 1.0 1.0 1.0 1.0 1.0 1.0
1.0 1.0 1.0 1.0 1.0 1.0 1.0 1.0
1.0 1.0 1.0 1.0 1.0 1.0 1.0 1.0
1.0 1.0 1.0 1.0 1.0 1.0 1.0 1.0
1.0 1.0 1.0 1.0 1.0 1.0 1.0 1.0
1.0 1.0 1.0 1.0 1.0 1.0 1.0 1.0
1.0 1.0 1.0 1.0 1.0 1.0 1.0 1.0
00000000: 0000 803f 0000 803f 0000 803f 0000 803f
00000010: 0000 803f 0000 803f 0000 803f 0000 803f
00000020: 0000 803f 0000 803f 0000 803f 0000 803f
00000030: 0000 803f 0000 803f 0000 803f 0000 803f
00000040: 0000 803f 0000 803f 0000 803f 0000 803f
00000050: 0000 803f 0000 803f 0000 803f 0000 803f
00000060: 0000 803f 0000 803f 0000 803f 0000 803f
00000070: 0000 803f 0000 803f 0000 803f 0000 803f
00000080: 0000 803f 0000 803f 0000 803f 0000 803f
00000090: 0000 803f 0000 803f 0000 803f 0000 803f
000000a0: 0000 803f 0000 803f 0000 803f 0000 803f
000000b0: 0000 803f 0000 803f 0000 803f 0000 803f
000000c0: 0000 803f 0000 803f 0000 803f 0000 803f
000000d0: 0000 803f 0000 803f 0000 803f 0000 803f
000000e0: 0000 803f 0000 803f 0000 803f 0000 803f
000000f0: 0000 803f 0000 803f 0000 803f 0000 803f
00000100: 0000 803f 0000 803f 0000 803f 0000 803f
00000110: 0000 803f 0000 803f 0000 803f 0000 803f
00000120: 0000 803f 0000 803f 0000 803f 0000 803f
00000130: 0000 803f 0000 803f 0000 803f 0000 803f
00000140: 0000 803f 0000 803f 0000 803f 0000 803f
00000150: 0000 803f 0000 803f 0000 803f 0000 803f
00000160: 0000 803f 0000 803f 0000 803f 0000 803f
00000170: 0000 803f 0000 803f 0000 803f 0000 803f

weight f4 [96, 1, 7, 7]
0.13207261 -0.040228643 -0.11714858 0.08802666 0.1364613 -0.017124966 0.0026303679 0.08464342
-0.006742209 0.07011755 -0.0023694932 0.04585062 0.097837925 0.09624581 0.12333913 -0.021500863
-0.06073252 -0.035993524 -0.0530582 0.04126835 0.07611324 0.07869488 -0.1284709 0.014873952
0.06287718 -0.047222994 0.07049903 0.13846235 -0.05630543 -0.12668066 0.008679062 -0.1138739
-0.009925827 -0.11255272 -0.0686088 -0.042734265 0.028306931 -0.015785351 -0.1137826 0.02094911
-0.024801716 -0.03813815 -0.11286409 -0.10153544 -0.02186583 -0.13720816 0.09522936 -0.0682314
0.022634253 -0.014654592 -0.025945224 -0.12071852 0.018168598 -0.08476479 0.027460396 -0.032003947
-0.08549437 0.12636547 0.009298116 0.053858176 0.09982209 -0.004420787 -0.004147798 -0.029382437
-0.06936358 0.12689628 0.07078183 -0.12942319 0.13806866 -0.0484752 0.026111752 -0.051867932
-0.002967149 0.065404415 -0.0049805343 0.057176232 -0.070937395 -0.14158136 0.11744435 -0.13850811
0.1207272 0.044863775 0.12398873 -0.06849204 -0.12768432 0.0064554065 -0.0090700835 -0.11386242
-0.14136645 0.13090579 -0.08847252 -0.10658905 0.07664423 -0.015783519 0.03982018 0.00970915
0.02736625 -0.03439682 0.08367257 -0.04866922 0.013530955 -0.079147 0.015446946 -0.06280508
0.021654233 0.0037275404 -0.031454258 -0.096460775 -0.027695403 0.022318572 -0.120884664 -0.014425829
-0.1397408 0.12181367 -0.016147092 0.010855749 0.0028930455 0.06352469 0.12021662 -0.07324202
0.054812297 0.12789251 -0.07431553 -0.010243505 -0.10799652 0.12232663 0.11930744 -0.009906322
-0.10239929 0.009504318 0.08385657 -0.034385137 -0.010295078 0.02983588 -0.0061670393 0.046296373
-0.100689724 0.1132101 -0.022256069 0.12886725 -0.019576944 -0.11050061 0.12861304 -0.13619834
0.027007535 -0.013544351 0.10223633 0.11241506 -0.10571022 -0.050685048 0.112405494 0.13177155
0.08205001 0.066609755 0.034264117 -0.09087868 0.057529464 0.042286456 -0.0060261637 0.0754413
-0.047666773 0.13121997 -0.14171217 -0.10401598 -0.012001395 -0.10311544 0.05398698 -0.101435885
0.10696392 -0.008260593 -0.12126804 0.054434672 0.101728916 0.08606887 -0.010058358 0.024157166
0.123758 0.08916265 0.045566186 -0.021779843 0.0050005764 0.091141656 0.13513853 0.055206567
-0.049071945 0.108508155 0.030099332 0.018346876 -0.08400291 0.044429004 0.02813071 -0.0948334
0.037700444 -0.13598163 0.046090066 0.10874863 -0.05538004 0.12501217 0.057854474 0.052064985
0.0053159893 -0.114705294 -0.04409852 -0.11990049 0.022740155 -0.0020369142 0.10514544 0.027086735
-0.07978535 0.10002634 0.018339247 -0.07333849 -0.114166774 -0.010293484 -0.12969351 0.11989997
0.087965965 0.103001595 0.13108028 -0.1135976 0.0111742765 0.06785503 0.024580121 -0.034777574
0.061484918 -0.06642659 0.0028797537 0.12632804 0.06539288 0.12073828 -0.1121855 -0.09191563
-0.01282528 0.039594784 0.012505889 -0.13023487 -0.051893182 0.009478718 0.09465799 -0.08919069
-0.010207176 -0.022268787 0.10141224 -0.060674503 0.14206152 -0.06785195 -0.08145992 0.09442538
0.09310493 -0.080241546 0.059348166 0.11630438 0.053458944 0.042574987 -0.032857813 -0.0925892
00000000: 0b3e 073e cac6 24bd 98eb efbd 5247 b43d
00000010: 83bc 0b3e a849 8cbc 4062 2c3b 8859 ad3d
00000020: c0ed dcbb ca99 8f3d 8049 1bbb dccd 3b3d
00000030: 405f c83d 861c c53d 3a99 fc3d 9422 b0bc
00000040: aac2 78bd f26d 13bd 8e53 59bd 0009 293d
00000050: 42e1 9b3d c82a a13d e08d 03be e0b1 733c
00000060: c0c5 803d e66c 41bd cc61 903d 13c9 0d3e
00000070: 86a0 66bd 93b8 01be a032 0e3c b836 e9bd
00000080: f09f 22bc 0a82 e6bd c582 8cbd 200a 2fbd
00000090: f0e3 e73c 4850 81bc da06 e9bd 789d ab3c
000000a0: f82c cbbc c036 1cbd 4a25 e7bd d0f1 cfbd
000000b0: f81f b3bc 4c80 0cbe 9c07 c33d e7bc 8bbd
000000c0: 786b b93c d019 70bc 148b d4bc 453b f7bd
000000d0: 50d6 943c 2a99 adbd a0f4 e03c 9216 03bd
000000e0: ac17 afbd f365 013e 2057 183c 649a 5c3d
000000f0: 866f cc3d 40dc 90bb 40ea 87bb 70b3 f0bc
00000100: 7e0e 8ebd 19f1 013e 10f6 903d 8387 04be
00000110: df61 0d3e ee8d 46bd 50e8 d53c 7873 54bd
00000120: 8074 42bb c0f2 853d c033 a3bb a031 6a3d
00000130: a047 91bd b4fa 10be aa86 f03d 12d5 0dbe
00000140: d23f f73d 14c3 373d ceed fd3d 8e45 8cbd
00000150: aebf 02be e087 d33b b09a 14bc b330 e9bd
00000160: 5ec2 10be 2b0c 063e 1531 b5bd 5c4b dabd
00000170: a6f7 9c3d 704c 81bc 7c1a 233d 2013 1f3c
00000180: 302f e03c aee3 0cbd 865c ab3d 6059 47bd
00000190: f0b0 5d3c d317 a2bd 3015 7d3c f39f 80bd
000001a0: 3864 b13c c049 743b 2ed6 00bd 3a8d c5bd
000001b0: 78e1 e2bc 70d5 b63c 6192 f7bd 505a 6cbc
000001c0: 3618 0fbe 7279 f93d e846 84bc 50dc 313c
000001d0: 4099 3d3b 3c19 823d 2234 f63d eaff 95bd
000001e0: dc82 603d 41f6 023e be32 98bd 60d4 27bc
000001f0: 482d ddbd 6286 fa3d 7657 f43d 204e 22bc
00000200: b8b6 d1bd 00b8 1b3c febc ab3d 6ed7 0cbd
00000210: b0ac 28bc 606a f43c e014 cabb 44a1 3d3d
00000220: 6a36 cebd b2da e73d 5c52 b6bc c7f5 033e
00000230: d45f a0bc 254e e2bd 23b3 033e 9477 0bbe
00000240: e83e dd3c 20e9 5dbc 4861 d13d de39 e63d
00000250: 9a7e d8bd 209b 4fbd da34 e63d 1fef 063e
00000260: d609 a83d b26a 883d 8858 0c3d 9a1e babd
00000270: 04a4 6b3d 9034 2d3d 2077 c5bb f880 9a3d
00000280: 3c3e 43bd 875e 063e ff1c 11be 5506 d5bd
00000290: 80a1 44bc 302e d3bd 7421 5d3d 9ebd cfbd
000002a0: e60f db3d 7057 07bc 615b f8bd e4f6 5e3d
000002b0: 4057 d03d e044 b03d d0cb 24bc 40e5 c53c
000002c0: d674 fd3d e89a b63d 9ca3 3a3d a46b b2bc
000002d0: e0db a33b 7aa8 ba3d c161 0a3e 4820 623d
000002e0: aaff 48bd 8639 de3d e092 f63c 304c 963c
000002f0: b809 acbd 30fb 353d 6072 e63c 0338 c2bd
00000300: c86b 1a3d c53e 0bbe f0c8 3c3d 9ab7 de3d
00000310: 2ed6 62bd 3103 003e d0f8 6c3d 1842 553d
00000320: c031 ae3b 9cea eabd a6a0 34bd 638e f5bd
00000330: 9049 ba3c c07d 05bb 7e56 d73d 00e5 dd3c
00000340: 8066 a3bd 9cda cc3d 303c 963c 7e32 96bd
00000350: 45d0 e9bd 00a6 28bc 60ce 04be 1e8e f53d
00000360: 8027 b43d 80f2 d23d e939 063e dca5 e8bd
00000370: 5014 373c 94f7 8a3d 405c c93c ee72 0ebd
00000380: 9cd7 7b3d aa0a 88bd 40ba 3c3b 235c 013e
00000390: b4ec 853d a245 f73d 83c1 e5bd 433e bcbd
000003a0: 2021 52bc 242e 223d 80e5 4c3c 4a5c 05be
000003b0: f28d 54bd a04c 1b3c 0cdc c13d 9ca9 b6bd
000003c0: 003c 27bc 086d b6bc 38b1 cf3d d485 78bd
000003d0: 9378 113e f7f5 8abd 75d4 a6bd 1862 c13d
000003e0: ccad be3d ae55 a4bd 1017 733d fe30 ee3d
000003f0: c4f7 5a3d 1c63 2e3d ea95 06bd 689f bdbd

weight f4 [96]
1.0 1.0 1.0 1.0 1.0 1.0 1.0 1.0
1.0 1.0 1.0 1.0 1.0 1.0 1.0 1.0
1.0 1.0 1.0 1.0 1.0 1.0 1.0 1.0
1.0 1.0 1.0 1.0 1.0 1.0 1.0 1.0
1.0 1.0 1.0 1.0 1.0 1.0 1.0 1.0
1.0 1.0 1.0 1.0 1.0 1.0 1.0 1.0
1.0 1.0 1.0 1.0 1.0 1.0 1.0 1.0
1.0 1.0 1.0 1.0 1.0 1.0 1.0 1.0
1.0 1.0 1.0 1.0 1.0 1.0 1.0 1.0
1.0 1.0 1.0 1.0 1.0 1.0 1.0 1.0
1.0 1.0 1.0 1.0 1.0 1.0 1.0 1.0
1.0 1.0 1.0 1.0 1.0 1.0 1.0 1.0
00000000: 0000 803f 0000 803f 0000 803f 0000 803f
00000010: 0000 803f 0000 803f 0000 803f 0000 803f
00000020: 0000 803f 0000 803f 0000 803f 0000 803f
00000030: 0000 803f 0000 803f 0000 803f 0000 803f
00000040: 0000 803f 0000 803f 0000 803f 0000 803f
00000050: 0000 803f 0000 803f 0000 803f 0000 803f
00000060: 0000 803f 0000 803f 0000 803f 0000 803f
00000070: 0000 803f 0000 803f 0000 803f 0000 803f
00000080: 0000 803f 0000 803f 0000 803f 0000 803f
00000090: 0000 803f 0000 803f 0000 803f 0000 803f
000000a0: 0000 803f 0000 803f 0000 803f 0000 803f
000000b0: 0000 803f 0000 803f 0000 803f 0000 803f
000000c0: 0000 803f 0000 803f 0000 803f 0000 803f
000000d0: 0000 803f 0000 803f 0000 803f 0000 803f
000000e0: 0000 803f 0000 803f 0000 803f 0000 803f
000000f0: 0000 803f 0000 803f 0000 803f 0000 803f
00000100: 0000 803f 0000 803f 0000 803f 0000 803f
00000110: 0000 803f 0000 803f 0000 803f 0000 803f
00000120: 0000 803f 0000 803f 0000 803f 0000 803f
00000130: 0000 803f 0000 803f 0000 803f 0000 803f
00000140: 0000 803f 0000 803f 0000 803f 0000 803f
00000150: 0000 803f 0000 803f 0000 803f 0000 803f
00000160: 0000 803f 0000 803f 0000 803f 0000 803f
00000170: 0000 803f 0000 803f 0000 803f 0000 803f

bias f4 [96]
0.0 0.0 0.0 0.0 0.0 0.0 0.0 0.0
0.0 0.0 0.0 0.0 0.0 0.0 0.0 0.0
0.0 0.0 0.0 0.0 0.0 0.0 0.0 0.0
0.0 0.0 0.0 0.0 0.0 0.0 0.0 0.0
0.0 0.0 0.0 0.0 0.0 0.0 0.0 0.0
0.0 0.0 0.0 0.0 0.0 0.0 0.0 0.0
0.0 0.0 0.0 0.0 0.0 0.0 0.0 0.0
0.0 0.0 0.0 0.0 0.0 0.0 0.0 0.0
0.0 0.0 0.0 0.0 0.0 0.0 0.0 0.0
0.0 0.0 0.0 0.0 0.0 0.0 0.0 0.0
0.0 0.0 0.0 0.0 0.0 0.0 0.0 0.0
0.0 0.0 0.0 0.0 0.0 0.0 0.0 0.0
00000000: 0000 0000 0000 0000 0000 0000 0000 0000
00000010: 0000 0000 0000 0000 0000 0000 0000 0000
00000020: 0000 0000 0000 0000 0000 0000 0000 0000
00000030: 0000 0000 0000 0000 0000 0000 0000 0000
00000040: 0000 0000 0000 0000 0000 0000 0000 0000
00000050: 0000 0000 0000 0000 0000 0000 0000 0000
00000060: 0000 0000 0000 0000 0000 0000 0000 0000
00000070: 0000 0000 0000 0000 0000 0000 0000 0000
00000080: 0000 0000 0000 0000 0000 0000 0000 0000
00000090: 0000 0000 0000 0000 0000 0000 0000 0000
000000a0: 0000 0000 0000 0000 0000 0000 0000 0000
000000b0: 0000 0000 0000 0000 0000 0000 0000 0000
000000c0: 0000 0000 0000 0000 0000 0000 0000 0000
000000d0: 0000 0000 0000 0000 0000 0000 0000 0000
000000e0: 0000 0000 0000 0000 0000 0000 0000 0000
000000f0: 0000 0000 0000 0000 0000 0000 0000 0000
00000100: 0000 0000 0000 0000 0000 0000 0000 0000
00000110: 0000 0000 0000 0000 0000 0000 0000 0000
00000120: 0000 0000 0000 0000 0000 0000 0000 0000
00000130: 0000 0000 0000 0000 0000 0000 0000 0000
00000140: 0000 0000 0000 0000 0000 0000 0000 0000
00000150: 0000 0000 0000 0000 0000 0000 0000 0000
00000160: 0000 0000 0000 0000 0000 0000 0000 0000
00000170: 0000 0000 0000 0000 0000 0000 0000 0000

running_mean f4 [96]
0.0 0.0 0.0 0.0 0.0 0.0 0.0 0.0
0.0 0.0 0.0 0.0 0.0 0.0 0.0 0.0
0.0 0.0 0.0 0.0 0.0 0.0 0.0 0.0
0.0 0.0 0.0 0.0 0.0 0.0 0.0 0.0
0.0 0.0 0.0 0.0 0.0 0.0 0.0 0.0
0.0 0.0 0.0 0.0 0.0 0.0 0.0 0.0
0.0 0.0 0.0 0.0 0.0 0.0 0.0 0.0
0.0 0.0 0.0 0.0 0.0 0.0 0.0 0.0
0.0 0.0 0.0 0.0 0.0 0.0 0.0 0.0
0.0 0.0 0.0 0.0 0.0 0.0 0.0 0.0
0.0 0.0 0.0 0.0 0.0 0.0 0.0 0.0
0.0 0.0 0.0 0.0 0.0 0.0 0.0 0.0
00000000: 0000 0000 0000 0000 0000 0000 0000 0000
00000010: 0000 0000 0000 0000 0000 0000 0000 0000
00000020: 0000 0000 0000 0000 0000 0000 0000 0000
00000030: 0000 0000 0000 0000 0000 0000 0000 0000
00000040: 0000 0000 0000 0000 0000 0000 0000 0000
00000050: 0000 0000 0000 0000 0000 0000 0000 0000
00000060: 0000 0000 0000 0000 0000 0000 0000 0000
00000070: 0000 0000 0000 0000 0000 0000 0000 0000
00000080: 0000 0000 0000 0000 0000 0000 0000 0000
00000090: 0000 0000 0000 0000 0000 0000 0000 0000
000000a0: 0000 0000 0000 0000 0000 0000 0000 0000
000000b0: 0000 0000 0000 0000 0000 0000 0000 0000
000000c0: 0000 0000 0000 0000 0000 0000 0000 0000
000000d0: 0000 0000 0000 0000 0000 0000 0000 0000
000000e0: 0000 0000 0000 0000 0000 0000 0000 0000
000000f0: 0000 0000 0000 0000 0000 0000 0000 0000
00000100: 0000 0000 0000 0000 0000 0000 0000 0000
00000110: 0000 0000 0000 0000 0000 0000 0000 0000
00000120: 0000 0000 0000 0000 0000 0000 0000 0000
00000130: 0000 0000 0000 0000 0000 0000 0000 0000
00000140: 0000 0000 0000 0000 0000 0000 0000 0000
00000150: 0000 0000 0000 0000 0000 0000 0000 0000
00000160: 0000 0000 0000 0000 0000 0000 0000 0000
00000170: 0000 0000 0000 0000 0000 0000 0000 0000

running_var f4 [96]
1.0 1.0 1.0 1.0 1.0 1.0 1.0 1.0
1.0 1.0 1.0 1.0 1.0 1.0 1.0 1.0
1.0 1.0 1.0 1.0 1.0 1.0 1.0 1.0
1.0 1.0 1.0 1.0 1.0 1.0 1.0 1.0
1.0 1.0 1.0 1.0 1.0 1.0 1.0 1.0
1.0 1.0 1.0 1.0 1.0 1.0 1.0 1.0
1.0 1.0 1.0 1.0 1.0 1.0 1.0 1.0
1.0 1.0 1.0 1.0 1.0 1.0 1.0 1.0
1.0 1.0 1.0 1.0 1.0 1.0 1.0 1.0
1.0 1.0 1.0 1.0 1.0 1.0 1.0 1.0
1.0 1.0 1.0 1.0 1.0 1.0 1.0 1.0
1.0 1.0 1.0 1.0 1.0 1.0 1.0 1.0
00000000: 0000 803f 0000 803f 0000 803f 0000 803f
00000010: 0000 803f 0000 803f 0000 803f 0000 803f
00000020: 0000 803f 0000 803f 0000 803f 0000 803f
00000030: 0000 803f 0000 803f 0000 803f 0000 803f
00000040: 0000 803f 0000 803f 0000 803f 0000 803f
00000050: 0000 803f 0000 803f 0000 803f 0000 803f
00000060: 0000 803f 0000 803f 0000 803f 0000 803f
00000070: 0000 803f 0000 803f 0000 803f 0000 803f
00000080: 0000 803f 0000 803f 0000 803f 0000 803f
00000090: 0000 803f 0000 803f 0000 803f 0000 803f
000000a0: 0000 803f 0000 803f 0000 803f 0000 803f
000000b0: 0000 803f 0000 803f 0000 803f 0000 803f
000000c0: 0000 803f 0000 803f 0000 803f 0000 803f
000000d0: 0000 803f 0000 803f 0000 803f 0000 803f
000000e0: 0000 803f 0000 803f 0000 803f 0000 803f
000000f0: 0000 803f 0000 803f 0000 803f 0000 803f
00000100: 0000 803f 0000 803f 0000 803f 0000 803f
00000110: 0000 803f 0000 803f 0000 803f 0000 803f
00000120: 0000 803f 0000 803f 0000 803f 0000 803f
00000130: 0000 803f 0000 803f 0000 803f 0000 803f
00000140: 0000 803f 0000 803f 0000 803f 0000 803f
00000150: 0000 803f 0000 803f 0000 803f 0000 803f
00000160: 0000 803f 0000 803f 0000 803f 0000 803f
00000170: 0000 803f 0000 803f 0000 803f 0000 803f

weight f4 [24, 96, 1, 1]
-0.06623688 0.0006603226 -0.018204607 -0.061913148 -0.033418804 -0.07011278 0.032625318 -0.067294315
0.011179827 -0.037945896 -0.026496343 0.026768059 0.032258943 0.043984875 0.024148852 -0.022652723
0.025562331 0.042630628 -0.08085867 -0.058024447 -0.007931761 0.09821889 0.018347405 0.089033365
0.10075997 0.0009929389 0.029798672 0.018960163 0.079349115 0.0068563297 0.021672703 0.009802677
-0.08165701 -0.035119392 -0.06345248 0.03322886 0.07237315 0.0631171 -0.015317172 0.101901814
0.0960806 0.06568883 -0.054288477 0.0625418 -0.0863933 -0.09718652 0.06768815 0.06937654
-0.028873332 -0.038986966 -0.041216854 0.07062203 -0.056032654 -0.094077975 -0.08882703 0.041067287
0.021747164 -0.03880652 0.0121953115 -0.08632377 -0.052162472 0.08562258 0.09772129 -0.025476173
-0.020403892 -0.07703519 -0.06752325 0.035703048 -0.09541306 0.012025416 0.0922838 0.071846396
0.015755914 -0.02260767 -0.056705404 -0.07034727 -0.0749481 -0.0064081773 -0.060560085 -0.039928917
-0.061447345 -0.07781825 0.069305524 0.053188562 -0.057500124 -0.00220076 -0.08071914 0.00928022
-0.006392397 0.004553713 -0.06821576 0.084322765 -0.093806036 -0.04298113 -0.041600153 -0.0430748
-0.03985482 -0.09624775 -0.038816452 -0.09452188 0.060260057 0.07459557 0.04283525 0.039297655
-0.08579198 0.03692268 -0.04928512 0.060360312 0.040804148 0.09130925 0.0700361 0.022185601
0.06509219 0.06284119 -0.07787865 0.0074498206 0.09013492 0.015005283 -0.009341091 -0.032415867
0.08831334 0.04400927 0.045699716 -0.08315142 0.062178433 -0.0005176738 -0.023673072 -0.073167525
-0.05698712 -0.037623696 -0.054832954 -0.049993385 0.05264017 0.045095026 0.013743937 0.02312319
-0.057518933 0.09875542 0.025048643 0.05807683 -0.08731526 0.029207766 0.09668478 0.07877456
0.06238073 -0.0695287 0.046494603 0.050566584 0.022351652 0.05000873 0.01323726 -0.076767065
-0.048213437 0.062715024 0.09677312 -0.079637095 0.047187686 -0.051358372 0.06837006 0.0208859
0.08047837 -0.025884673 0.016160384 0.02744554 -0.033965006 0.08946091 0.093541205 -0.016992472
-0.027194493 0.05491154 0.011889726 -0.070793346 0.062620014 0.09218876 -0.063019894 -0.044962056
-0.0024212673 0.01116541 -0.08532858 0.05764097 -0.09884642 -0.020224422 0.049023718 0.031379446
0.07152964 0.089419365 0.007378526 0.024197042 0.02518636 -0.08271165 -0.08613561 0.099402875
-0.005901955 0.026520833 -0.07913245 -0.01945319 0.002540335 -0.017520286 0.098652974 0.073195115
-0.008678056 0.03255552 0.05073619 0.07588859 -0.09538585 0.05047296 0.0406778 0.0155005455
0.08561224 -0.06538893 0.018897146 0.07190086 -0.08433984 0.033153906 -0.007984504 -0.010896683
0.017793044 -0.06345832 0.08252239 -0.093852565 -0.035615645 0.02125778 -0.10123039 -0.09528741
-0.077717 -0.0010062531 0.03898506 0.08222148 0.027688995 0.052625537 0.0543444 0.08384538
0.014326051 0.043832168 0.055028364 -0.093428455 -0.062338315 0.033982053 0.087500095 -0.01982326
0.04535657 0.008955531 0.08748156 0.07502584 -0.032568596 -0.026809596 0.07978946 -0.09771766
0.04512438 0.078321874 -0.09148568 0.07038678 0.03964284 0.016863048 -0.034803174 -0.085338
00000000: 34a7 87bd 8019 2d3a d421 95bc a498 7dbd
00000010: 28e2 08bd 4a97 8fbd 20a2 053d 9ad1 89bd
00000020: 982b 373c 286d 1bbd dc0e d9bc b048 db3c
00000030: f421 043d 7c29 343d d0d3 c53c 3492 b9bc
00000040: 1868 d13c 749d 2e3d 3b99 a5bd 0bab 6dbd
00000050: 38f4 01bc fc26 c93d 4c4d 963c 2057 b63d
00000060: 3e5b ce3d 8025 823a 581c f43c 5852 9b3c
00000070: ca81 a23d 10ab e03b f48a b13c 689b 203c
00000080: ca3b a7bd 5ad9 0fbd 60f3 81bd fc1a 083d
00000090: 6038 943d 8a43 813d e0f4 7abc e6b1 d03d
000000a0: e8c5 c43d de87 863d 985d 5ebd ea15 803d
000000b0: f8ee b0bd ba09 c7bd 16a0 8a3d 4a15 8e3d
000000c0: c487 ecbc ccb0 1fbd 01d3 28bd 48a2 903d
000000d0: 7f82 65bd f4ab c0bd f2ea b5bd 2c36 283d
000000e0: 1c27 b23c 96f3 1ebd d8ce 473c 84ca b0bd
000000f0: 51a8 55bd e45a af3d 1a22 c83d 68b3 d0bc
00000100: 1026 a7bc a0c4 9dbd a149 8abd 5c3d 123d
00000110: ec67 c3bd 4006 453c 4aff bc3d 3424 933d
00000120: 8c12 813c b833 b9bc ed43 68bd 3b12 90bd
00000130: 647e 99bd b0fb d1bb da0d 78bd 818c 23bd
00000140: 36b0 7bbd 2d5f 9fbd 0ef0 8d3d 40dc 593d
00000150: 4085 6bbd a03a 10bb 1450 a5bd 100c 183c
00000160: 5077 d1bb 5037 953b b4b4 8bbd 6ab1 ac3d
00000170: 611d c0bd fb0c 30bd ec64 2abd 346f 30bd
00000180: cf3e 23bd 8a1d c5bd 00fe 1ebd b094 c1bd
00000190: 40d3 763d 90c5 983d 0474 2f3d 94f6 203d
000001a0: b5b3 afbd 3c3c 173d 32df 49bd 603c 773d
000001b0: 4022 273d 5800 bb3d 166f 8f3d 94be b53c
000001c0: 0e4f 853d e2b2 803d d77e 9fbd a01d f43b
000001d0: a898 b83d b8d8 753c 600b 19bc 80c6 04bd
000001e0: a0dd b43d 1043 343d a02f 3b3d 4b4b aabd
000001f0: d0ae 7e3d 80b4 07ba 08ee c1bc dbd8 95bd
00000200: 546b 69bd 4e1b 1abd 8598 60bd ddc5 4cbd
00000210: 389d 573d 90b5 383d 402e 613c d86c bd3c
00000220: f998 6bbd 4840 ca3d d032 cd3c f8e1 6d3d
00000230: 58d2 b2bd 2045 ef3c ac02 c63d 8e54 a13d
00000240: f082 7f3d 1065 8ebd 2071 3e3d e81e 4f3d
00000250: d01a b73c f4d5 4c3d 18e1 583c 0d38 9dbd
00000260: 747b 45bd bc70 803d fc30 c63d c618 a3bd
00000270: e047 413d 285d 52bd 9a05 8c3d e818 ab3c
00000280: d8d1 a43d 180c d4bc c862 843c 78d5 e03c
00000290: e41e 0bbd 4837 b73d 8892 bf3d cc33 8bbc
000002a0: fcc6 debc ecea 603d 20cd 423c 1afc 90bd
000002b0: ec3e 803d 76cd bc3d 9310 81bd 222a 38bd
000002c0: 20ae 1ebb 20ef 363c c0c0 aebd f018 6c3d
000002d0: fe6f cabd b0ad a5bc 18cd 483d bc87 003d
000002e0: 227e 923d 8021 b73d 90c7 f13b e038 c63c
000002f0: a053 ce3c ba64 a9bd de67 b0bd bc93 cb3d
00000300: 3065 c1bb 3842 d93c 3210 a2bd 4c5c 9fbc
00000310: c07b 263b b486 8fbc 920a ca3d 52e7 953d
00000320: 682e 0ebc f058 053d c0d0 4f3d 7a6b 9b3d
00000330: a859 c3bd bcbc 4e3d c49d 263d 00f6 7d3c
00000340: 7855 af3d a2ea 85bd 30ce 9a3c c240 933d
00000350: 5eba acbd 64cc 073d 70d1 02bc 0088 32bc
00000360: b8c2 913c 70f6 81bd 8001 a93d c635 c0bd
00000370: b6e1 11bd cc24 ae3c e151 cfbd 0c26 c3bd
00000380: 172a 9fbd 40e4 83ba ccae 1f3d bc63 a83d
00000390: 08d4 e23c e08d 573d 3c98 5e3d 20b7 ab3d
000003a0: d0b7 6a3c 5c89 333d 6c65 613d 6b57 bfbd
000003b0: 7656 7fbd c430 0b3d 4033 b33d 6464 a2bc
000003c0: d0c7 393d 38ba 123c 8829 b33d 26a7 993d
000003d0: a666 05bd cc9f dbbc a868 a33d 3220 c8bd
000003e0: 58d4 383d 3867 a03d d85c bbbd f226 903d
000003f0: 8860 223d 6024 8a3c c68d 0ebd b0c5 aebd

bias f4 [24]
0.073057085 -0.029360719 -0.06598902 -0.04543307 -0.0077000037 0.080797106 -0.08500925 -0.064623505
-0.036671743 -0.029883884 0.079601094 0.059040517 -0.09321454 -0.07749511 0.06262609 -0.025316104
0.056349754 -0.015409663 0.035226792 0.09048088 0.03893462 0.022862852 -0.04817251 -0.09973044
00000000: f49e 953d e485 f0bc 4025 87bd 0718 3abd
00000010: 5050 fcbb f478 a53d 5419 aebd 5459 84bd
00000020: 1c35 16bd 0ccf f4bc e605 a33d 78d4 713d
00000030: 44e7 bebd c2b5 9ebd 1c42 803d b863 cfbc
00000040: 00cf 663d d078 7cbc f849 103d 0a4e b93d
00000050: e879 1f3d e04a bb3c 8a50 45bd 793f ccbd

weight f4 [96, 24, 1, 1]
-0.057608873 0.14380872 -0.03648521 -0.00023342669 -0.11689135 -0.20308779 -0.08570041 0.1707707
0.12635198 -0.021398365 0.036073267 -0.11409034 -0.1652749 -0.15270624 0.0139938295 -0.17792776
-0.106044106 0.05958575 -0.03467022 -0.032566518 -0.15786088 -0.0149419755 -0.17164962 0.13505322
0.15749228 -0.16158663 0.08692247 0.17547879 0.040133312 0.012111023 -0.17242447 0.039659455
0.097664475 -0.09264801 0.057747573 0.1033608 0.099852085 -0.05651766 -0.13012287 0.12115088
0.10005766 0.072815776 -0.023213819 -0.17256072 -0.17656434 0.11693999 0.18707517 0.15234363
0.11678633 -0.07361773 0.016357929 0.026698858 -0.20350993 0.19312835 0.11334756 -0.031917006
-0.14192754 -0.1297723 0.18406284 0.13781166 -0.090866014 -0.08523165 0.096423864 -0.024497285
-0.11336978 0.043515608 0.18169573 -0.018353313 0.013164133 -0.16031343 0.16660938 0.06369761
0.18155977 -0.20069483 0.057842314 0.065033555 0.043783203 -0.10443126 -0.056473196 -0.057521895
-0.11573478 -0.18778557 -0.11649678 0.07203767 -0.20343466 0.022396907 0.060988605 0.13507456
-0.016833767 -0.09488143 0.19691765 0.009576842 -0.09125058 -0.10537679 -0.032370806 -0.121965244
-0.2026644 -0.037264824 -0.014188647 -0.057366222 0.16502842 0.14027575 0.102717936 -0.10079413
0.036330536 0.20251393 -0.15193462 0.12981981 -0.07430844 -0.01765208 0.017452791 0.17969868
-0.19085208 0.101023614 0.0864633 0.07307902 -0.19969718 0.193346 0.08587685 0.15390122
-0.070839286 -0.13336332 0.097352475 -0.060406715 0.09099239 0.09844074 -0.016777307 0.06727797
-0.026529446 -0.027978286 0.15938637 0.09816122 0.03564158 -0.19262397 -0.15398586 -0.046353146
0.123279124 -0.06180267 -0.032788336 0.015183911 0.09446651 0.12033579 0.1384837 -0.073346585
-0.15402019 -0.065561876 -0.20354755 -0.17661467 0.07841012 0.048205286 -0.18613681 -0.13895008
0.013887659 0.06348604 0.024147734 0.10587254 0.07140648 0.13691914 -0.11171296 -0.20327574
-0.06804825 0.16442454 -0.07861598 0.022716954 0.06691468 0.17107183 -0.12559955 -0.11447579
0.04565558 0.017233327 0.12528923 -0.042002022 -0.01695171 -0.075828835 -0.09866064 -0.20134303
-0.18302125 0.1502747 -0.05442238 -0.12685138 -0.17077437 0.04217647 0.14767513 -0.10919432
-0.07353933 0.038830444 0.17866343 0.14704856 -0.06499231 0.10651258 -0.07776785 -0.06443918
0.11196372 0.12173748 -0.16403423 0.19874519 -0.07322438 0.035026357 -0.09678711 0.051620454
-0.040354863 -0.12889871 0.11736068 -0.1381773 -0.10323804 -0.17105262 0.084269315 -0.050886348
0.06514412 -0.11729097 -0.048071668 -0.13677831 -0.13262695 -0.18174593 -0.20267309 0.02416864
0.05817035 0.18396714 -0.14517047 0.12463933 0.19738483 -0.127886 0.012335688 -0.20351446
0.029371947 -0.057106137 -0.028180763 0.17647994 -0.010909662 0.16468304 -0.03408128 0.13983694
0.09672028 -0.07914156 0.00070905685 0.10583064 -0.17499591 0.11277938 -0.0005645156 0.05057487
-0.15181237 0.06656119 -0.182767 -0.07559033 -0.0019450784 -0.023350254 0.13455561 -0.075857356
-0.18791702 -0.097887784 -0.1781853 -0.018693164 -0.18281375 -0.09561788 0.13709044 -0.13401657
00000000: 48f7 6bbd 9842 133e 8471 15bd 00c4 74b9
00000010: bb64 efbd 3ff6 4fbe b283 afbd 84de 2e3e
00000020: 6a62 013e a04b afbc 90c1 133d 32a8 e9bd
00000030: d33d 29be 065f 1cbe 6046 653c b232 36be
00000040: a72d d9bd 3010 743d 5c02 0ebd 7864 05bd
00000050: 48a6 21be 30cf 74bc ebc4 2fbe 644b 0a3e
00000060: a845 213e f776 25be 6804 b23d b6b0 333e
00000070: d462 243d 506d 463c 0a90 30be f471 223d
00000080: 5004 c83d 3dbe bdbd b888 6c3d d4ae d33d
00000090: 407f cc3d 107f 67bd ee3e 05be f41d f83d
000000a0: 08eb cc3d 7020 953d e82a bebc c2b3 30be
000000b0: 48cd 34be 3c7e ef3d a290 3f3e f8ff 1b3e
000000c0: ac2d ef3d e4c4 96bd 1001 863c 90b7 da3c
000000d0: e864 50be 70c3 453e c422 e83d 68bb 02bd
000000e0: 7455 11be 08e3 04be f87a 3c3e 801e 0d3e
000000f0: f617 babd ee8d aebd e079 c53d 88ae c8bc
00000100: 6a2e e8bd 6c3d 323d 720e 3a3e b059 96bc
00000110: 60ae 573c 3429 24be a69b 2a3e e473 823d
00000120: ceea 393e f282 4dbe 10ec 6c3d 5030 853d
00000130: 0456 333d 0ee0 d5bd 7050 67bd 149c 6bbd
00000140: 5b06 edbd dc4a 40be dd95 eebd 7c88 933d
00000150: 2d51 50be b879 b73c 30cf 793d fc50 0a3e
00000160: f8e6 89bc 3251 c2bd c8a4 493e 30e8 1c3c
00000170: 96e1 babd c9cf d7bd 4097 04bd eac8 f9bd
00000180: 4287 4fbe 00a3 18bd 8077 68bc d8f8 6abd
00000190: 36fd 283e 72a4 0f3e c85d d23d 276d cebd
000001a0: 54cf 143d d05f 4f3e c094 1bbe 7cef 043e
000001b0: 062f 98bd 189b 90bc 28f9 8e3c ee02 383e
000001c0: ba6e 43be 78e5 ce3d ac13 b13d 74aa 953d
000001d0: 6b7d 4cbe 7efc 453e 34e0 af3d 4898 1d3e
000001e0: 3014 91bd 6590 08be bc60 c73d 086d 77bd
000001f0: 385a ba3d 4c9b c93d 9070 89bc 08c9 893d
00000200: 4854 d9bc b832 e5bc 2e36 233e c008 c93d
00000210: e8fc 113d 383f 45be 78ae 1dbe ccdc 3dbd
00000220: c479 fc3d cc24 7dbd 104d 06bd f0c5 783c
00000230: a877 c13d 9c72 f63d acce 0d3e bc36 96bd
00000240: 78b7 1dbe 4e45 86bd c56e 50be 7ada 34be
00000250: 7c95 a03d e872 453d a69a 3ebe ee48 0ebe
00000260: 1089 633c f804 823d 78d1 c53c b4d3 d83d
00000270: 903d 923d 8834 0c3e c4c9 e4bd 8427 50be
00000280: e25c 8bbd e85e 283e 6a01 a1bd e818 ba3c
00000290: 900a 893d 742d 2f3e 2b9d 00be 4872 eabd
000002a0: 5801 3b3d e82c 8d3c d24b 003e 500a 2cbd
000002b0: 50de 8abc 264c 9bbd 970e cabd de2c 4ebe
000002c0: ec69 3bbe 9ce1 193e 00ea 5ebd 54e5 01be
000002d0: 7adf 2ebe 3cc1 2c3d 2638 173e 46a1 dfbd
000002e0: ca9b 96bd ac0c 1f3d 8cf3 363e e693 163e
000002f0: b01a 85bd 4423 da3d c044 9fbd b0f8 83bd
00000300: 3c4d e53d 8051 f93d 97f8 27be dc83 4b3e
00000310: aaf6 95bd cc77 0f3d 5238 c6bd f86f 533d
00000320: 244b 25bd 06fe 03be cc5a f03d 5a7e 0dbe
00000330: 776e d3bd 6b28 2fbe 6495 ac3d 346e 50bd
00000340: 486a 853d 4036 f0bd cce6 44bd 9d0f 0cbe
00000350: 5ccf 07be 9b1b 3abe 8989 4fbe 50fd c53c
00000360: 0844 6e3d e261 3c3e 91a7 14be e842 ff3d
00000370: 401f 4a3e 8cf4 02be a01b 4a3c 1866 50be
00000380: 709d f03c 20e8 69bd 58db e6bc 28b7 343e
00000390: 70be 32bc aca2 283e d098 0bbd 6a31 0f3e
000003a0: 4815 c63d f814 a2bd 00e0 393a bcbd d83d
000003b0: 2132 33be e0f8 e63d 00fc 13ba 9827 4f3d
000003c0: b474 1bbe 3c51 883d 4627 3bbe 1acf 9abd
000003d0: 00f2 feba 0849 bfbc f2c8 093e 1a5b 9bbd
000003e0: 526d 40be 6479 c8bd 3576 36be 6822 99bc
000003f0: 8733 3bbe 4fd3 c3bd 7061 0c3e a43b 09be

bias f4 [96]
0.047498614 0.16411474 0.08098847 -0.0001398027 0.12200919 -0.016864404 0.17639565 -0.10439395
-0.09796422 -0.03405285 -0.14402553 -0.06964064 -0.00035461783 -0.19740595 0.18517143 0.027022302
0.10266161 -0.016880363 -0.024702907 0.09609333 -0.06095721 -0.15669705 -0.16568324 0.0369976
-0.120101884 0.03195706 0.06421584 0.14927992 -0.03531143 0.02742514 -0.16566528 -0.062076792
0.008608028 -0.04623203 -0.19557889 0.15119311 0.19422162 0.08383611 0.18519846 0.059073687
-0.16536874 -0.19897844 0.05284083 -0.009860098 -0.18780315 0.04206142 -0.19308478 0.10013577
-0.061967954 0.0028508604 0.1740767 -0.14503294 0.19392392 -0.017550915 -0.05367422 0.1722348
0.010832563 -0.031629458 -0.14747766 0.093901485 0.036712095 -0.08478717 0.07318604 -0.044919074
-0.1349527 0.17604375 -0.04454112 -0.04245472 -0.032970056 -0.18108566 0.0077863038 -0.0898652
-0.12836571 0.12338862 0.044687048 -0.13757175 0.16548759 0.065752506 -0.18766043 0.156275
-0.052924797 -0.18143943 0.04926896 0.17741832 -0.18418904 -0.12505971 0.029163882 0.053471714
-0.061248913 0.020869434 -0.019713953 -0.1148136 0.10076854 -0.08209277 0.20102656 0.029623568
00000000: e88d 423d b20d 283e 48dd a53d 0098 12b9
00000010: f4df f93d 3827 8abc 10a1 343e 7fcc d5bd
00000020: 77a1 c8bd 007b 0bbd 6e7b 13be c09f 8ebd
00000030: 00ec b9b9 c924 4abe 949d 3d3e e05d dd3c
00000040: 4040 d23d b048 8abc c05d cabc 94cc c43d
00000050: 44ae 79bd 3175 20be dea8 29be cc8a 173d
00000060: faf7 f5bd 68e5 023d 9883 833d d6dc 183e
00000070: b8a2 10bd b0aa e03c 29a4 29be 3c44 7ebd
00000080: b008 0d3c cc5d 3dbd d545 48be 5ed2 1a3e
00000090: 08e2 463e 44b2 ab3d aaa4 3d3e 40f7 713d
000000a0: 6c56 29be 01c1 4bbe a06f 583d 408c 21bc
000000b0: 784f 40be 9848 2c3d 04b8 45be fc13 cd3d
000000c0: 1cd2 7dbd 80d5 3a3b 2a41 323e 8483 14be
000000d0: fe93 463e f0c6 8fbc 80d9 5bbd 525e 303e
000000e0: 107b 313c e48d 01bd 6204 17be 6c4f c03d
000000f0: 6c5f 163d e5a4 adbd 90e2 953d 10fd 37bd
00000100: 0a31 0abe d044 343e c070 36bd 00e5 2dbd
00000110: 9c0b 07bd 856e 39be 4024 ff3b 3f0b b8bd
00000120: 4d72 03be 2cb3 fc3d c409 373d 9cdf 0cbe
00000130: 9475 293e 40a9 863d 0e2a 40be 8e06 203e
00000140: acc7 58bd 42cb 39be 40ce 493d 26ad 353e
00000150: 0d9c 3cbe a70f 00be 18e9 ee3c 2805 5b3d
00000160: 24e0 7abd 60f6 aa3c 287f a1bc 6523 ebbd
00000170: bc5f ce3d 4120 a8bd e8d9 4d3e 20ad f23c

weight f4 [48, 96, 1, 1]
0.024787202 -0.10007499 0.09362909 -0.062117863 0.088584945 0.053206816 -0.08569949 -0.077647865
-0.05562716 -0.006199822 0.09814823 0.041999966 -0.0037558004 -0.08204889 0.0714695 -0.09108759
0.0015858412 -0.03218504 0.04889898 -0.043497995 -0.05448137 -0.020322144 0.06112896 -0.053965293
0.033719525 -0.10181021 0.09161241 -0.01727184 0.022241265 -0.004842989 0.05463563 -0.069127455
-0.023263633 -0.05577877 -0.042301834 0.07067357 0.07963438 0.07278392 -0.06373857 0.01883965
-0.027080677 -0.06380746 -0.07002467 0.04509136 0.04164359 -0.01941628 0.039904922 -0.008134127
-0.077154666 -0.028271869 0.06518884 -0.047111996 0.08312434 0.022869155 -0.019692235 0.011934742
0.03846489 -0.05639515 -0.08054204 0.01971782 0.024954602 -0.030551627 -0.09920776 0.078053206
-0.022656575 0.03153278 0.012740493 0.072091684 -0.052099083 0.054180503 -0.06480516 0.06901038
0.05432993 0.005638838 -0.025527552 -0.07350278 0.08991212 -0.08369007 -0.007883579 0.08392225
-0.076198295 -0.02383326 0.06855926 0.019751512 -0.019382954 0.033625096 0.094609454 0.061334565
0.019486643 -0.07541669 0.018448465 0.009511098 -0.025035605 -0.03617978 0.023782313 -0.05993447
-0.078189544 0.060162947 0.061930627 0.09284657 -0.044696603 0.028058022 -0.020830758 -0.06233935
-0.006525889 0.009822302 0.07002632 -0.0899392 -0.06919278 0.0003125146 -0.052727133 -0.057677843
-0.08574531 -0.087584995 0.019750454 0.0566563 0.024653032 0.071776286 0.061248183 -0.09700625
-0.070319094 0.037221253 -0.08007499 -0.10185467 0.06669724 0.063959375 -0.062458098 -0.034101628
0.038954914 0.03656006 -0.02473472 -0.05835024 0.002641216 -0.087658726 0.069015205 -0.034549758
0.017016605 -0.049448386 0.0084902495 -0.020903908 -0.009519108 0.07284963 0.039424926 -0.05441314
0.08596878 0.03824079 0.060211867 -0.040104643 0.0950467 0.032582626 0.04086183 0.004653625
-0.060913187 0.05518967 0.085197344 0.0926808 -0.05996833 0.045866802 0.10194053 0.09564601
-0.069322236 0.073391706 0.095352456 0.03642291 0.033753216 0.03601232 0.0015271232 0.047977716
-0.06014178 -0.058395024 0.039289236 -0.07033639 0.055180684 0.0383918 -0.09559789 -0.025494851
-0.01625251 -0.042378765 0.06250484 0.06662668 -0.050542824 0.0065861046 -0.016236901 0.083967194
-0.004554741 -0.07958422 0.0013394877 0.047113463 0.06700082 0.08087547 0.09826629 0.0058195516
-0.057467185 -0.08157909 0.07685754 -0.0519853 -0.092264496 0.07688469 0.041572616 -0.06001697
-0.10017234 0.09738779 0.00408753 -0.011358976 0.096042335 0.06431949 0.085149094 -0.049079016
-0.07452067 -0.0021635368 0.07412095 0.09072366 -0.005858347 0.0965049 0.04585105 0.0028555244
0.052213818 -0.04941 -0.08768015 -0.0723258 -0.056349758 0.017323136 -0.05813093 0.02549617
0.00068388134 0.027421564 -0.05601297 -0.016423099 -0.026407756 -0.029072613 -0.024762407 -0.020454235
-0.058704216 -0.040296573 -0.07519232 -0.049621228 0.0011801347 -0.0673049 -0.093380615 0.0092912465
0.037609175 0.008059591 -0.016077213 -0.03693586 0.041710913 -0.10040562 0.03639157 -0.097037785
0.02993843 -0.082530625 -0.03273724 -0.036391877 0.0680449 -0.038637973 0.07995261 -0.051928993
00000000: 880e cb3c 1ef4 ccbd 9cc0 bf3d 4d6f 7ebd
00000010: 066c b53d 64ef 593d 3783 afbd d805 9fbd
00000020: 4ed9 63bd e027 cbbb f001 c93d 2808 2c3d
00000030: e023 76bb 4009 a8bd 9a5e 923d 218c babd
00000040: 00dc cf3a 76d4 03bd 4c4a 483d f42a 32bd
00000050: db27 5fbd a07a a6bc 5c62 7a3d b60a 5dbd
00000060: 7c1d 0a3d df81 d0bd 4a9f bb3d ac7d 8dbc
00000070: 5033 b63c f0b1 9ebb 9cc9 5f3d b292 8dbd
00000080: 6093 bebc 4878 64bd b044 2dbd 4ebd 903d
00000090: 5a17 a33d bc0f 953d 5e89 82bd 9c55 9a3c
000000a0: 4cd8 ddbc 7cad 82bd 1869 8fbd b8b1 383d
000000b0: 7892 2a3d e40e 9fbc 5873 233d 0045 05bc
000000c0: 4403 9ebd 689a e7bc ba81 853d 82f8 40bd
000000d0: 183d aa3d 1858 bb3c 9c51 a1bc f089 433c
000000e0: 5c8d 1d3d 9afe 66bd 3af3 a4bd 4487 a13c
000000f0: 986d cc3c 6847 fabc 702d cbbd 5cda 9f3d
00000100: 489a b9bc 8428 013d 80bd 503c cea4 933d
00000110: d965 55bd 60ec 5d3d 91b8 84bd 5055 8d3d
00000120: 1089 5e3d 00c6 b83b 281f d1bc a088 96bd
00000130: d823 b83d b365 abbd 202a 01bc 6edf ab3d
00000140: da0d 9cbd f83d c3bc cc68 8c3d eccd a13c
00000150: 00c9 9ebc 78ba 093d 9ac2 c13d f439 7b3d
00000160: 74a2 9f3c 1174 9abd 3c21 973c 70d4 1b3c
00000170: 7817 cdbc 4031 14bd 20d3 c23c d97d 75bd
00000180: d721 a0bd 6c6d 763d f8aa 7d3d 5826 be3d
00000190: c913 37bd f0d9 e53c 44a5 aabc 8c57 7fbd
000001a0: 20d7 d5bb b8ed 203c f669 8f3d 0b32 b8bd
000001b0: f2b4 8dbd 00d9 a339 68f8 57bd 9a3f 6cbd
000001c0: 3d9b afbd c35f b3bd b4cb a13c 7010 683d
000001d0: 28f5 c93c 72ff 923d 60df 7a3d 36ab c6bd
000001e0: 7503 90bd 5075 183d 5bfe a3bd 2e99 d0bd
000001f0: 9098 883d 22fd 823d 10d4 7fbd 26ae 0bbd
00000200: 308f 1f3d 00c0 153d 78a0 cabc a900 6fbd
00000210: 4018 2d3b 6b86 b3bd d857 8d3d 0c84 0dbd
00000220: 6866 8b3c 648a 4abd b01a 0b3c ac3e abbc
00000230: 08f6 1bbc 3032 953d 087c 213d 50e0 5ebd
00000240: 6610 b03d 60a2 1c3d b8a0 763d c444 24bd
00000250: d8a7 c23d 5c75 053d bc5e 273d 707d 983b
00000260: 1b80 79bd 900e 623d f27b ae3d 6ecf bd3d
00000270: 5aa1 75bd d4de 3b3d 32c6 d03d 0ee2 c33d
00000280: d1f8 8dbd 644e 963d 2648 c33d 3030 153d
00000290: d040 0a3d a881 133d c029 c83a 4884 443d
000002a0: 3a57 76bd 9f2f 6fbd c0ed 203d 860c 90bd
000002b0: 2405 623d b840 1d3d d4c8 c3bd 94da d0bc
000002c0: fc23 85bc 5b95 2dbd 8a02 803d 9273 883d
000002d0: fe05 4fbd 40d0 d73b 4003 85bc fef6 ab3d
000002e0: f03f 95bb 0dfd a2bd c091 af3a 0cfa 403d
000002f0: ba37 893d 0aa2 a53d d63f c93d f0b1 be3b
00000300: b662 6bbd f012 a7bd 7c67 9d3d 8aee 54bd
00000310: 2bf5 bcbd b875 9d3d 0c48 2a3d 5bd4 75bd
00000320: 2827 cdbd 4073 c73d b0f0 853b 001b 3abc
00000330: d8b1 c43d f0b9 833d a662 ae3d 1407 49bd
00000340: 4b9e 98bd 20ca 0dbb bacc 973d 54cd b93d
00000350: 60f7 bfbb 5ca4 c53d 50ce 3b3d c023 3b3b
00000360: 28de 553d 2462 4abd a791 b3bd 8d1f 94bd
00000370: 01cf 66bd 40e9 8d3c b31a 6ebd 58dd d03c
00000380: 8046 333a 30a3 e03c db6d 65bd bc89 86bc
00000390: 1455 d8bc b029 eebc 88da cabc a48f a7bc
000003a0: d573 70bd 050e 25bd 6efe 99bd a13f 4bbd
000003b0: c0ae 9a3a 27d7 89bd 563e bfbd 503a 183c
000003c0: 140c 1a3d 600c 043c 5cb4 83bc 0e4a 17bd
000003d0: 10d9 2a3d 76a1 cdbd 540f 153d bfbb c6bd
000003e0: 7041 f53c d105 a9bd 7c17 06bd a60f 15bd
000003f0: 205b 8b3d da42 1ebd 32be a33d 7fb3 54bd

weight f4 [48]
1.0 1.0 1.0 1.0 1.0 1.0 1.0 1.0
1.0 1.0 1.0 1.0 1.0 1.0 1.0 1.0
1.0 1.0 1.0 1.0 1.0 1.0 1.0 1.0
1.0 1.0 1.0 1.0 1.0 1.0 1.0 1.0
1.0 1.0 1.0 1.0 1.0 1.0 1.0 1.0
1.0 1.0 1.0 1.0 1.0 1.0 1.0 1.0
00000000: 0000 803f 0000 803f 0000 803f 0000 803f
00000010: 0000 803f 0000 803f 0000 803f 0000 803f
00000020: 0000 803f 0000 803f 0000 803f 0000 803f
00000030: 0000 803f 0000 803f 0000 803f 0000 803f
00000040: 0000 803f 0000 803f 0000 803f 0000 803f
00000050: 0000 803f 0000 803f 0000 803f 0000 803f
00000060: 0000 803f 0000 803f 0000 803f 0000 803f
00000070: 0000 803f 0000 803f 0000 803f 0000 803f
00000080: 0000 803f 0000 803f 0000 803f 0000 803f
00000090: 0000 803f 0000 803f 0000 803f 0000 803f
000000a0: 0000 803f 0000 803f 0000 803f 0000 803f
000000b0: 0000 803f 0000 803f 0000 803f 0000 803f

bias f4 [48]
0.0 0.0 0.0 0.0 0.0 0.0 0.0 0.0
0.0 0.0 0.0 0.0 0.0 0.0 0.0 0.0
0.0 0.0 0.0 0.0 0.0 0.0 0.0 0.0
0.0 0.0 0.0 0.0 0.0 0.0 0.0 0.0
0.0 0.0 0.0 0.0 0.0 0.0 0.0 0.0
0.0 0.0 0.0 0.0 0.0 0.0 0.0 0.0
00000000: 0000 0000 0000 0000 0000 0000 0000 0000
00000010: 0000 0000 0000 0000 0000 0000 0000 0000
00000020: 0000 0000 0000 0000 0000 0000 0000 0000
00000030: 0000 0000 0000 0000 0000 0000 0000 0000
00000040: 0000 0000 0000 0000 0000 0000 0000 0000
00000050: 0000 0000 0000 0000 0000 0000 0000 0000
00000060: 0000 0000 0000 0000 0000 0000 0000 0000
00000070: 0000 0000 0000 0000 0000 0000 0000 0000
00000080: 0000 0000 0000 0000 0000 0000 0000 0000
00000090: 0000 0000 0000 0000 0000 0000 0000 0000
000000a0: 0000 0000 0000 0000 0000 0000 0000 0000
000000b0: 0000 0000 0000 0000 0000 0000 0000 0000

running_mean f4 [48]
0.0 0.0 0.0 0.0 0.0 0.0 0.0 0.0
0.0 0.0 0.0 0.0 0.0 0.0 0.0 0.0
0.0 0.0 0.0 0.0 0.0 0.0 0.0 0.0
0.0 0.0 0.0 0.0 0.0 0.0 0.0 0.0
0.0 0.0 0.0 0.0 0.0 0.0 0.0 0.0
0.0 0.0 0.0 0.0 0.0 0.0 0.0 0.0
00000000: 0000 0000 0000 0000 0000 0000 0000 0000
00000010: 0000 0000 0000 0000 0000 0000 0000 0000
00000020: 0000 0000 0000 0000 0000 0000 0000 0000
00000030: 0000 0000 0000 0000 0000 0000 0000 0000
00000040: 0000 0000 0000 0000 0000 0000 0000 0000
00000050: 0000 0000 0000 0000 0000 0000 0000 0000
00000060: 0000 0000 0000 0000 0000 0000 0000 0000
00000070: 0000 0000 0000 0000 0000 0000 0000 0000
00000080: 0000 0000 0000 0000 0000 0000 0000 0000
00000090: 0000 0000 0000 0000 0000 0000 0000 0000
000000a0: 0000 0000 0000 0000 0000 0000 0000 0000
000000b0: 0000 0000 0000 0000 0000 0000 0000 0000
