Mobilenet_V3_Search_space_blocks/blocks_quantization_vitis_ai_3.0/float/ResidualBlock-in_24x112x112-out_32-k_3-e_3-s_2-act_relu-use_se_False.pth (torch, 33182 bytes, 15 tensors)

weight f4 [72, 24, 1, 1]
00000000: 08d2 15be 2a72 0cbe 6861 9b3d 48ba d9bd
00000010: 6d00 cbbd 3eb6 3ebe 430f 47be f23b 2dbe
00000020: 0245 203e c240 e0bd 8c81 f5bd c4f9 383d
00000030: 670e c4bd 4adc 343e 8f8b dbbd 74f2 08bd
00000040: 9649 50be 0007 02bb 273f 06be 0e77 4b3e
00000050: 202a 19be 9010 42bc 9f62 f0bd 2b18 33be
00000060: d6c7 0f3e b08d a13d 0099 c83b f884 cd3d
00000070: 6e12 26be 14b4 6fbd c49b 963d 70d8 c6bc
00000080: e2b1 503e d03f 13be d80c 8c3d 5846 f8bc
00000090: 2f1f 43be ac54 3c3e 5c4a 76bd 8028 ff3d
000000a0: 1ec1 133e e0cb a7bc 3ce9 833d b092 42be
000000b0: 80cf 3e3c a03c 023e 38c3 89bd 1f6a b1bd
000000c0: 80da bcbc 04e2 00be 1823 113e 0c1c 163e
000000d0: 00bc 743c 0ad1 303e b0ab 033e 5c77 cc3d
000000e0: 007a 4cbc 101e 3d3d 84cf 77bd b4d1 a7bd
000000f0: 8fdf 35be 0437 0e3e bc24 99bd f809 423d
00000100: 7030 453d 9232 09be f8c3 093e 80fd 93bb
00000110: f0df 02bd 4c75 a73d a0a6 4fbc f2ff 35be
00000120: 7c79 3f3e f805 febc 505b 473d f82a ae3d
00000130: d207 16be 402f 3fbe 8415 3b3e 6032 d33c
00000140: 40f3 02bb c09f b7bb f08d 073e 68a4 0f3d
00000150: 90eb 3c3c cad3 443e 6822 de3d 9a84 3b3e
00000160: 1012 e43d 2027 223d d46f ad3d 304a 28bd
00000170: 67c1 c2bd 6af6 1b3e 82dc febd b018 c03c
00000180: 6470 273e 5447 e53d 78e3 cfbc 6ad0 3d3e
00000190: 0041 c7bb 0e24 2abe f85f 18bd 4035 88bd
000001a0: a635 16be 7afb 183e 28b4 40bd c8bd 863d
000001b0: e064 3b3e c0b1 003e e066 913d 46dc fbbd
000001c0: a0e2 0f3e 0c3c df3d 20d8 4a3e f6a3 073e
000001d0: 3852 3cbd 5d9a 0dbe 8082 ac3d 48d0 383d
000001e0: 5c1a 003e 00a7 2a3a c8af 113e 0639 27be
000001f0: 14bb 373e e457 863d 86f1 0d3e e141 33be
00000200: 86df 3a3e 728c 4bbe 5c13 283e 8133 3dbe
00000210: 60b7 073e da56 35be ed63 1fbe 9773 bebd
00000220: a47f 15bd dfa4 a8bd 60d2 bdbb 20f3 66bc
00000230: 71b3 13be 0812 ef3c f082 543d a8c8 283e
00000240: 9012 34bd a048 1c3e 6ebe 11be 39b8 16be
00000250: f41a 043d aa3e 09be 0000 c8bb 1058 433e
00000260: bf00 4fbe aca4 fd3d 01e7 bbbd 9c4f 0ebe
00000270: 8627 213e 9238 033e 7223 1ebe f049 053e
00000280: 780b cb3d e845 b53d aa9d d5bd 2c92 f53d
00000290: 3007 c53d d4aa 253d 5450 20bd 203b 473d
000002a0: a06e febc 8cfd 37bd 8070 60bb 580d 413e
000002b0: 34ea 143d 54fa de3d e20e 143e a812 993d
000002c0: 6443 943d 502f 19be 8431 1fbd a03a 2bbc
000002d0: eaa5 05be c0c3 493c 1013 4f3c e87f ea3c
000002e0: d468 dcbd a0eb 2ebc a0ed e83c 10e7 8f3d
000002f0: 4b9c f2bd a040 fabb ad49 d2bd 8259 c4bd
00000300: 6ed8 40be fc02 98bd 0c68 bb3d 98e4 dc3d
00000310: ad9d 2abe 785d 433d 62bc 95bd 729c 28be
00000320: 3370 cabd dc07 a83d 8ad9 1dbe 5886 333d
00000330: 40cf bbbb 7836 9abd cc10 d63d 7f44 bfbd
00000340: 1604 40be c48f 0d3d fced e63d a8c2 01be
00000350: e40a 823d f4e2 9dbd 6035 393e d434 f03d
00000360: 3d7e ffbd f008 a13d 18c2 9cbc 6076 603c
00000370: f621 97bd 0c1e 02bd b0b7 7e3c a8c3 df3d
00000380: b0c2 743d 29de 08be 008e aeba a43f 283e
00000390: 6081 28bc 003a 073e 36c2 463e e45f db3d
000003a0: 34ec e83d d388 4abe 8cd0 0bbe b3eb d7bd
000003b0: 784b b83d 5074 b03d b048 093e 00e8 f3bc
000003c0: 30c8 323c b076 443c a084 743c 9039 d93d
000003d0: 16b6 04be aa5f 233e b003 0f3e 84dc 193d
000003e0: d060 2f3c 0670 98bd e0df b83c 805b 80bc
000003f0: 00a4 69b9 52df 413e 0c7e 5cbd d4b0 323d
-0.14630902 -0.13715425 0.07586938 -0.106312335 -0.099121906 -0.18624207 -0.19439416 -0.16917399
0.15651324 -0.109498516 -0.119876 0.04516007 -0.095730595 0.17662159 -0.10719978 -0.033434346
-0.20340571 -0.0019840598 -0.13110028 0.19869635 -0.14957476 -0.011844769 -0.117375605 -0.17489688
0.14041075 0.07888353 0.0061217546 0.100351274 -0.16217968 -0.058521345 0.07353929 -0.024273127
0.20380357 -0.14379811 0.06838387 -0.03030698 -0.19054864 0.18391675 -0.06012951 0.12458897
0.14429137 -0.020482957 0.0644097 -0.1900127 0.011646152 0.12718439 -0.06726688 -0.08662819
-0.023053408 -0.12586218 0.14173543 0.14659137 0.014937401 0.17267242 0.12858462 0.099837035
-0.012480259 0.046171248 -0.060500637 -0.081942946 -0.17761062 0.13888174 -0.0747771 0.04737279
0.048141897 -0.13398197 0.13453662 -0.0045163035 -0.031951845 0.081766695 -0.012674004 -0.17773417
0.18698686 -0.031008705 0.048671067 0.085042894 -0.1465142 -0.18670368 0.18269926 0.025780857
-0.0019981414 -0.0056037605 0.13237739 0.0350689 0.011530772 0.19221416 0.10846406 0.18312302
0.11136258 0.039588094 0.08468595 -0.041086376 -0.09509545 0.15230718 -0.12444402 0.023449272
0.16351467 0.111952454 -0.02537702 0.18536535 -0.0060807467 -0.16615316 -0.037200898 -0.06650782
-0.14668903 0.1493968 -0.04704681 0.06579167 0.183002 0.12567806 0.070997 -0.12297873
0.14051294 0.10900125 0.19809008 0.1324614 -0.045976847 -0.13828416 0.084233284 0.045120507
0.12510055 0.000650987 0.14227211 -0.16330346 0.17942458 0.065597326 0.13861665 -0.175056
0.1824933 -0.19877794 0.16413635 -0.18476678 0.13253546 -0.17708912 -0.15565462 -0.09299391
-0.03649868 -0.08234572 -0.005792901 -0.014096051 -0.1442392 0.029183403 0.051882684 0.16482794
-0.043963015 0.15262079 -0.142328 -0.14718713 0.032252267 -0.1340281 -0.0061035156 0.19076562
-0.20215128 0.12384924 -0.0917492 -0.13897556 0.15737733 0.12814549 -0.15443209 0.13016486
0.09914297 0.08851224 -0.10430463 0.11990771 0.096205115 0.040446118 -0.039139107 0.04864037
-0.03105861 -0.044919536 -0.0034246743 0.18852746 0.036356166 0.1088759 0.14458802 0.074742615
0.07239416 -0.14959455 -0.03886558 -0.010450989 -0.13051572 0.012314737 0.012638822 0.028625444
-0.10762182 -0.010676295 0.02843362 0.070264935 -0.11846217 -0.0076370984 -0.10267959 -0.09587385
-0.18832561 -0.07422444 0.09150705 0.10785788 -0.16661711 0.04769656 -0.07311322 -0.16465929
-0.098846816 0.08204624 -0.15415016 0.043829292 -0.0057314932 -0.0752992 0.104524225 -0.093392365
-0.18751559 0.034560934 0.11275861 -0.12671912 0.063497335 -0.077093035 0.18086767 0.11728826
-0.1247525 0.07863033 -0.01913552 0.013700098 -0.073795244 -0.031766936 0.015546724 0.1092599
0.05975598 -0.13365997 -0.0013317466 0.16430527 -0.010284752 0.13205719 0.19410023 0.10711649
0.11373177 -0.19778757 -0.13653773 -0.10543003 0.089987695 0.08615935 0.13406634 -0.029773712
0.010911986 0.011991188 0.014924198 0.10606682 -0.12960085 0.15954462 0.1396625 0.037563816
0.010704234 -0.07443242 0.02256769 -0.01566863 -0.00022281706 0.18932846 -0.053831145 0.043625668

weight f4 [72]
00000000: 0000 803f 0000 803f 0000 803f 0000 803f
00000010: 0000 803f 0000 803f 0000 803f 0000 803f
00000020: 0000 803f 0000 803f 0000 803f 0000 803f
00000030: 0000 803f 0000 803f 0000 803f 0000 803f
00000040: 0000 803f 0000 803f 0000 803f 0000 803f
00000050: 0000 803f 0000 803f 0000 803f 0000 803f
00000060: 0000 803f 0000 803f 0000 803f 0000 803f
00000070: 0000 803f 0000 803f 0000 803f 0000 803f
00000080: 0000 803f 0000 803f 0000 803f 0000 803f
00000090: 0000 803f 0000 803f 0000 803f 0000 803f
000000a0: 0000 803f 0000 803f 0000 803f 0000 803f
000000b0: 0000 803f 0000 803f 0000 803f 0000 803f
000000c0: 0000 803f 0000 803f 0000 803f 0000 803f
000000d0: 0000 803f 0000 803f 0000 803f 0000 803f
000000e0: 0000 803f 0000 803f 0000 803f 0000 803f
000000f0: 0000 803f 0000 803f 0000 803f 0000 803f
00000100: 0000 803f 0000 803f 0000 803f 0000 803f
00000110: 0000 803f 0000 803f 0000 803f 0000 803f
1.0 1.0 1.0 1.0 1.0 1.0 1.0 1.0
1.0 1.0 1.0 1.0 1.0 1.0 1.0 1.0
1.0 1.0 1.0 1.0 1.0 1.0 1.0 1.0
1.0 1.0 1.0 1.0 1.0 1.0 1.0 1.0
1.0 1.0 1.0 1.0 1.0 1.0 1.0 1.0
1.0 1.0 1.0 1.0 1.0 1.0 1.0 1.0
1.0 1.0 1.0 1.0 1.0 1.0 1.0 1.0
1.0 1.0 1.0 1.0 1.0 1.0 1.0 1.0
1.0 1.0 1.0 1.0 1.0 1.0 1.0 1.0

bias f4 [72]
00000000: 0000 0000 0000 0000 0000 0000 0000 0000
00000010: 0000 0000 0000 0000 0000 0000 0000 0000
00000020: 0000 0000 0000 0000 0000 0000 0000 0000
00000030: 0000 0000 0000 0000 0000 0000 0000 0000
00000040: 0000 0000 0000 0000 0000 0000 0000 0000
00000050: 0000 0000 0000 0000 0000 0000 0000 0000
00000060: 0000 0000 0000 0000 0000 0000 0000 0000
00000070: 0000 0000 0000 0000 0000 0000 0000 0000
00000080: 0000 0000 0000 0000 0000 0000 0000 0000
00000090: 0000 0000 0000 0000 0000 0000 0000 0000
000000a0: 0000 0000 0000 0000 0000 0000 0000 0000
000000b0: 0000 0000 0000 0000 0000 0000 0000 0000
000000c0: 0000 0000 0000 0000 0000 0000 0000 0000
000000d0: 0000 0000 0000 0000 0000 0000 0000 0000
000000e0: 0000 0000 0000 0000 0000 0000 0000 0000
000000f0: 0000 0000 0000 0000 0000 0000 0000 0000
00000100: 0000 0000 0000 0000 0000 0000 0000 0000
00000110: 0000 0000 0000 0000 0000 0000 0000 0000
0.0 0.0 0.0 0.0 0.0 0.0 0.0 0.0
0.0 0.0 0.0 0.0 0.0 0.0 0.0 0.0
0.0 0.0 0.0 0.0 0.0 0.0 0.0 0.0
0.0 0.0 0.0 0.0 0.0 0.0 0.0 0.0
0.0 0.0 0.0 0.0 0.0 0.0 0.0 0.0
0.0 0.0 0.0 0.0 0.0 0.0 0.0 0.0
0.0 0.0 0.0 0.0 0.0 0.0 0.0 0.0
0.0 0.0 0.0 0.0 0.0 0.0 0.0 0.0
0.0 0.0 0.0 0.0 0.0 0.0 0.0 0.0

running_mean f4 [72]
00000000: 0000 0000 0000 0000 0000 0000 0000 0000
00000010: 0000 0000 0000 0000 0000 0000 0000 0000
00000020: 0000 0000 0000 0000 0000 0000 0000 0000
00000030: 0000 0000 0000 0000 0000 0000 0000 0000
00000040: 0000 0000 0000 0000 0000 0000 0000 0000
00000050: 0000 0000 0000 0000 0000 0000 0000 0000
00000060: 0000 0000 0000 0000 0000 0000 0000 0000
00000070: 0000 0000 0000 0000 0000 0000 0000 0000
00000080: 0000 0000 0000 0000 0000 0000 0000 0000
00000090: 0000 0000 0000 0000 0000 0000 0000 0000
000000a0: 0000 0000 0000 0000 0000 0000 0000 0000
000000b0: 0000 0000 0000 0000 0000 0000 0000 0000
000000c0: 0000 0000 0000 0000 0000 0000 0000 0000
000000d0: 0000 0000 0000 0000 0000 0000 0000 0000
000000e0: 0000 0000 0000 0000 0000 0000 0000 0000
000000f0: 0000 0000 0000 0000 0000 0000 0000 0000
00000100: 0000 0000 0000 0000 0000 0000 0000 0000
00000110: 0000 0000 0000 0000 0000 0000 0000 0000
0.0 0.0 0.0 0.0 0.0 0.0 0.0 0.0
0.0 0.0 0.0 0.0 0.0 0.0 0.0 0.0
0.0 0.0 0.0 0.0 0.0 0.0 0.0 0.0
0.0 0.0 0.0 0.0 0.0 0.0 0.0 0.0
0.0 0.0 0.0 0.0 0.0 0.0 0.0 0.0
0.0 0.0 0.0 0.0 0.0 0.0 0.0 0.0
0.0 0.0 0.0 0.0 0.0 0.0 0.0 0.0
0.0 0.0 0.0 0.0 0.0 0.0 0.0 0.0
0.0 0.0 0.0 0.0 0.0 0.0 0.0 0.0

running_var f4 [72]
00000000: 0000 803f 0000 803f 0000 803f 0000 803f
00000010: 0000 803f 0000 803f 0000 803f 0000 803f
00000020: 0000 803f 0000 803f 0000 803f 0000 803f
00000030: 0000 803f 0000 803f 0000 803f 0000 803f
00000040: 0000 803f 0000 803f 0000 803f 0000 803f
00000050: 0000 803f 0000 803f 0000 803f 0000 803f
00000060: 0000 803f 0000 803f 0000 803f 0000 803f
00000070: 0000 803f 0000 803f 0000 803f 0000 803f
00000080: 0000 803f 0000 803f 0000 803f 0000 803f
00000090: 0000 803f 0000 803f 0000 803f 0000 803f
000000a0: 0000 803f 0000 803f 0000 803f 0000 803f
000000b0: 0000 803f 0000 803f 0000 803f 0000 803f
000000c0: 0000 803f 0000 803f 0000 803f 0000 803f
000000d0: 0000 803f 0000 803f 0000 803f 0000 803f
000000e0: 0000 803f 0000 803f 0000 803f 0000 803f
000000f0: 0000 803f 0000 803f 0000 803f 0000 803f
00000100: 0000 803f 0000 803f 0000 803f 0000 803f
00000110: 0000 803f 0000 803f 0000 803f 0000 803f
1.0 1.0 1.0 1.0 1.0 1.0 1.0 1.0
1.0 1.0 1.0 1.0 1.0 1.0 1.0 1.0
1.0 1.0 1.0 1.0 1.0 1.0 1.0 1.0
1.0 1.0 1.0 1.0 1.0 1.0 1.0 1.0
1.0 1.0 1.0 1.0 1.0 1.0 1.0 1.0
1.0 1.0 1.0 1.0 1.0 1.0 1.0 1.0
1.0 1.0 1.0 1.0 1.0 1.0 1.0 1.0
1.0 1.0 1.0 1.0 1.0 1.0 1.0 1.0
1.0 1.0 1.0 1.0 1.0 1.0 1.0 1.0

weight f4 [72, 1, 3, 3]
00000000: 8cc2 b0bd c594 9e3e 98b5 61be 7eff 723e
00000010: 9034 fcbc b6a9 133e 386c 24bd 7263 3f3e
00000020: a81b 42be a057 16bc 8a91 723e 2061 203c
00000030: ab2c 86be b8c5 243d 20fc 2ebc d220 5f3e
00000040: c32a 77be 06e7 9fbe 7cd9 b4bd ec6a bfbd
00000050: e36d 14be 20e0 023c 980f 8fbe e064 133c
00000060: 756f a23e 3009 45be 8648 dcbd 400e 65be
00000070: eff5 87be 5c6b c83d 96ab 81be d414 aabe
00000080: 26e2 bbbd 00f4 69bb 1853 5abd a63a a7be
00000090: 389b 6abe a815 58be 363f ebbd dcb7 e63d
000000a0: 4e5d 1bbe 5284 463e 4149 a43e 4ab3 2c3e
000000b0: e29e 7b3e 43bf 7ebe 40b3 f23b b40a 973d
000000c0: 2055 063e 607c 08be 18a1 12be f009 5cbe
000000d0: 6025 993d d1cd 8d3e 5838 0ebd eb5e 79be
000000e0: c685 d7bd 9a50 683e e763 9b3e 80f1 583d
000000f0: 26b8 193e 693b 9e3e 60ff 16bc 5ca7 893d
00000100: a05a 81be 2695 53be 70fe edbd 88b0 183e
00000110: 0ebf 34be 589e 14be 94c1 81bd 35b9 863e
00000120: f851 5ebe 30c7 a1bd 6a27 1a3e f5ac 813e
00000130: 32c5 5a3e 57cb 86be 81a1 943e 51d0 803e
00000140: f2de 293e c6e9 743e f04b ecbc d013 49be
00000150: a6b0 583e 1a71 373e 7b8e a13e 2ba1 76be
00000160: 804c 00bc 08b1 39be a4c2 973d 5d60 a73e
00000170: 714d 833e baab 7a3e aa68 5d3e cb01 853e
00000180: a6f5 3a3e 1180 8f3e 6055 4abd 9083 a9bc
00000190: da05 343e 33e8 863e fa41 503e 403a e2bb
000001a0: 4049 debc dba6 6abe 4574 a83e 10d0 31be
000001b0: 52e9 753e 5b7f 22be d361 933e 8d83 a93e
000001c0: a8d4 5dbd 50be 16be 7822 88be 63fe 92be
000001d0: 505d db3d 303e a63d a0be 623d a0d4 a8be
000001e0: a005 6c3d 6674 86be f0e9 dcbd 5c79 f8bd
000001f0: b0fc d0bd 5694 4e3e 62e5 783e ee9c 76be
00000200: 2769 98be d834 3ebd 00f8 fd3b d33f 95be
00000210: c809 7e3d 3e7c 163e 45c1 893e 3dc6 923e
00000220: 0062 c93c d874 033e bb45 a0be 1426 96bd
00000230: 0335 08be f43d 853d 3f1f 8bbe 8853 72bd
00000240: 60de d73d 1c8a ae3d 28bf 44be d362 60be
00000250: e025 13bd e9ea 833e c020 b8bb 5de7 873e
00000260: 6712 8e3e 484f a3be 043e bc3d d01e 86be
00000270: c0eb ec3b f05c be3c a6c5 a3be 8607 563e
00000280: 8d4c a63e 16e1 fcbd e3eb 78be 46ed 99be
00000290: 0016 d5bd 24c2 b33d 04c6 8bbe 42ec 553e
000002a0: 9899 0cbd 081b 203d cf42 84be 409e cc3d
000002b0: 6041 453c f4cd a1be 00f3 8bbc 816a aa3e
000002c0: 563f 90be 7a84 083e 4309 98be 8c49 a03d
000002d0: 881c 43bd d796 80be 16d7 cfbd ca03 98be
000002e0: 900a bbbd 8061 c53d d93b 983e 18c1 79bd
000002f0: 001a 443c e08b 133e 5cea f73d 1398 883e
00000300: 0bed 0bbe 88b1 103d ee27 17be 8a2c 723e
00000310: b803 8fbe 00cb a83d 90cc cf3c 603c c3bd
00000320: 82fb 88be 3889 44bd b32b 46be 0c1f aa3d
00000330: 9a33 4a3e 784e 1dbe 5aae 503e 035e 94be
00000340: 661c abbd ec7e 8cbd 909e 9ebe a87e a9be
00000350: 10b2 f23d e848 163d 72ac 7e3e 40f5 953c
00000360: c306 6abe 8c6c 99be f046 a6be 8833 94be
00000370: 1923 8c3e a0c3 613c 681d 9fbe ea8f 2c3e
00000380: 8a9b 703e 4bfa 4fbe 1e7f 8cbe b47d e93d
00000390: 5e5c 6e3e b05e a0be 6fa5 96be d367 11be
000003a0: 0826 32be 528d 503e 287c 72bd 8e99 71be
000003b0: dbbd 72be b090 d73c 1293 763e 907b cbbc
000003c0: b010 f8bc 9a3c 773e ee4a 133e 001b 9c3b
000003d0: 86de 763e b1c0 8c3e 02b9 6c3e fc0c efbd
000003e0: 4440 d13d 2c02 bbbd 323a 5f3e 52c1 463e
000003f0: 806b 163e 8f3f 833e 2527 9e3e b0a0 03be
-0.08630857 0.30972877 -0.22041929 0.23730275 -0.030786783 0.14420208 -0.040142268 0.18690279
-0.18955863 -0.009176165 0.23688331 0.009788781 -0.26205954 0.04022762 -0.0106802285 0.21789864
-0.24137406 -0.31230944 -0.08830544 -0.093465656 -0.14495043 0.007988006 -0.27941585 0.008996218
0.3172566 -0.19241786 -0.1075602 -0.22368717 -0.2655482 0.09786102 -0.25326222 -0.33219016
-0.09173994 -0.0035698414 -0.0533019 -0.32661933 -0.22910774 -0.21102011 -0.11486666 0.11265537
-0.15172312 0.19386414 0.32087138 0.16865268 0.24572328 -0.24877648 0.007406622 0.07375088
0.1311841 -0.13328695 -0.14319265 -0.21488166 0.07477832 0.27696088 -0.034721702 -0.24352615
-0.10523562 0.22686997 0.30349657 0.052964687 0.15011653 0.309047 -0.00921616 0.067213744
-0.25264454 -0.20662364 -0.11620796 0.14911091 -0.17651007 -0.14513528 -0.0633575 0.26313177
-0.21710956 -0.0789932 0.15054098 0.25327268 0.21364287 -0.2632701 0.29029468 0.25158933
0.16588953 0.23917302 -0.028844804 -0.19636464 0.21161136 0.17914239 0.31554016 -0.24084918
-0.007830739 -0.18133938 0.07410172 0.32690707 0.2564502 0.24479571 0.21621957 0.2597793
0.1825777 0.28027394 -0.049397826 -0.020692617 0.17580357 0.2634903 0.20337668 -0.0069039166
-0.027134538 -0.22915213 0.32901207 -0.17364526 0.24014786 -0.15868895 0.2878557 0.33108178
-0.054157883 -0.14721036 -0.26588798 -0.28709707 0.10711157 0.0811733 0.055357575 -0.3297472
0.057622552 -0.2626068 -0.107868075 -0.121325225 -0.10204446 0.20173773 0.24306253 -0.24083301
-0.29767725 -0.046437114 0.007750511 -0.29150257 0.062021047 0.14695832 0.26905265 0.2866687
0.024582863 0.12837541 -0.313032 -0.073314816 -0.13301472 0.06505957 -0.27172276 -0.059161693
0.105404615 0.08522436 -0.19213545 -0.21912698 -0.035924792 0.2576516 -0.0056191385 0.26543704
0.27748415 -0.31896424 0.09191516 -0.26195383 0.007230252 0.023237675 -0.3198673 0.20901307
0.3248028 -0.12347619 -0.24308734 -0.30063838 -0.10404587 0.08777264 -0.2729951 0.20890906
-0.034326166 0.03908828 -0.2583222 0.09991121 0.012039512 -0.31602442 -0.017083645 0.3328438
-0.2817332 0.13331786 -0.29694566 0.07826528 -0.04763463 -0.25115082 -0.10148446 -0.2969039
-0.09132874 0.09637737 0.2973316 -0.060975164 0.0119690895 0.14408827 0.121052474 0.26678523
-0.13664643 0.035325557 -0.14761326 0.23649803 -0.27932525 0.08241844 0.025366098 -0.09533
-0.26754385 -0.047982424 -0.19352607 0.08306703 0.19746247 -0.15361965 0.2037901 -0.28977975
-0.08355026 -0.06860146 -0.3098035 -0.33104444 0.11850369 0.036690623 0.2487047 0.01830542
-0.22854142 -0.29965627 -0.32475996 -0.28945565 0.27370527 0.013779551 -0.31077123 0.16851774
0.23496833 -0.20310323 -0.27440733 0.11400929 0.23277423 -0.3132224 -0.2942309 -0.14199762
-0.1739732 0.2036641 -0.059200436 -0.23593733 -0.23705237 0.02631411 0.2407954 -0.024839193
-0.030281395 0.24144211 0.14384052 0.004763961 0.24108323 0.27490762 0.2311745 -0.116723984
0.10217336 -0.091312736 0.21799543 0.19409683 0.14689445 0.2563443 0.3088924 -0.12854266

weight f4 [72]
00000000: 0000 803f 0000 803f 0000 803f 0000 803f
00000010: 0000 803f 0000 803f 0000 803f 0000 803f
00000020: 0000 803f 0000 803f 0000 803f 0000 803f
00000030: 0000 803f 0000 803f 0000 803f 0000 803f
00000040: 0000 803f 0000 803f 0000 803f 0000 803f
00000050: 0000 803f 0000 803f 0000 803f 0000 803f
00000060: 0000 803f 0000 803f 0000 803f 0000 803f
00000070: 0000 803f 0000 803f 0000 803f 0000 803f
00000080: 0000 803f 0000 803f 0000 803f 0000 803f
00000090: 0000 803f 0000 803f 0000 803f 0000 803f
000000a0: 0000 803f 0000 803f 0000 803f 0000 803f
000000b0: 0000 803f 0000 803f 0000 803f 0000 803f
000000c0: 0000 803f 0000 803f 0000 803f 0000 803f
000000d0: 0000 803f 0000 803f 0000 803f 0000 803f
000000e0: 0000 803f 0000 803f 0000 803f 0000 803f
000000f0: 0000 803f 0000 803f 0000 803f 0000 803f
00000100: 0000 803f 0000 803f 0000 803f 0000 803f
00000110: 0000 803f 0000 803f 0000 803f 0000 803f
1.0 1.0 1.0 1.0 1.0 1.0 1.0 1.0
1.0 1.0 1.0 1.0 1.0 1.0 1.0 1.0
1.0 1.0 1.0 1.0 1.0 1.0 1.0 1.0
1.0 1.0 1.0 1.0 1.0 1.0 1.0 1.0
1.0 1.0 1.0 1.0 1.0 1.0 1.0 1.0
1.0 1.0 1.0 1.0 1.0 1.0 1.0 1.0
1.0 1.0 1.0 1.0 1.0 1.0 1.0 1.0
1.0 1.0 1.0 1.0 1.0 1.0 1.0 1.0
1.0 1.0 1.0 1.0 1.0 1.0 1.0 1.0

bias f4 [72]
00000000: 0000 0000 0000 0000 0000 0000 0000 0000
00000010: 0000 0000 0000 0000 0000 0000 0000 0000
00000020: 0000 0000 0000 0000 0000 0000 0000 0000
00000030: 0000 0000 0000 0000 0000 0000 0000 0000
00000040: 0000 0000 0000 0000 0000 0000 0000 0000
00000050: 0000 0000 0000 0000 0000 0000 0000 0000
00000060: 0000 0000 0000 0000 0000 0000 0000 0000
00000070: 0000 0000 0000 0000 0000 0000 0000 0000
00000080: 0000 0000 0000 0000 0000 0000 0000 0000
00000090: 0000 0000 0000 0000 0000 0000 0000 0000
000000a0: 0000 0000 0000 0000 0000 0000 0000 0000
000000b0: 0000 0000 0000 0000 0000 0000 0000 0000
000000c0: 0000 0000 0000 0000 0000 0000 0000 0000
000000d0: 0000 0000 0000 0000 0000 0000 0000 0000
000000e0: 0000 0000 0000 0000 0000 0000 0000 0000
000000f0: 0000 0000 0000 0000 0000 0000 0000 0000
00000100: 0000 0000 0000 0000 0000 0000 0000 0000
00000110: 0000 0000 0000 0000 0000 0000 0000 0000
0.0 0.0 0.0 0.0 0.0 0.0 0.0 0.0
0.0 0.0 0.0 0.0 0.0 0.0 0.0 0.0
0.0 0.0 0.0 0.0 0.0 0.0 0.0 0.0
0.0 0.0 0.0 0.0 0.0 0.0 0.0 0.0
0.0 0.0 0.0 0.0 0.0 0.0 0.0 0.0
0.0 0.0 0.0 0.0 0.0 0.0 0.0 0.0
0.0 0.0 0.0 0.0 0.0 0.0 0.0 0.0
0.0 0.0 0.0 0.0 0.0 0.0 0.0 0.0
0.0 0.0 0.0 0.0 0.0 0.0 0.0 0.0

running_mean f4 [72]
00000000: 0000 0000 0000 0000 0000 0000 0000 0000
00000010: 0000 0000 0000 0000 0000 0000 0000 0000
00000020: 0000 0000 0000 0000 0000 0000 0000 0000
00000030: 0000 0000 0000 0000 0000 0000 0000 0000
00000040: 0000 0000 0000 0000 0000 0000 0000 0000
00000050: 0000 0000 0000 0000 0000 0000 0000 0000
00000060: 0000 0000 0000 0000 0000 0000 0000 0000
00000070: 0000 0000 0000 0000 0000 0000 0000 0000
00000080: 0000 0000 0000 0000 0000 0000 0000 0000
00000090: 0000 0000 0000 0000 0000 0000 0000 0000
000000a0: 0000 0000 0000 0000 0000 0000 0000 0000
000000b0: 0000 0000 0000 0000 0000 0000 0000 0000
000000c0: 0000 0000 0000 0000 0000 0000 0000 0000
000000d0: 0000 0000 0000 0000 0000 0000 0000 0000
000000e0: 0000 0000 0000 0000 0000 0000 0000 0000
000000f0: 0000 0000 0000 0000 0000 0000 0000 0000
00000100: 0000 0000 0000 0000 0000 0000 0000 0000
00000110: 0000 0000 0000 0000 0000 0000 0000 0000
0.0 0.0 0.0 0.0 0.0 0.0 0.0 0.0
0.0 0.0 0.0 0.0 0.0 0.0 0.0 0.0
0.0 0.0 0.0 0.0 0.0 0.0 0.0 0.0
0.0 0.0 0.0 0.0 0.0 0.0 0.0 0.0
0.0 0.0 0.0 0.0 0.0 0.0 0.0 0.0
0.0 0.0 0.0 0.0 0.0 0.0 0.0 0.0
0.0 0.0 0.0 0.0 0.0 0.0 0.0 0.0
0.0 0.0 0.0 0.0 0.0 0.0 0.0 0.0
0.0 0.0 0.0 0.0 0.0 0.0 0.0 0.0

running_var f4 [72]
00000000: 0000 803f 0000 803f 0000 803f 0000 803f
00000010: 0000 803f 0000 803f 0000 803f 0000 803f
00000020: 0000 803f 0000 803f 0000 803f 0000 803f
00000030: 0000 803f 0000 803f 0000 803f 0000 803f
00000040: 0000 803f 0000 803f 0000 803f 0000 803f
00000050: 0000 803f 0000 803f 0000 803f 0000 803f
00000060: 0000 803f 0000 803f 0000 803f 0000 803f
00000070: 0000 803f 0000 803f 0000 803f 0000 803f
00000080: 0000 803f 0000 803f 0000 803f 0000 803f
00000090: 0000 803f 0000 803f 0000 803f 0000 803f
000000a0: 0000 803f 0000 803f 0000 803f 0000 803f
000000b0: 0000 803f 0000 803f 0000 803f 0000 803f
000000c0: 0000 803f 0000 803f 0000 803f 0000 803f
000000d0: 0000 803f 0000 803f 0000 803f 0000 803f
000000e0: 0000 803f 0000 803f 0000 803f 0000 803f
000000f0: 0000 803f 0000 803f 0000 803f 0000 803f
00000100: 0000 803f 0000 803f 0000 803f 0000 803f
00000110: 0000 803f 0000 803f 0000 803f 0000 803f
1.0 1.0 1.0 1.0 1.0 1.0 1.0 1.0
1.0 1.0 1.0 1.0 1.0 1.0 1.0 1.0
1.0 1.0 1.0 1.0 1.0 1.0 1.0 1.0
1.0 1.0 1.0 1.0 1.0 1.0 1.0 1.0
1.0 1.0 1.0 1.0 1.0 1.0 1.0 1.0
1.0 1.0 1.0 1.0 1.0 1.0 1.0 1.0
1.0 1.0 1.0 1.0 1.0 1.0 1.0 1.0
1.0 1.0 1.0 1.0 1.0 1.0 1.0 1.0
1.0 1.0 1.0 1.0 1.0 1.0 1.0 1.0

weight f4 [32, 72, 1, 1]
00000000: c654 15bd acce 61bd 048c cc3c 0305 b03d
00000010: 72dc 753d 8e05 3b3d 3d92 9f3d 9416 f83c
00000020: 4325 833d 9611 603d 07a7 8cbd 809e ddbd
00000030: d8a9 cdbc 5628 eabd e68a 7a3d 6449 21bd
00000040: 3a04 2b3d 3b73 cbbd 8bd9 a63d b184 a43d
00000050: d41b 06bd a155 e33d 6850 66bd 2bd5 d33d
00000060: f05c 10bc 01a2 de3d 5e3d 5cbd 08f6 553c
00000070: 6a2d ddbd 1840 2c3c 1406 8fbc 09d8 bb3d
00000080: ed01 8a3d 4d3e 913d f681 97bd a193 853d
00000090: cf68 e23d b45f 8a3c 42a7 11bd a76c b83d
000000a0: c8ff 3b3c e750 833d 51af 8b3d 245c 4fbd
000000b0: 9b64 83bd a581 d43d 6d83 ef3d 9866 203c
000000c0: 6ff6 e13d 7730 cd3d 827b 7a3d 40bd 41bd
000000d0: 699f 983d 5014 b03b ae72 3e3d 128c 93bd
000000e0: a39e 9f3d d2ac a3bd d079 b4bd 9e23 063d
000000f0: 5025 aebb d0ac 3ebc 584b 043c ee59 38bd
00000100: 8522 d63d 466b bfbd d65c cdbd d69a cbbd
00000110: 6d42 ca3d 1d0e b8bd 7ece 0b3d 3da9 b53d
00000120: f8d5 a8bd 0e6f bcbd e2be 783d f264 efbd
00000130: e324 b03d cf36 8e3d 6738 ab3d b7c2 e3bd
00000140: 4873 693c e98d d53d 131f 9b3d 7b11 d73d
00000150: 7807 113c 9fe5 9f3d 319a 813d 1426 8a3c
00000160: b61a 4f3d 7c76 56bd 0b1d 84bd 3a9e c2bd
00000170: 3b14 cfbd 30b8 93bd 1c73 b1bc ff7f e93d
00000180: ceb6 eebd d00e b5bd 263f 46bd 5136 b93d
00000190: b95f ae3d a632 84bd 9615 4d3d bcb1 60bd
000001a0: 2c06 12bd 5e3a 623d ee4b 0e3d 84de 93bc
000001b0: c373 8e3d 57ee 9b3d 0109 e63d f787 a23d
000001c0: 2743 ecbd 7a42 573d 36b9 46bd c321 ae3d
000001d0: ae9e 4d3d 48e0 41bd 6824 31bc c648 1d3d
000001e0: 5eab 783d 997b 883d 6aaf 9abd 94be 81bd
000001f0: 6999 e53d 728d 38bd f5b6 c73d f399 d4bd
00000200: 8e59 8bbd ccee 28bd 0059 1a3a a0da 82bd
00000210: 68e0 733c 3f1f a03d 8e3f 8cbd 820c 693d
00000220: 3807 633c 4cd6 dfbd a622 f0bd 7247 98bd
00000230: 72f6 063d b8e7 cfbc d4a5 4fbd 36fa 25bd
00000240: b7f8 833d 529a 2a3d 9649 173d 4049 60bc
00000250: 2fed b73d 039b d5bd 71b4 863d 08be d0bc
00000260: a6de 0abd 3746 83bd d089 a33b 5da9 ca3d
00000270: 0ddd a03d 761c 74bd 10b8 15bc b838 023c
00000280: 7906 ce3d 3cca b6bc f206 60bd 0410 b5bd
00000290: 3e3b d1bd 34ea cfbd 9d29 8b3d 2411 62bd
000002a0: 64d2 983c f23b 35bd 9a6d 0c3d 2253 f1bd
000002b0: 78d3 bcbc 4fc3 f03d b909 e13d 7af8 4f3d
000002c0: e175 c13d 5acf 77bd bb8c d33d 88f8 7dbc
000002d0: c73d 833d a6a8 60bd 817e b13d 94a5 fe3c
000002e0: cc81 9cbc 5e0d 8bbd 9362 c9bd 4c02 ed3c
000002f0: 7ab0 00bd 78ea 39bc cce2 f8bc 7b1e eb3d
00000300: c30c c33d 5500 963d ff6d 913d c6a4 85bd
00000310: 2beb e63d 3c76 65bd a404 74bd 80fb 8fbd
00000320: 505b aebb f97c 803d 651b 953d df5f b8bd
00000330: 2a57 42bd 8afe 8abd 1f81 ee3d 8212 243d
00000340: 6f40 8f3d 8c79 f4bc 7b26 bd3d d855 35bd
00000350: 4c3b bcbc aa8f 183d 9b71 eebd 9029 c3bb
00000360: c319 b7bd fb64 df3d 4079 87bd 4288 30bd
00000370: 349a 85bd 80f6 c7bc 391d b13d b21c 99bd
00000380: 235e b23d 29da 863d 34d6 fe3c 28f8 30bd
00000390: 08ac 65bd 1be2 e13d bec6 7c3d 4aaf 243d
000003a0: 3d12 ca3d d2eb cebd 0305 b83d 288e e9bd
000003b0: 4810 cbbd 58c2 69bc 7989 803d 5159 893d
000003c0: 66fc 8bbd e0cc 96bb ccc5 91bd 24ff ed3c
000003d0: f8e2 5cbc ead5 543d 1db1 6cbd 22ab 9fbd
000003e0: 9cde a5bc ce12 b2bd 282a c0bd 56ae 6b3d
000003f0: 8041 54bd d1ef a73d 2dfd ac3d 48eb 2f3c
-0.0364578 -0.05512874 0.024969108 0.08594706 0.060024686 0.045659594 0.077915646 0.030284204
0.064035915 0.05470427 -0.068677954 -0.10821247 -0.025105402 -0.11433475 0.06116762 -0.03937663
0.041752078 -0.09934088 0.08146962 0.080331214 -0.032741383 0.11100317 -0.056229025 0.10343393
-0.0088112205 0.108707435 -0.05376946 0.013059147 -0.10799678 0.010513328 -0.017458953 0.09172065
0.067386486 0.07091961 -0.07397835 0.065222986 0.11055147 0.016891338 -0.0355599 0.09005099
0.011474557 0.06411915 0.06820548 -0.05062498 -0.06415673 0.1037629 0.11694989 0.009790085
0.110333316 0.100190096 0.061152942 -0.047299623 0.0745228 0.005373515 0.046496086 -0.07204451
0.077939294 -0.07991947 -0.088122964 0.03274881 -0.0053145066 -0.011637881 0.008074604 -0.04500764
0.10455803 -0.09346633 -0.10027473 -0.09941642 0.09875951 -0.08987067 0.034132473 0.0887017
-0.08243936 -0.092008695 0.060728915 -0.11689176 0.086007856 0.06944048 0.08360367 -0.11121123
0.014248677 0.10427458 0.07574286 0.10501381 0.008851878 0.078074686 0.06328238 0.01686386
0.050562583 -0.05235909 -0.06450852 -0.095028356 -0.101112805 -0.07212865 -0.021661334 0.114013664
-0.11655961 -0.08840716 -0.048400067 0.09043563 0.085143514 -0.06454973 0.050069414 -0.054857
-0.035650417 0.055231445 0.03474038 -0.01805044 0.069556735 0.07613819 0.11232186 0.079360895
-0.11536246 0.05255363 -0.048516475 0.08502533 0.050200157 -0.047333032 -0.010811903 0.03839948
0.060710303 0.066641994 -0.07552989 -0.06335178 0.11210901 -0.045056768 0.09751693 -0.10380926
-0.068041906 -0.04124336 0.0005887896 -0.06389356 0.014885046 0.0781846 -0.068480596 0.056896694
0.013856702 -0.10929546 -0.11725359 -0.07435502 0.032949872 -0.025379047 -0.050695255 -0.040521823
0.06443923 0.041651078 0.03693541 -0.013689339 0.08980786 -0.10429957 0.06577385 -0.025481239
-0.03390374 -0.06409877 0.0049907938 0.09895585 0.07854662 -0.059597455 -0.009138122 0.007948093
0.10059828 -0.02231323 -0.054694124 -0.08840945 -0.10216378 -0.101520926 0.067950465 -0.055192128
0.01865501 -0.04424662 0.03428421 -0.117834345 -0.023050055 0.11756002 0.109881826 0.050774075
0.09446312 -0.06050048 0.103295766 -0.015501149 0.064082675 -0.054848336 0.08666707 0.031084813
-0.01910486 -0.06789659 -0.09833255 0.02893176 -0.0314183 -0.011347406 -0.030381583 0.11480423
0.095239185 0.07324282 0.07101058 -0.06525569 0.112753235 -0.05602096 -0.05957474 -0.07030392
-0.005320944 0.06273837 0.07280616 -0.09002661 -0.047446407 -0.06786831 0.11645722 0.040056713
0.069947116 -0.029843114 0.09235855 -0.04427132 -0.022977494 0.037246384 -0.11642762 -0.0059558824
-0.089404605 0.10907932 -0.066149235 -0.043098696 -0.065235525 -0.024409533 0.08648152 -0.07476176
0.087093614 0.065845795 0.031108 -0.04320541 -0.056072265 0.11029454 0.061712973 0.04020623
0.0986676 -0.10103573 0.08985331 -0.11404067 -0.09915215 -0.014267527 0.06276221 0.06706489
-0.068352506 -0.0046020597 -0.07117805 0.029052325 -0.013481848 0.051961817 -0.057786096 -0.07796313
-0.02024775 -0.08694993 -0.09383041 0.057539307 -0.05182028 0.08200038 0.08446727 0.010737248

weight f4 [32]
00000000: 0000 803f 0000 803f 0000 803f 0000 803f
00000010: 0000 803f 0000 803f 0000 803f 0000 803f
00000020: 0000 803f 0000 803f 0000 803f 0000 803f
00000030: 0000 803f 0000 803f 0000 803f 0000 803f
00000040: 0000 803f 0000 803f 0000 803f 0000 803f
00000050: 0000 803f 0000 803f 0000 803f 0000 803f
00000060: 0000 803f 0000 803f 0000 803f 0000 803f
00000070: 0000 803f 0000 803f 0000 803f 0000 803f
1.0 1.0 1.0 1.0 1.0 1.0 1.0 1.0
1.0 1.0 1.0 1.0 1.0 1.0 1.0 1.0
1.0 1.0 1.0 1.0 1.0 1.0 1.0 1.0
1.0 1.0 1.0 1.0 1.0 1.0 1.0 1.0

bias f4 [32]
00000000: 0000 0000 0000 0000 0000 0000 0000 0000
00000010: 0000 0000 0000 0000 0000 0000 0000 0000
00000020: 0000 0000 0000 0000 0000 0000 0000 0000
00000030: 0000 0000 0000 0000 0000 0000 0000 0000
00000040: 0000 0000 0000 0000 0000 0000 0000 0000
00000050: 0000 0000 0000 0000 0000 0000 0000 0000
00000060: 0000 0000 0000 0000 0000 0000 0000 0000
00000070: 0000 0000 0000 0000 0000 0000 0000 0000
0.0 0.0 0.0 0.0 0.0 0.0 0.0 0.0
0.0 0.0 0.0 0.0 0.0 0.0 0.0 0.0
0.0 0.0 0.0 0.0 0.0 0.0 0.0 0.0
0.0 0.0 0.0 0.0 0.0 0.0 0.0 0.0

running_mean f4 [32]
00000000: 0000 0000 0000 0000 0000 0000 0000 0000
00000010: 0000 0000 0000 0000 0000 0000 0000 0000
00000020: 0000 0000 0000 0000 0000 0000 0000 0000
00000030: 0000 0000 0000 0000 0000 0000 0000 0000
00000040: 0000 0000 0000 0000 0000 0000 0000 0000
00000050: 0000 0000 0000 0000 0000 0000 0000 0000
00000060: 0000 0000 0000 0000 0000 0000 0000 0000
00000070: 0000 0000 0000 0000 0000 0000 0000 0000
0.0 0.0 0.0 0.0 0.0 0.0 0.0 0.0
0.0 0.0 0.0 0.0 0.0 0.0 0.0 0.0
0.0 0.0 0.0 0.0 0.0 0.0 0.0 0.0
0.0 0.0 0.0 0.0 0.0 0.0 0.0 0.0

running_var f4 [32]
00000000: 0000 803f 0000 803f 0000 803f 0000 803f
00000010: 0000 803f 0000 803f 0000 803f 0000 803f
00000020: 0000 803f 0000 803f 0000 803f 0000 803f
00000030: 0000 803f 0000 803f 0000 803f 0000 803f
00000040: 0000 803f 0000 803f 0000 803f 0000 803f
00000050: 0000 803f 0000 803f 0000 803f 0000 803f
00000060: 0000 803f 0000 803f 0000 803f 0000 803f
00000070: 0000 803f 0000 803f 0000 803f 0000 803f
1.0 1.0 1.0 1.0 1.0 1.0 1.0 1.0
1.0 1.0 1.0 1.0 1.0 1.0 1.0 1.0
1.0 1.0 1.0 1.0 1.0 1.0 1.0 1.0
1.0 1.0 1.0 1.0 1.0 1.0 1.0 1.0
