Quantization_Compilation/blocks_quantization_vitis_ai_3.0/float/ResidualBlock-in_24x112x112-out_32-k_7-e_3-s_2-act_relu-use_se_False.pth (torch, 44702 bytes, 15 tensors)

weight f4 [72, 24, 1, 1]
0.062152773 -0.059903175 -0.051841557 0.1811113 0.031548128 0.17089573 -0.0404678 -0.14542007
-0.05698581 0.098525286 -0.091494285 -0.18406844 0.14096716 -0.03718178 -0.06416416 -0.092911124
0.18854052 0.1327059 0.15561411 0.06784311 -0.1075202 -0.11921814 -0.15730643 0.1497193
-0.05320728 -0.0077412575 0.0858905 -0.091618285 0.16796625 -0.03685057 -0.12434934 0.13739824
0.03354034 -0.04999791 0.083848536 -0.095642075 0.01335004 -0.13462445 0.053703994 -0.059991434
-0.13363299 0.16657192 -0.17293781 0.077968985 0.0877327 -0.15620998 -0.1177774 0.10919154
0.16484961 0.12087554 0.11671579 0.17653981 -0.018160596 -0.19529039 -0.006703168 -0.029653892
-0.1507752 -0.10820485 0.011655211 -0.18023172 0.049651146 0.08242974 -0.13195848 0.1780537
0.09735975 -0.09298381 0.14664423 -0.11405625 0.02046746 -0.01217027 -0.045076832 -0.17158224
0.025760636 0.1389645 -0.0008764416 0.13727239 0.18050265 0.17118466 0.12219027 -0.10884441
-0.025194481 0.18789408 0.12587649 0.13508451 -0.02957435 0.00024268031 -0.17759171 0.059073716
-0.0508454 0.18332568 0.15839773 -0.17066805 -0.16721314 0.09783858 -0.10786758 0.19581118
-0.065501556 -0.068995655 -0.033484757 -0.06864567 0.01631853 0.18365133 -0.08561984 0.16501603
-0.10546886 -0.106889844 0.112394124 0.0032334328 0.16897029 -0.020282194 0.005069807 0.12238115
0.1500228 -0.1355131 -0.014447331 -0.15707047 -0.051163286 0.12174657 -0.0970064 -0.08181853
0.07167429 0.03516911 0.16341338 0.1765829 -0.115362495 -0.08932354 0.14192024 -0.17265075
-0.19002426 -0.018887997 -0.097121745 -0.09907502 0.16302112 0.18835482 0.025553241 -0.14789411
-0.08623258 -0.18322131 -0.058388606 -0.027109697 0.029887438 0.20074323 0.106319964 0.16124979
0.038233563 0.070354134 0.084717244 0.05359164 -0.09654813 0.12553298 0.13790902 -0.19827808
-0.18837795 0.18701851 0.09103152 0.13819456 -0.11549314 -0.0071253777 -0.12815379 -0.10551084
0.13876328 0.08056468 -0.046418115 0.038689747 -0.0011035204 -0.032570705 -0.08931775 0.15699911
-0.07510619 -0.0019472092 0.014552891 -0.1069725 -0.043074787 -0.15013313 -0.13808158 -0.031850472
-0.15978317 0.06276408 0.19651988 -0.18208481 0.10008913 -0.01375176 -0.12036233 -0.14803562
-0.18215077 0.19561452 0.07927042 0.016761497 -0.12473783 -0.17949463 0.20150274 -0.18538517
0.011829928 0.14718309 -0.028803796 0.06559336 -0.19644594 -0.1800228 -0.04817134 0.16248965
-0.06746721 -0.040013045 0.10777646 -0.02860853 -0.17092517 -0.00028197467 -0.0580841 0.027490035
-0.13267061 -0.11390224 0.019171655 -0.08858314 0.16538247 -0.19228745 0.109980345 -0.15096873
-0.117386535 -0.1417337 -0.13911666 -0.057231024 -0.11514445 -0.1066704 0.11274749 -0.13367698
0.13348758 0.15554541 -0.13657092 -0.17960261 -0.14726485 -0.08455736 -0.17798358 0.107976586
0.003453806 0.12012616 -0.07504058 0.19659895 0.14017874 -0.19229606 0.1943785 -0.14038035
0.17967513 0.028644145 0.043505535 -0.17302181 -0.1700038 -0.1890702 -0.20357239 0.10816118
0.035333008 -0.077182665 -0.10757517 0.0920856 0.08576265 -0.04585649 -0.056693107 -0.111099124
00000000: e893 7e3d 085d 75bd d057 54bd 3e75 393e
00000010: 9c38 013d 4aff 2e3e 90c1 25bd 00e9 14be
00000020: f469 69bd a0c7 c93d 5b61 bbbd 707c 3cbe
00000030: b259 103e ec4b 18bd 8068 83bd 3048 bebd
00000040: c410 413e 0ee4 073e 4e59 1f3e 54f1 8a3d
00000050: 8d33 dcbd a428 f4bd f014 21be 0450 193e
00000060: e0ef 59bd 60aa fdbb 5ce7 af3d 5ea2 bbbd
00000070: 58ff 2b3e a0f0 16bd deaa febd 20b2 0c3e
00000080: 9861 093d 9cca 4cbd c8b8 ab3d fedf c3bd
00000090: 20ba 5a3c feda 09be b8f8 5b3d 94b9 75bd
000000a0: 16d7 08be d491 2a3e 9c16 31be 34ae 9f3d
000000b0: 34ad b33d 82f5 1fbe 4735 f1bd d09f df3d
000000c0: 56ce 283e 988d f73d b008 ef3d dac6 343e
000000d0: 88c5 94bc 34fa 47be 40a6 dbbb b8ec f2bc
000000e0: d064 1abe 819a ddbd 80f5 3e3c aa8e 38be
000000f0: 005f 4b3d ecd0 a83d 2020 07be b653 363e
00000100: 8c64 c73d 4c6e bebd e829 163e 5396 e9bd
00000110: 60ab a73c d065 47bc 7ca2 38bd 41b3 2fbe
00000120: f807 d33c b64c 0e3e 00c1 65ba 2291 0c3e
00000130: b0d5 383e 084b 2f3e e43e fa3d d1e9 debd
00000140: a864 cebc 4e67 403e c4e5 003e 9853 0a3e
00000150: e845 f2bc 0078 7e39 9ada 35be 48f7 713d
00000160: 4443 50bd bab9 3b3e 0433 223e 9bc3 2ebe
00000170: ec39 2bbe 985f c83d aee9 dcbd ba82 483e
00000180: ae25 86bd 984d 8dbd 5027 09bd 1a96 8cbd
00000190: 70ae 853c 180f 3c3e 7459 afbd f6f9 283e
000001a0: 0f00 d8bd 10e9 dabd e42e e63d 00e8 533b
000001b0: 8c06 2d3e d826 a6bc a020 a63b f8a2 fa3d
000001c0: 949f 193e f2c3 0abe 80b4 6cbc 15d7 20be
000001d0: 9890 51bd 4456 f93d 4bab c6bd 7990 a7bd
000001e0: f8c9 923d 7c0d 103d d655 273e 26d2 343e
000001f0: 2c43 ecbd 43ef b6bd 8a53 113e 5ccb 30be
00000200: b895 42be 00bb 9abc c4e7 c6bd d8e7 cabd
00000210: 02ef 263e 16e0 403e 0855 d13c 8e71 17be
00000220: b59a b0bd 5e9e 3bbe e428 6fbd 2815 debc
00000230: 80d6 f43c a28f 4d3e 48be d93d aa1e 253e
00000240: cc9a 1c3d d415 903d 3c80 ad3d e882 5b3d
00000250: 07bb c5bd b88b 003e 0638 0d3e 6909 4bbe
00000260: 26e6 40be c881 3f3e bc6e ba3d e082 0d3e
00000270: ab87 ecbd 007c e9bb bf3a 03be 1116 d8bd
00000280: f617 0e3e 18ff a43d ec20 3ebd 2479 1e3d
00000290: 00a4 90ba dc68 05bd 39ec b6bd 60c4 203e
000002a0: 46d1 99bd 8039 ffba 406f 6e3c 6614 dbbd
000002b0: 306f 30bd 80bc 19be 4265 0dbe a475 02bd
000002c0: 339e 23be 748a 803d 823c 493e 7174 3abe
000002d0: 88fb cc3d 104f 61bc 8680 f6bd a696 17be
000002e0: bb85 3abe 2c4f 483e 8858 a23d 684f 893c
000002f0: 8c76 ffbd 71cd 37be bc56 4e3e 9cd5 3dbe
00000300: 50d2 413c 2ab7 163e f0f5 ebbc d055 863d
00000310: 2029 49be e657 38be 504f 45bd b063 263e
00000320: 402c 8abd b8e4 23bd e8b9 dc3d 705c eabc
00000330: 0207 2fbe 00d6 93b9 98e9 6dbd c832 e13c
00000340: ceda 07be 9445 e9bd e00d 9d3c 146b b5bd
00000350: 065a 293e 00e7 44be 603d e13d 8c97 1abe
00000360: 5a68 f0bd a422 11be 9974 0ebe 146b 6abd
00000370: dad0 ebbd 0376 dabd 28e8 e63d 9ee2 08be
00000380: f8b0 083e 4c47 1f3e 3fd9 0bbe bfe9 37be
00000390: 99cc 16be 692c adbd 5441 36be d422 dd3d
000003a0: 4059 623b b404 f63d e0ae 99bd 3c51 493e
000003b0: 048b 0f3e 42e9 44be 280b 473e debf 0fbe
000003c0: c2fc 373e 20a7 ea3c dc32 323d a12c 31be
000003d0: 7a15 2ebe 9e9b 41be 4875 50be 9c83 dd3d
000003e0: 58b9 103d f211 9ebd 5f50 dcbd 6097 bc3d
000003f0: 54a4 af3d 04d4 3bbd 0837 68bd f087 e3bd

weight f4 [72]
1.0 1.0 1.0 1.0 1.0 1.0 1.0 1.0
1.0 1.0 1.0 1.0 1.0 1.0 1.0 1.0
1.0 1.0 1.0 1.0 1.0 1.0 1.0 1.0
1.0 1.0 1.0 1.0 1.0 1.0 1.0 1.0
1.0 1.0 1.0 1.0 1.0 1.0 1.0 1.0
1.0 1.0 1.0 1.0 1.0 1.0 1.0 1.0
1.0 1.0 1.0 1.0 1.0 1.0 1.0 1.0
1.0 1.0 1.0 1.0 1.0 1.0 1.0 1.0
1.0 1.0 1.0 1.0 1.0 1.0 1.0 1.0
00000000: 0000 803f 0000 803f 0000 803f 0000 803f
00000010: 0000 803f 0000 803f 0000 803f 0000 803f
00000020: 0000 803f 0000 803f 0000 803f 0000 803f
00000030: 0000 803f 0000 803f 0000 803f 0000 803f
00000040: 0000 803f 0000 803f 0000 803f 0000 803f
00000050: 0000 803f 0000 803f 0000 803f 0000 803f
00000060: 0000 803f 0000 803f 0000 803f 0000 803f
00000070: 0000 803f 0000 803f 0000 803f 0000 803f
00000080: 0000 803f 0000 803f 0000 803f 0000 803f
00000090: 0000 803f 0000 803f 0000 803f 0000 803f
000000a0: 0000 803f 0000 803f 0000 803f 0000 803f
000000b0: 0000 803f 0000 803f 0000 803f 0000 803f
000000c0: 0000 803f 0000 803f 0000 803f 0000 803f
000000d0: 0000 803f 0000 803f 0000 803f 0000 803f
000000e0: 0000 803f 0000 803f 0000 803f 0000 803f
000000f0: 0000 803f 0000 803f 0000 803f 0000 803f
00000100: 0000 803f 0000 803f 0000 803f 0000 803f
00000110: 0000 803f 0000 803f 0000 803f 0000 803f

bias f4 [72]
0.0 0.0 0.0 0.0 0.0 0.0 0.0 0.0
0.0 0.0 0.0 0.0 0.0 0.0 0.0 0.0
0.0 0.0 0.0 0.0 0.0 0.0 0.0 0.0
0.0 0.0 0.0 0.0 0.0 0.0 0.0 0.0
0.0 0.0 0.0 0.0 0.0 0.0 0.0 0.0
0.0 0.0 0.0 0.0 0.0 0.0 0.0 0.0
0.0 0.0 0.0 0.0 0.0 0.0 0.0 0.0
0.0 0.0 0.0 0.0 0.0 0.0 0.0 0.0
0.0 0.0 0.0 0.0 0.0 0.0 0.0 0.0
00000000: 0000 0000 0000 0000 0000 0000 0000 0000
00000010: 0000 0000 0000 0000 0000 0000 0000 0000
00000020: 0000 0000 0000 0000 0000 0000 0000 0000
00000030: 0000 0000 0000 0000 0000 0000 0000 0000
00000040: 0000 0000 0000 0000 0000 0000 0000 0000
00000050: 0000 0000 0000 0000 0000 0000 0000 0000
00000060: 0000 0000 0000 0000 0000 0000 0000 0000
00000070: 0000 0000 0000 0000 0000 0000 0000 0000
00000080: 0000 0000 0000 0000 0000 0000 0000 0000
00000090: 0000 0000 0000 0000 0000 0000 0000 0000
000000a0: 0000 0000 0000 0000 0000 0000 0000 0000
000000b0: 0000 0000 0000 0000 0000 0000 0000 0000
000000c0: 0000 0000 0000 0000 0000 0000 0000 0000
000000d0: 0000 0000 0000 0000 0000 0000 0000 0000
000000e0: 0000 0000 0000 0000 0000 0000 0000 0000
000000f0: 0000 0000 0000 0000 0000 0000 0000 0000
00000100: 0000 0000 0000 0000 0000 0000 0000 0000
00000110: 0000 0000 0000 0000 0000 0000 0000 0000

running_mean f4 [72]
0.0 0.0 0.0 0.0 0.0 0.0 0.0 0.0
0.0 0.0 0.0 0.0 0.0 0.0 0.0 0.0
0.0 0.0 0.0 0.0 0.0 0.0 0.0 0.0
0.0 0.0 0.0 0.0 0.0 0.0 0.0 0.0
0.0 0.0 0.0 0.0 0.0 0.0 0.0 0.0
0.0 0.0 0.0 0.0 0.0 0.0 0.0 0.0
0.0 0.0 0.0 0.0 0.0 0.0 0.0 0.0
0.0 0.0 0.0 0.0 0.0 0.0 0.0 0.0
0.0 0.0 0.0 0.0 0.0 0.0 0.0 0.0
00000000: 0000 0000 0000 0000 0000 0000 0000 0000
00000010: 0000 0000 0000 0000 0000 0000 0000 0000
00000020: 0000 0000 0000 0000 0000 0000 0000 0000
00000030: 0000 0000 0000 0000 0000 0000 0000 0000
00000040: 0000 0000 0000 0000 0000 0000 0000 0000
00000050: 0000 0000 0000 0000 0000 0000 0000 0000
00000060: 0000 0000 0000 0000 0000 0000 0000 0000
00000070: 0000 0000 0000 0000 0000 0000 0000 0000
00000080: 0000 0000 0000 0000 0000 0000 0000 0000
00000090: 0000 0000 0000 0000 0000 0000 0000 0000
000000a0: 0000 0000 0000 0000 0000 0000 0000 0000
000000b0: 0000 0000 0000 0000 0000 0000 0000 0000
000000c0: 0000 0000 0000 0000 0000 0000 0000 0000
000000d0: 0000 0000 0000 0000 0000 0000 0000 0000
000000e0: 0000 0000 0000 0000 0000 0000 0000 0000
000000f0: 0000 0000 0000 0000 0000 0000 0000 0000
00000100: 0000 0000 0000 0000 0000 0000 0000 0000
00000110: 0000 0000 0000 0000 0000 0000 0000 0000

running_var f4 [72]
1.0 1.0 1.0 1.0 1.0 1.0 1.0 1.0
1.0 1.0 1.0 1.0 1.0 1.0 1.0 1.0
1.0 1.0 1.0 1.0 1.0 1.0 1.0 1.0
1.0 1.0 1.0 1.0 1.0 1.0 1.0 1.0
1.0 1.0 1.0 1.0 1.0 1.0 1.0 1.0
1.0 1.0 1.0 1.0 1.0 1.0 1.0 1.0
1.0 1.0 1.0 1.0 1.0 1.0 1.0 1.0
1.0 1.0 1.0 1.0 1.0 1.0 1.0 1.0
1.0 1.0 1.0 1.0 1.0 1.0 1.0 1.0
00000000: 0000 803f 0000 803f 0000 803f 0000 803f
00000010: 0000 803f 0000 803f 0000 803f 0000 803f
00000020: 0000 803f 0000 803f 0000 803f 0000 803f
00000030: 0000 803f 0000 803f 0000 803f 0000 803f
00000040: 0000 803f 0000 803f 0000 803f 0000 803f
00000050: 0000 803f 0000 803f 0000 803f 0000 803f
00000060: 0000 803f 0000 803f 0000 803f 0000 803f
00000070: 0000 803f 0000 803f 0000 803f 0000 803f
00000080: 0000 803f 0000 803f 0000 803f 0000 803f
00000090: 0000 803f 0000 803f 0000 803f 0000 803f
000000a0: 0000 803f 0000 803f 0000 803f 0000 803f
000000b0: 0000 803f 0000 803f 0000 803f 0000 803f
000000c0: 0000 803f 0000 803f 0000 803f 0000 803f
000000d0: 0000 803f 0000 803f 0000 803f 0000 803f
000000e0: 0000 803f 0000 803f 0000 803f 0000 803f
000000f0: 0000 803f 0000 803f 0000 803f 0000 803f
00000100: 0000 803f 0000 803f 0000 803f 0000 803f
00000110: 0000 803f 0000 803f 0000 803f 0000 803f

weight f4 [72, 1, 7, 7]
0.12852685 0.047589898 0.031369507 0.02806139 -0.1335009 0.07924259 -0.11154826 -0.025608152
0.011515647 -0.055426188 -0.121697076 -0.0562433 0.095129415 0.026455551 0.011981979 0.028922096
-0.061431736 0.088904634 -0.01542522 0.11974917 0.005462855 0.09581952 -0.03996616 0.04678701
0.013697743 0.120338395 0.0321749 -0.13645259 -0.11072421 0.082784 -0.017499015 -0.07955722
-0.110423565 -0.0138537735 0.13101251 0.0756824 -0.023947664 0.07690333 -0.08835733 -0.120977
-0.04507842 0.026318774 0.016728416 -0.010287657 -0.12761 -0.040390424 0.013341904 -0.050846085
0.12582563 -0.09853214 0.022230357 -0.10788727 -0.12643489 -0.041137576 -0.12321689 -0.123111546
-0.09196061 -0.061984733 0.06365071 -0.059497938 0.0036574155 -0.06928298 -0.1383512 -0.04675792
0.024761543 0.07959916 -0.030903883 -0.01847259 -0.001846388 0.007972926 0.032571375 -0.11706334
-0.002395466 0.10482073 0.042972818 -0.11738044 -0.0870976 0.089947075 -0.041852713 -0.13613668
0.020818502 -0.12343298 0.018142194 -0.043672174 -0.06940692 -0.02436015 0.073908255 -0.042162456
0.0794732 0.07934703 0.036928684 0.060573474 0.018983528 -0.083859585 -0.0026777983 0.030843973
0.091008276 0.031029925 0.1337318 -0.012668461 0.024514541 -0.10893653 -0.006335646 -0.13721907
-0.048650198 -0.1203684 0.01518859 0.11100273 -0.11411729 0.107814774 0.11252262 -0.0003183931
-0.053363018 -0.13849421 0.10928653 0.09227575 0.093209 -0.09277211 -0.13694873 0.041466534
0.0637413 -0.04744024 -0.13348693 -0.14048105 0.059826463 -0.09390734 0.08301987 -0.10790117
-0.11554482 -0.037874207 -0.00792174 0.038775593 0.08456147 -0.098830484 0.015549317 0.07836354
-0.0073623806 0.12270756 -0.10857105 0.026266202 0.041392997 0.073262304 0.0352 0.12112729
-0.12743168 0.12607019 0.0072923005 -0.13925914 0.05525133 -0.030020513 0.08880982 -0.035179973
-0.052269407 -0.06228844 0.038983703 0.13138355 0.10997574 -0.0748862 0.07368909 -0.12716456
-0.04187034 -0.08646848 0.06575818 -0.13408993 0.055859804 0.013059884 -0.010627493 -0.1197723
-0.07543883 0.041106656 -0.0018961728 0.07554269 -0.122826636 -0.06748472 0.06838378 -0.1324368
-0.10765797 0.08160591 0.11232303 -0.018292122 -0.020405836 0.0248041 -0.12218937 0.086662754
0.018652648 0.09224248 -0.05483786 -0.06954687 0.015686601 -0.027363792 0.0362605 0.008638293
-0.118704975 0.09015767 -0.07283094 0.002156943 -0.13219166 -0.09018895 -0.09542813 -0.0880057
0.02301848 -0.08807486 0.022669986 0.084469736 -0.12846598 0.025403991 -0.12918743 -0.04498133
0.09331256 -0.11932554 0.025359243 0.0968191 -0.0848456 -0.13532625 -0.009885833 0.13779952
-0.11093663 -0.08124301 -0.058410972 -0.035204597 0.010219112 -0.13286734 0.05093108 -0.09772235
-0.014734969 -0.08026335 -0.022634067 -0.021106377 -0.07971676 -0.103945196 -0.032760926 -0.09087795
-0.026837572 0.025633648 -0.100364774 -0.04648769 0.032487825 -0.010547832 0.08910951 0.14076333
-0.12098611 -0.055127792 -0.012802497 -0.017745063 0.079814926 0.021687075 0.10014297 0.12856166
-0.037104644 -0.082669295 -0.10047911 0.06126316 -0.07345736 0.10451707 -0.012309268 -0.14003412
00000000: 8b9c 033e a0ed 423d 507d 003d 00e1 e53c
00000010: 76b4 08be f049 a23d 6a73 e4bd 30c8 d1bc
00000020: 20ac 3c3c 9206 63bd 513c f9bd 605f 66bd
00000030: 36d3 c23d 50b9 d83c 1050 443c 08ee ec3c
00000040: d89f 7bbd a213 b63d 10ba 7cbc 0e3f f53d
00000050: c001 b33b 063d c43d 8eb3 23bd bca3 3f3d
00000060: 806c 603c fa73 f63d d4c9 033d 3aba 0bbe
00000070: 60c3 e2bd a88a a93d 185a 8fbc e5ee a2bd
00000080: c025 e2bd f0fa 62bc 2528 063e 60ff 9a3d
00000090: e42d c4bc 7e7f 9d3d b0f4 b4bd cac2 f7bd
000000a0: 26a4 38bd 789a d73c 080a 893c 908d 28bc
000000b0: 32ac 02be 6e70 25bd 0098 5a3c fc43 50bd
000000c0: 6fd8 003e 38cb c9bd 701c b63c 00f4 dcbd
000000d0: 2678 01be e07f 28bd 2359 fcbd e821 fcbd
000000e0: d855 bcbd b4e3 7dbd 4e5b 823d 1cb4 73bd
000000f0: 40b1 6f3b 3ce4 8dbd f0ab 0dbe 3c85 3fbd
00000100: b8d8 ca3c e204 a33d 242a fdbc d453 97bc
00000110: 8002 f2ba e0a0 023c 9069 053d e8be efbd
00000120: 40fd 1cbb 40ac d63d 4404 303d 2865 f0bd
00000130: 3a60 b2bd 2c36 b83d c06d 2bbd 6a67 0bbe
00000140: 908b aa3c 6eca fcbd f09e 943c 98e1 32bd
00000150: 3725 8ebd f08e c7bc 365d 973d 8ab2 2cbd
00000160: d8c2 a23d b280 a23d 8842 173d e41b 783d
00000170: 5883 9b3c 93be abbd 007e 2fbb 80ac fc3c
00000180: 8c62 ba3d 7832 fe3c fdf0 083e 608f 4fbc
00000190: b8d2 c83c 1e1a dfbd 409b cfbb 2883 0cbe
000001a0: 6e45 47bd b583 f6bd 90d9 783c 6655 e33d
000001b0: 53b6 e9bd fecd dc3d 4272 e63d 00ee a6b9
000001c0: 2e93 5abd 6dd1 0dbe 9ed1 df3d 12fb bc3d
000001d0: 5ce4 be3d 4eff bdbd 4a3c 0cbe d0d8 293d
000001e0: cc8a 823d b250 42bd ccb0 08be 44da 0fbe
000001f0: 980c 753d 7e52 c0bd 5206 aa3d 4afb dcbd
00000200: c3a2 ecbd fc21 1bbd 30ca 01bc 28d3 1e3d
00000210: 902e ad3d a367 cabd 90c2 7e3c 107d a03d
00000220: 2040 f1bb 1a4e fb3d 805a debd 382c d73c
00000230: b48b 293d 8c0a 963d e02d 103d 9611 f83d
00000240: 737d 02be 8b18 013e 40f4 ee3b f399 0ebe
00000250: 384f 623d 94ed f5bc ece1 b53d e018 10bd
00000260: 7218 56bd 2a22 7fbd 60ad 1f3d 6989 063e
00000270: f63a e13d f05d 99bd 4eea 963d 6d37 02be
00000280: 3c80 2bbd 6316 b1bd 3aac 863d df4e 09be
00000290: 40cd 643d 20f9 553c f01e 2ebc 2e4b f5bd
000002a0: ac7f 9abd 745f 283d 0089 f8ba 20b6 9a3d
000002b0: 888c fbbd 6e35 8abd cc0c 8c3d 839d 07be
000002c0: c87b dcbd 0021 a73d 9e09 e63d 5cd9 95bc
000002d0: 242a a7bc f831 cb3c 6c3e fabd 3e7c b13d
000002e0: 70cd 983c a0e9 bc3d aa9d 60bd 976e 8ebd
000002f0: 3081 803c 082a e0bc e485 143d a087 0d3c
00000300: 981b f3bd 96a4 b83d 6328 95bd 805b 0d3b
00000310: 405d 07be fcb4 b8bd d36f c3bd 553c b4bd
00000320: 4091 bc3c 9860 b4bd 68b6 b93c 78fe ac3d
00000330: 968c 03be 081c d03c b649 04be 583e 38bd
00000340: a81a bf3d f360 f4bd 30be cf3c 1849 c63d
00000350: 88c3 adbd f792 0abe 30f8 21bc 511b 0d3e
00000360: be32 e3bd bc62 a6bd 5840 6fbd b232 10bd
00000370: 106e 273c 600e 08be 1c9d 503d a822 c8bd
00000380: f06a 71bc 1c61 a4bd 146b b9bc 48e7 acbc
00000390: 8a42 a3bd 38e1 d4bd 5230 06bd 381e babd
000003a0: 78da dbbc a8fd d13c 0c8c cdbd e069 3ebd
000003b0: f411 053d d0d0 2cbc 0c7f b63d 4324 103e
000003c0: 91c7 f7bd aecd 61bd 90c1 51bc 185e 91bc
000003d0: 0276 a33d 18a9 b13c c217 cd3d aba5 033e
000003e0: 0afb 17bd 854e a9bd fec7 cdbd 14ef 7a3d
000003f0: d070 96bd 0c0d d63d d0ac 49bc 1b65 0fbe

weight f4 [72]
1.0 1.0 1.0 1.0 1.0 1.0 1.0 1.0
1.0 1.0 1.0 1.0 1.0 1.0 1.0 1.0
1.0 1.0 1.0 1.0 1.0 1.0 1.0 1.0
1.0 1.0 1.0 1.0 1.0 1.0 1.0 1.0
1.0 1.0 1.0 1.0 1.0 1.0 1.0 1.0
1.0 1.0 1.0 1.0 1.0 1.0 1.0 1.0
1.0 1.0 1.0 1.0 1.0 1.0 1.0 1.0
1.0 1.0 1.0 1.0 1.0 1.0 1.0 1.0
1.0 1.0 1.0 1.0 1.0 1.0 1.0 1.0
00000000: 0000 803f 0000 803f 0000 803f 0000 803f
00000010: 0000 803f 0000 803f 0000 803f 0000 803f
00000020: 0000 803f 0000 803f 0000 803f 0000 803f
00000030: 0000 803f 0000 803f 0000 803f 0000 803f
00000040: 0000 803f 0000 803f 0000 803f 0000 803f
00000050: 0000 803f 0000 803f 0000 803f 0000 803f
00000060: 0000 803f 0000 803f 0000 803f 0000 803f
00000070: 0000 803f 0000 803f 0000 803f 0000 803f
00000080: 0000 803f 0000 803f 0000 803f 0000 803f
00000090: 0000 803f 0000 803f 0000 803f 0000 803f
000000a0: 0000 803f 0000 803f 0000 803f 0000 803f
000000b0: 0000 803f 0000 803f 0000 803f 0000 803f
000000c0: 0000 803f 0000 803f 0000 803f 0000 803f
000000d0: 0000 803f 0000 803f 0000 803f 0000 803f
000000e0: 0000 803f 0000 803f 0000 803f 0000 803f
000000f0: 0000 803f 0000 803f 0000 803f 0000 803f
00000100: 0000 803f 0000 803f 0000 803f 0000 803f
00000110: 0000 803f 0000 803f 0000 803f 0000 803f

bias f4 [72]
0.0 0.0 0.0 0.0 0.0 0.0 0.0 0.0
0.0 0.0 0.0 0.0 0.0 0.0 0.0 0.0
0.0 0.0 0.0 0.0 0.0 0.0 0.0 0.0
0.0 0.0 0.0 0.0 0.0 0.0 0.0 0.0
0.0 0.0 0.0 0.0 0.0 0.0 0.0 0.0
0.0 0.0 0.0 0.0 0.0 0.0 0.0 0.0
0.0 0.0 0.0 0.0 0.0 0.0 0.0 0.0
0.0 0.0 0.0 0.0 0.0 0.0 0.0 0.0
0.0 0.0 0.0 0.0 0.0 0.0 0.0 0.0
00000000: 0000 0000 0000 0000 0000 0000 0000 0000
00000010: 0000 0000 0000 0000 0000 0000 0000 0000
00000020: 0000 0000 0000 0000 0000 0000 0000 0000
00000030: 0000 0000 0000 0000 0000 0000 0000 0000
00000040: 0000 0000 0000 0000 0000 0000 0000 0000
00000050: 0000 0000 0000 0000 0000 0000 0000 0000
00000060: 0000 0000 0000 0000 0000 0000 0000 0000
00000070: 0000 0000 0000 0000 0000 0000 0000 0000
00000080: 0000 0000 0000 0000 0000 0000 0000 0000
00000090: 0000 0000 0000 0000 0000 0000 0000 0000
000000a0: 0000 0000 0000 0000 0000 0000 0000 0000
000000b0: 0000 0000 0000 0000 0000 0000 0000 0000
000000c0: 0000 0000 0000 0000 0000 0000 0000 0000
000000d0: 0000 0000 0000 0000 0000 0000 0000 0000
000000e0: 0000 0000 0000 0000 0000 0000 0000 0000
000000f0: 0000 0000 0000 0000 0000 0000 0000 0000
00000100: 0000 0000 0000 0000 0000 0000 0000 0000
00000110: 0000 0000 0000 0000 0000 0000 0000 0000

running_mean f4 [72]
0.0 0.0 0.0 0.0 0.0 0.0 0.0 0.0
0.0 0.0 0.0 0.0 0.0 0.0 0.0 0.0
0.0 0.0 0.0 0.0 0.0 0.0 0.0 0.0
0.0 0.0 0.0 0.0 0.0 0.0 0.0 0.0
0.0 0.0 0.0 0.0 0.0 0.0 0.0 0.0
0.0 0.0 0.0 0.0 0.0 0.0 0.0 0.0
0.0 0.0 0.0 0.0 0.0 0.0 0.0 0.0
0.0 0.0 0.0 0.0 0.0 0.0 0.0 0.0
0.0 0.0 0.0 0.0 0.0 0.0 0.0 0.0
00000000: 0000 0000 0000 0000 0000 0000 0000 0000
00000010: 0000 0000 0000 0000 0000 0000 0000 0000
00000020: 0000 0000 0000 0000 0000 0000 0000 0000
00000030: 0000 0000 0000 0000 0000 0000 0000 0000
00000040: 0000 0000 0000 0000 0000 0000 0000 0000
00000050: 0000 0000 0000 0000 0000 0000 0000 0000
00000060: 0000 0000 0000 0000 0000 0000 0000 0000
00000070: 0000 0000 0000 0000 0000 0000 0000 0000
00000080: 0000 0000 0000 0000 0000 0000 0000 0000
00000090: 0000 0000 0000 0000 0000 0000 0000 0000
000000a0: 0000 0000 0000 0000 0000 0000 0000 0000
000000b0: 0000 0000 0000 0000 0000 0000 0000 0000
000000c0: 0000 0000 0000 0000 0000 0000 0000 0000
000000d0: 0000 0000 0000 0000 0000 0000 0000 0000
000000e0: 0000 0000 0000 0000 0000 0000 0000 0000
000000f0: 0000 0000 0000 0000 0000 0000 0000 0000
00000100: 0000 0000 0000 0000 0000 0000 0000 0000
00000110: 0000 0000 0000 0000 0000 0000 0000 0000

running_var f4 [72]
1.0 1.0 1.0 1.0 1.0 1.0 1.0 1.0
1.0 1.0 1.0 1.0 1.0 1.0 1.0 1.0
1.0 1.0 1.0 1.0 1.0 1.0 1.0 1.0
1.0 1.0 1.0 1.0 1.0 1.0 1.0 1.0
1.0 1.0 1.0 1.0 1.0 1.0 1.0 1.0
1.0 1.0 1.0 1.0 1.0 1.0 1.0 1.0
1.0 1.0 1.0 1.0 1.0 1.0 1.0 1.0
1.0 1.0 1.0 1.0 1.0 1.0 1.0 1.0
1.0 1.0 1.0 1.0 1.0 1.0 1.0 1.0
00000000: 0000 803f 0000 803f 0000 803f 0000 803f
00000010: 0000 803f 0000 803f 0000 803f 0000 803f
00000020: 0000 803f 0000 803f 0000 803f 0000 803f
00000030: 0000 803f 0000 803f 0000 803f 0000 803f
00000040: 0000 803f 0000 803f 0000 803f 0000 803f
00000050: 0000 803f 0000 803f 0000 803f 0000 803f
00000060: 0000 803f 0000 803f 0000 803f 0000 803f
00000070: 0000 803f 0000 803f 0000 803f 0000 803f
00000080: 0000 803f 0000 803f 0000 803f 0000 803f
00000090: 0000 803f 0000 803f 0000 803f 0000 803f
000000a0: 0000 803f 0000 803f 0000 803f 0000 803f
000000b0: 0000 803f 0000 803f 0000 803f 0000 803f
000000c0: 0000 803f 0000 803f 0000 803f 0000 803f
000000d0: 0000 803f 0000 803f 0000 803f 0000 803f
000000e0: 0000 803f 0000 803f 0000 803f 0000 803f
000000f0: 0000 803f 0000 803f 0000 803f 0000 803f
00000100: 0000 803f 0000 803f 0000 803f 0000 803f
00000110: 0000 803f 0000 803f 0000 803f 0000 803f

weight f4 [32, 72, 1, 1]
0.00051084906 0.06880235 -0.07134049 0.010404505 0.116122045 0.099643104 0.09328904 0.034580506
0.032166623 0.074140646 -0.059084415 0.053821303 -0.027507313 0.04327304 0.09852407 0.0670385
0.021198146 -0.11732702 0.04445284 -0.100594245 0.05311831 0.048876144 -0.022654496 -0.053483874
0.061493896 0.10727217 -0.035578266 -0.05777663 -0.03535358 -0.051893488 -0.04803651 0.018629484
0.08635772 0.047790937 -0.03666766 -0.05002138 0.03983534 -0.07039143 -0.008793689 0.002891004
0.012086876 -0.057727892 -0.023277394 0.095863886 0.03940738 -0.086724296 0.10848457 -0.0075715855
0.0972481 0.035807617 0.11623632 0.101026736 0.056421272 -0.108633585 0.07634223 0.04628677
0.023056887 0.07948274 -0.090288036 0.019739784 -0.09366359 0.09020398 -0.057224717 -0.028288208
-0.0063524693 -0.11394888 -0.089367986 0.03141413 0.026335128 0.07476968 0.006700605 0.09281438
0.11175852 0.02482345 0.10911252 0.016366743 0.09111168 -0.058143333 -0.05075395 0.046525426
-0.032458268 -0.037977807 -0.05949046 0.002740793 0.08843652 0.043779038 0.04267349 0.053329937
-0.04888784 -0.023362562 0.06177371 -0.06231021 -0.09243222 0.0430473 0.02012182 0.10377184
-0.019715048 -0.07120229 0.012945555 -0.114031866 0.0646637 0.017499886 0.03278073 0.004495159
-0.08098375 -0.055888027 -0.015095286 0.08253903 -0.085281864 0.010468192 0.10748694 0.0410031
0.038422443 -0.0013993457 0.038063653 -0.0978673 0.0629937 0.09296141 -0.017857365 -0.032929473
0.03968423 -0.10097334 0.08660639 0.11067485 0.079616554 0.10184752 -0.09217013 0.035326503
-0.09764033 -0.11674312 0.09935156 -0.06107913 -0.008400075 0.08644279 -0.09063281 0.014781661
-0.10960719 -0.075087726 -0.10663532 0.04824654 -0.015975185 0.10913261 0.042479537 0.055952363
-0.060719013 -0.038731888 0.06464767 0.066064574 -0.0074348897 0.11430807 0.06391475 -0.03485582
0.0750704 -0.04655475 -0.024692923 -0.035150416 -0.028494261 -0.068234876 -0.025893703 0.032831542
-0.10474777 0.10971858 0.10765984 -0.053022362 0.04253211 0.07823526 -0.099732056 0.06487616
0.11130581 0.065049 0.0029593855 -0.03392584 0.0694283 0.009512462 0.08593152 -0.034050576
-0.03079214 -0.0827643 0.06870522 -0.02155818 0.11516114 0.003035374 -0.107849136 -0.104831636
0.060784243 0.024947636 -0.052309535 0.06833879 0.11696424 -0.024906158 -0.048674367 0.07447108
0.050320588 -0.025466152 -0.10060398 -0.019617304 0.11082361 -0.045763277 0.02871155 0.028918914
-0.017006494 -0.040063754 0.039346106 0.10057955 -0.100365035 0.073847435 -0.107498035 0.11377371
0.081108056 0.03638304 0.015541039 -0.06260893 -0.022310227 0.08714772 0.11208948 0.026607
0.11195954 0.06133411 -0.002083771 0.015010975 -0.070903555 -0.020227455 -0.007311806 -0.04070027
0.09011405 -0.030377872 0.0016140267 -0.07354334 0.039033674 -0.105411194 0.05918304 0.1125992
-0.02009587 -0.03747049 0.09759673 -0.062323008 0.054633014 -0.017909065 0.08599623 0.030441903
-0.09088059 0.063237585 0.09753559 -0.028935276 0.10924672 -0.06569195 0.06683915 0.03623063
-0.10429257 -0.016242452 -0.03135474 -0.01763986 0.08736334 -0.07790619 0.031246059 0.051734723
00000000: 80ea 053a 3fe8 8c3d f61a 92bd a877 2a3c
00000010: 65d1 ed3d af11 cc3d 530e bf3d 4aa4 0d3d
00000020: 26c1 033d 0dd7 973d 8002 72bd ba73 5c3d
00000030: 0457 e1bc 123f 313d fdc6 c93d 7b4b 893d
00000040: bca7 ad3c 2649 f0bd 2e14 363d 5b04 cebd
00000050: 9692 593d 5a32 483d ec95 b9bc e811 5bbd
00000060: 06e1 7b3d 83b1 db3d 84ba 11bd 30a7 6cbd
00000070: eace 10bd 448e 54bd eec1 44bd dc9c 983c
00000080: 51dc b03d 6ec0 433d d430 16bd 38e3 4cbd
00000090: 622a 233d 6229 90bd 6813 10bc 0077 3d3b
000000a0: 0808 463c 1574 6cbd 3cb0 bebc 4954 c43d
000000b0: a269 213d 829c b1bd 292d de3d 101b f8bb
000000c0: 032a c73d 02ab 123d 4f0d ee3d 1be7 ce3d
000000d0: fe19 673d 497b debd 5159 9c3d 3297 3d3d
000000e0: cce1 bc3c d9c7 a23d efe8 b8bd 54b5 a13c
000000f0: b2d2 bfbd ddbc b83d 7764 6abd acbc e7bc
00000100: 6028 d0bb 085e e9bd 9006 b7bd 1aac 003d
00000110: c4bc d73c d920 993d c090 db3b 7715 be3d
00000120: a7e1 e43d 8c5a cb3c 6376 df3d 8c13 863c
00000130: c398 ba3d b427 6ebd 60e3 4fbd 7291 3e3d
00000140: f6f2 04bd 9e8e 1bbd 45ac 73bd e09e 333b
00000150: 351e b53d a651 333d 66ca 2e3d 7e70 5a3d
00000160: 9e3e 48bd d862 bfbc 6e06 7d3d fe38 7fbd
00000170: 1b4d bdbd 5e52 303d 84d6 a43c 5586 d43d
00000180: 7481 a1bc 82d2 91bd 9819 543c 8a89 e9bd
00000190: 676e 843d ec5b 8f3c 1645 063d 204c 933b
000001a0: cfda a5bd d8ea 64bd 3852 77bc 390a a93d
000001b0: 42a8 aebd c882 2b3c 1d22 dc3d def2 273d
000001c0: da60 1d3d 406a b7ba a2e8 1b3d a76e c8bd
000001d0: d702 813d 8d62 be3d 9c49 92bc 0ee1 06bd
000001e0: ee8b 223d 1ccb cebd b15e b13d 7fa9 e23d
000001f0: 010e a33d 6f95 d03d b1c3 bcbd 86b2 103d
00000200: a7f7 c7bd 0417 efbd d578 cb3d 1c2e 7abd
00000210: 78a0 09bc eb08 b13d b29d b9bd c82e 723c
00000220: bc79 e0bd 98c7 99bd 9e63 dabd 2a9e 453d
00000230: 64de 82bc eb80 df3d 06ff 2d3d 4e2e 653d
00000240: 80b4 78bd 54a5 1ebd ff65 843d dd4c 873d
00000250: 60a0 f3bb 591a ea3d bde5 823d fac4 0ebd
00000260: 83be 993d 32b0 3ebd d048 cabc e2f9 0fbd
00000270: cc6c e9bc babe 8bbd 081f d4bc 5e7a 063d
00000280: 0086 d6bd 23b4 e03d c37c dc3d fa2d 59bd
00000290: 2636 2e3d cf39 a03d 5240 ccbd cbdd 843d
000002a0: 4df4 e33d 6938 853d 40f2 413b d2f5 0abd
000002b0: 6d30 8e3d 28da 1b3c ddfc af3d 9e78 0bbd
000002c0: cc3f fcbc 5480 a9bd 53b5 8c3d c89a b0bc
000002d0: 9bd9 eb3d 20ed 463b 02e0 dcbd f8b1 d6bd
000002e0: e6f8 783d fc5e cc3c 8642 56bd 35f5 8b3d
000002f0: f38a ef3d 0008 ccbc c65e 47bd 4b84 983d
00000300: f61c 4e3d 649e d0bc 7609 cebd 78b4 a0bc
00000310: 7df7 e23d 4672 3bbd 7c34 eb3c 5ce7 ec3c
00000320: 3451 8bbc e419 24bd 6229 213d a7fc cd3d
00000330: 2f8c cdbd 533d 973d ee27 dcbd 3102 e93d
00000340: fb1b a63d 6206 153d d89f 7e3c 1c39 80bd
00000350: f0c3 b6bc 817a b23d 2b8f e53d ecf6 d93c
00000360: 0b4b e53d 7a39 7b3d e08f 08bb 98f0 753c
00000370: e235 91bd 0cb4 a5bc e097 efbb 54b5 26bd
00000380: b78d b83d 04db f8bc c08d d33a e49d 96bd
00000390: c6e1 1f3d d3e1 d7bd ea69 723d 699a e63d
000003a0: 18a0 a4bc a87a 19bd cbe0 c73d 6946 7fbd
000003b0: dec6 5f3d 08b6 92bc cb1e b03d 4c61 f93c
000003c0: 9a1f babd b582 813d bdc0 c73d ac09 edbc
000003d0: bfbc df3d 8089 86bd f7e2 883d 9266 143d
000003e0: 5897 d5bd e40e 85bc d46d 00bd 7881 90bc
000003f0: 8deb b23d 488d 9fbd bcf7 ff3c cae7 533d

weight f4 [32]
1.0 1.0 1.0 1.0 1.0 1.0 1.0 1.0
1.0 1.0 1.0 1.0 1.0 1.0 1.0 1.0
1.0 1.0 1.0 1.0 1.0 1.0 1.0 1.0
1.0 1.0 1.0 1.0 1.0 1.0 1.0 1.0
00000000: 0000 803f 0000 803f 0000 803f 0000 803f
00000010: 0000 803f 0000 803f 0000 803f 0000 803f
00000020: 0000 803f 0000 803f 0000 803f 0000 803f
00000030: 0000 803f 0000 803f 0000 803f 0000 803f
00000040: 0000 803f 0000 803f 0000 803f 0000 803f
00000050: 0000 803f 0000 803f 0000 803f 0000 803f
00000060: 0000 803f 0000 803f 0000 803f 0000 803f
00000070: 0000 803f 0000 803f 0000 803f 0000 803f

bias f4 [32]
0.0 0.0 0.0 0.0 0.0 0.0 0.0 0.0
0.0 0.0 0.0 0.0 0.0 0.0 0.0 0.0
0.0 0.0 0.0 0.0 0.0 0.0 0.0 0.0
0.0 0.0 0.0 0.0 0.0 0.0 0.0 0.0
00000000: 0000 0000 0000 0000 0000 0000 0000 0000
00000010: 0000 0000 0000 0000 0000 0000 0000 0000
00000020: 0000 0000 0000 0000 0000 0000 0000 0000
00000030: 0000 0000 0000 0000 0000 0000 0000 0000
00000040: 0000 0000 0000 0000 0000 0000 0000 0000
00000050: 0000 0000 0000 0000 0000 0000 0000 0000
00000060: 0000 0000 0000 0000 0000 0000 0000 0000
00000070: 0000 0000 0000 0000 0000 0000 0000 0000

running_mean f4 [32]
0.0 0.0 0.0 0.0 0.0 0.0 0.0 0.0
0.0 0.0 0.0 0.0 0.0 0.0 0.0 0.0
0.0 0.0 0.0 0.0 0.0 0.0 0.0 0.0
0.0 0.0 0.0 0.0 0.0 0.0 0.0 0.0
00000000: 0000 0000 0000 0000 0000 0000 0000 0000
00000010: 0000 0000 0000 0000 0000 0000 0000 0000
00000020: 0000 0000 0000 0000 0000 0000 0000 0000
00000030: 0000 0000 0000 0000 0000 0000 0000 0000
00000040: 0000 0000 0000 0000 0000 0000 0000 0000
00000050: 0000 0000 0000 0000 0000 0000 0000 0000
00000060: 0000 0000 0000 0000 0000 0000 0000 0000
00000070: 0000 0000 0000 0000 0000 0000 0000 0000

running_var f4 [32]
1.0 1.0 1.0 1.0 1.0 1.0 1.0 1.0
1.0 1.0 1.0 1.0 1.0 1.0 1.0 1.0
1.0 1.0 1.0 1.0 1.0 1.0 1.0 1.0
1.0 1.0 1.0 1.0 1.0 1.0 1.0 1.0
00000000: 0000 803f 0000 803f 0000 803f 0000 803f
00000010: 0000 803f 0000 803f 0000 803f 0000 803f
00000020: 0000 803f 0000 803f 0000 803f 0000 803f
00000030: 0000 803f 0000 803f 0000 803f 0000 803f
00000040: 0000 803f 0000 803f 0000 803f 0000 803f
00000050: 0000 803f 0000 803f 0000 803f 0000 803f
00000060: 0000 803f 0000 803f 0000 803f 0000 803f
00000070: 0000 803f 0000 803f 0000 803f 0000 803f
