Quantization_Compilation/blocks_quantization_vitis_ai_3.0/float/ResidualBlock-in_32x56x56-out_48-k_3-e_4-s_2-act_relu-use_se_True.pth (torch, 98104 bytes, 19 tensors)

weight f4 [128, 32, 1, 1]
000000 71 cb b6 bd 21 ec 1c be 20 e0 39 bc 20 5e e7 bd
       -0.08925522 -0.15324451 -0.0113449395 -0.1129725
000010 25 44 0d 3e 77 40 1f 3e 7f 21 0b 3e e0 75 06 3d
       0.13795526 0.15551935 0.13586996 0.032827258
000020 e8 ac f3 bc 02 88 fc 3d c6 33 89 3d 72 fb f5 3d
       -0.029745534 0.12330629 0.06699328 0.1201085
000030 d7 f9 b1 bd c0 41 01 3b 8a 2b cd bd 25 f4 c5 bd
       -0.08690231 0.0019723028 -0.1001807 -0.096657075
000040 dc 56 60 bd a0 81 86 bc 17 a9 bf bd be 3e 89 3d
       -0.054770336 -0.016419232 -0.09358423 0.0670142
000050 6c 93 5d bd 78 f7 a7 3c 80 30 30 bc c9 6d 98 bd
       -0.05409567 0.020503744 -0.010753751 -0.07442815
000060 c4 60 2b be 48 5e 09 3d 5a ec 00 be 6c 57 73 3d
       -0.16736132 0.03353718 -0.12590161 0.059409544
000070 c8 75 8d 3c 98 f8 2d 3d 70 fc 0b bc 7e 4a cf 3d
       0.017268077 0.042473406 -0.0085440725 0.1012163
000080 de c1 34 be 43 bb 34 3e b4 3a 25 3d 90 57 05 be
       -0.1765208 0.1764956 0.040339187 -0.13021684
000090 a2 60 a4 bd 2a 6c 34 be a7 ee 15 3e 50 75 8a bc
       -0.08026244 -0.17619386 0.1464182 -0.016901642
0000a0 16 86 fb 3d 21 32 9b bd 8a 60 ba bd 33 16 30 3e
       0.12281434 -0.07577921 -0.091004446 0.17195968
0000b0 67 ce 33 3e d7 5f 01 3e 60 3b f8 bb 46 21 dd 3d
       0.17559205 0.12634216 -0.0075754374 0.10797362
0000c0 22 3e a4 3d 30 4e 60 bc 26 98 8b bd 26 e2 9a bd
       0.080196634 -0.013690516 -0.068161294 -0.07562666
0000d0 80 42 e2 3b b6 43 c6 3d e0 e7 05 bd 12 72 97 3d
       0.0069049 0.096808836 -0.032691836 0.07394804
0000e0 b7 f8 32 3e bf 00 f3 bd d3 5a 13 3e d2 dc 25 be
       0.1747769 -0.11865377 0.14390115 -0.16197518
0000f0 5d 8a b0 bd aa 3b ac bd 2e 49 aa 3d 6c 55 33 3d
       -0.08620141 -0.084098175 0.08314739 0.043782637
000100 09 9e 26 3e 94 8a f3 bd b7 42 2e be e4 74 50 3d
       0.16271223 -0.11891666 -0.17017637 0.050892726
000110 07 00 0c be 43 e9 06 3e d6 cd 80 bd 5c 0d 04 bd
       -0.13671885 0.1317492 -0.0628926 -0.032239303
000120 09 92 1f 3e 29 7b e5 bd 48 a8 e9 bc 40 9a 6f bb
       0.15583052 -0.112051316 -0.028522626 -0.0036560446
000130 d8 81 4f bd ba b4 26 be 05 83 e2 bd 73 c3 14 3e
       -0.050660938 -0.16279879 -0.11060146 0.14527683
000140 1f c5 9f bd 4f f5 0b be 78 82 ff 3c e7 7f 04 3e
       -0.0780127 -0.13667797 0.031190142 0.12939416
000150 3f 98 ff bd 6f 7a 1d 3e f4 f2 61 3d f4 db 17 3d
       -0.124802105 0.15378736 0.05516334 0.037074998
000160 08 4e 06 3d 2d ec 09 3e f0 ef fa 3c ce 79 a2 3d
       0.03278926 0.13469 0.03063199 0.07933389
000170 70 b9 59 3c a1 06 00 3e be 21 91 3d 38 1f 2b be
       0.013288841 0.12502529 0.07086514 -0.16711128
000180 9b 32 05 3e 1e 42 04 be 0f a1 17 3e 63 a5 23 3e
       0.13007586 -0.12915847 0.14807533 0.15981059
000190 7e c4 08 be e3 9a 32 be d3 d6 fd bd d4 04 58 3d
       -0.13356206 -0.17441897 -0.1239449 0.05273898
0001a0 44 e1 77 bd ff 28 2e 3e 8c 23 65 3d 9e 3f d6 3d
       -0.060517564 0.17007826 0.055942103 0.10461353
0001b0 ef 58 07 3e e3 51 13 3e e0 ab fd 3c 64 72 8c 3d
       0.13217519 0.14386706 0.030965745 0.06857756
0001c0 cf d1 e8 bd 9d e2 83 bd 64 82 ff bd 60 69 69 3d
       -0.11368143 -0.064397074 -0.12476042 0.05698526
0001d0 a8 93 89 3c 18 c6 cb bd a4 53 8d 3d 18 fb 55 bd
       0.01679404 -0.09949893 0.06900719 -0.052241415
0001e0 0a 4e d9 3d fe 0a 1f be 1a 6d 7b bd d2 d5 e6 bd
       0.10610588 -0.15531537 -0.061383344 -0.11271252
0001f0 a0 e4 e3 3c 32 41 fb bd ee 2d e3 bd 18 6f 36 3d
       0.027818978 -0.122682944 -0.11092745 0.04453954
000200 60 e0 35 3d d7 da 1c 3e 62 4c a3 3d 88 c9 41 3d
       0.044403434 0.15317856 0.07973553 0.047311336
000210 00 30 05 38 1c 73 2a 3d e3 3b cb bd 8f 89 28 3e
       3.1754375e-05 0.041613683 -0.09923532 0.16458724
000220 47 f3 0a be 80 07 a4 3c b0 ff 8f 3c 30 76 16 bd
       -0.13569365 0.020023108 0.017577976 -0.036733806
000230 7a bc a1 3d 7b 8b bf bd 52 64 f1 3d 4a ca 2d be
       0.07897277 -0.09352776 0.11786713 -0.16971698
000240 74 01 70 3d 0a 09 97 3d 60 64 ae bc 71 e2 10 be
       0.058595136 0.07374771 -0.021288097 -0.1414888
000250 e0 52 76 3d b7 f3 a3 bd 08 bf 46 bd 0d 3c 2d be
       0.06013763 -0.08005469 -0.048522025 -0.16917439
000260 bc 6f 71 3d 50 f4 6e bc 60 05 f0 bc 53 80 13 3e
       0.05894445 -0.014584616 -0.029299438 0.1440442
000270 81 41 1e be 97 a7 24 be c9 82 25 3e 7a fc c0 bd
       -0.15454675 -0.16079555 0.16163172 -0.09423156
000280 c3 4a 01 3e 91 2c 15 be ca 9d 7d bd ba 62 83 3d
       0.12626176 -0.14567782 -0.061918058 0.06415315
000290 ec cd 70 bd 68 a5 3f bd 00 79 ec bd f2 1d fd 3d
       -0.058790132 -0.046788603 -0.115465164 0.12359227
0002a0 b3 ed 09 3e 7e ca d9 3d 70 69 3e bc 48 ea 85 3d
       0.13469581 0.106343254 -0.011621818 0.06538826
0002b0 40 eb fa 3c 72 32 87 bd 90 fb a0 bc b6 85 f9 3d
       0.030629754 -0.066014186 -0.019651204 0.121837065
0002c0 43 52 27 be 08 0c 48 3d 80 c2 39 bd 60 df 25 be
       -0.16339974 0.0488396 -0.045351505 -0.16198492
0002d0 c6 5e f4 bd b4 53 33 be 14 5c 42 bd cb f4 11 be
       -0.11932139 -0.17512399 -0.047451094 -0.14253537
0002e0 fe 28 fa 3d 50 b6 61 bd c0 d6 fc 3b 98 05 0d bd
       0.1221485 -0.055105507 0.00771603 -0.034429163
0002f0 9c a4 19 3d 74 8e 35 bd 5e 42 d8 3d 4b c5 0c be
       0.0375105 -0.044325307 0.105595335 -0.13747136
000300 f4 80 24 be bf 7a 1f 3e a0 70 10 3c 43 4b ad bd
       -0.16064817 0.15574168 0.008815914 -0.08461621
000310 45 ad 32 3e 40 3b cd bb 93 40 33 3e 3e 0e dc 3d
       0.1744891 -0.0062631667 0.17505102 0.10744904
000320 c0 46 9f bd 05 05 2e 3e de 97 af 3d 37 d8 1b 3e
       -0.07777166 0.16994102 0.08573888 0.15219198
000330 6d 0e fd bd e5 a5 24 be 66 d4 56 bd 00 aa 89 3d
       -0.12356267 -0.16078909 -0.052448653 0.06721878
000340 8f a9 c0 bd 10 5d 68 3d 00 cd 28 bd b8 4c 0d be
       -0.09407341 0.056729376 -0.04121113 -0.13798797
000350 00 5f f1 bb b3 bd 90 bd 18 52 e5 bc 05 59 2b be
       -0.007366061 -0.07067432 -0.027993247 -0.16733177
000360 ab d1 1e 3e 00 52 2b ba b0 e8 6d 3c 4e 26 a0 3d
       0.1550967 -0.0006535351 0.014520809 0.07819806
000370 80 08 9d 3a 35 91 1f 3e 11 8e 26 3e 50 91 17 be
       0.0011980683 0.15582736 0.16265132 -0.14801526
000380 3c cf 2a be f8 e9 2c bd 48 6e f3 bc 0c b6 4c bd
       -0.16680616 -0.042215317 -0.029715672 -0.0499783
000390 1c f7 39 bd d7 88 19 3e e0 24 de bc 1c d6 62 3d
       -0.045401677 0.14993607 -0.027117193 0.05537997
0003a0 00 56 e2 bc d6 76 d4 3d 78 d5 ac 3c f3 f8 c3 bd
       -0.027628899 0.10374229 0.021097884 -0.09568968
0003b0 fe 11 f1 3d 36 c5 bd 3d ec 4a d2 bd 32 c7 bf bd
       0.1177101 0.092661306 -0.102681965 -0.09364165
0003c0 90 14 39 bc 90 d4 d1 3c 44 f2 18 3d 1e bc b2 bd
       -0.011296406 0.025614053 0.037340418 -0.08727287
0003d0 f4 61 a5 bd 5e f2 ca 3d 4c 80 4e bd 13 b7 05 3e
       -0.08075324 0.09909509 -0.050415322 0.13058119
0003e0 c4 bd 75 bd c0 a3 51 bc 18 d4 a6 3c 3e 8e 56 bd
       -0.059995428 -0.012795389 0.020364806 -0.052381746
0003f0 ee f0 e6 3d 20 cd 28 3d 8a 22 b4 3d 2e c6 a6 bd
       0.112764224 0.041211247 0.0879565 -0.081432685

weight f4 [128]
000000 00 00 80 3f 00 00 80 3f 00 00 80 3f 00 00 80 3f
       1.0 1.0 1.0 1.0
000010 00 00 80 3f 00 00 80 3f 00 00 80 3f 00 00 80 3f
       1.0 1.0 1.0 1.0
000020 00 00 80 3f 00 00 80 3f 00 00 80 3f 00 00 80 3f
       1.0 1.0 1.0 1.0
000030 00 00 80 3f 00 00 80 3f 00 00 80 3f 00 00 80 3f
       1.0 1.0 1.0 1.0
000040 00 00 80 3f 00 00 80 3f 00 00 80 3f 00 00 80 3f
       1.0 1.0 1.0 1.0
000050 00 00 80 3f 00 00 80 3f 00 00 80 3f 00 00 80 3f
       1.0 1.0 1.0 1.0
000060 00 00 80 3f 00 00 80 3f 00 00 80 3f 00 00 80 3f
       1.0 1.0 1.0 1.0
000070 00 00 80 3f 00 00 80 3f 00 00 80 3f 00 00 80 3f
       1.0 1.0 1.0 1.0
000080 00 00 80 3f 00 00 80 3f 00 00 80 3f 00 00 80 3f
       1.0 1.0 1.0 1.0
000090 00 00 80 3f 00 00 80 3f 00 00 80 3f 00 00 80 3f
       1.0 1.0 1.0 1.0
0000a0 00 00 80 3f 00 00 80 3f 00 00 80 3f 00 00 80 3f
       1.0 1.0 1.0 1.0
0000b0 00 00 80 3f 00 00 80 3f 00 00 80 3f 00 00 80 3f
       1.0 1.0 1.0 1.0
0000c0 00 00 80 3f 00 00 80 3f 00 00 80 3f 00 00 80 3f
       1.0 1.0 1.0 1.0
0000d0 00 00 80 3f 00 00 80 3f 00 00 80 3f 00 00 80 3f
       1.0 1.0 1.0 1.0
0000e0 00 00 80 3f 00 00 80 3f 00 00 80 3f 00 00 80 3f
       1.0 1.0 1.0 1.0
0000f0 00 00 80 3f 00 00 80 3f 00 00 80 3f 00 00 80 3f
       1.0 1.0 1.0 1.0
000100 00 00 80 3f 00 00 80 3f 00 00 80 3f 00 00 80 3f
       1.0 1.0 1.0 1.0
000110 00 00 80 3f 00 00 80 3f 00 00 80 3f 00 00 80 3f
       1.0 1.0 1.0 1.0
000120 00 00 80 3f 00 00 80 3f 00 00 80 3f 00 00 80 3f
       1.0 1.0 1.0 1.0
000130 00 00 80 3f 00 00 80 3f 00 00 80 3f 00 00 80 3f
       1.0 1.0 1.0 1.0
000140 00 00 80 3f 00 00 80 3f 00 00 80 3f 00 00 80 3f
       1.0 1.0 1.0 1.0
000150 00 00 80 3f 00 00 80 3f 00 00 80 3f 00 00 80 3f
       1.0 1.0 1.0 1.0
000160 00 00 80 3f 00 00 80 3f 00 00 80 3f 00 00 80 3f
       1.0 1.0 1.0 1.0
000170 00 00 80 3f 00 00 80 3f 00 00 80 3f 00 00 80 3f
       1.0 1.0 1.0 1.0
000180 00 00 80 3f 00 00 80 3f 00 00 80 3f 00 00 80 3f
       1.0 1.0 1.0 1.0
000190 00 00 80 3f 00 00 80 3f 00 00 80 3f 00 00 80 3f
       1.0 1.0 1.0 1.0
0001a0 00 00 80 3f 00 00 80 3f 00 00 80 3f 00 00 80 3f
       1.0 1.0 1.0 1.0
0001b0 00 00 80 3f 00 00 80 3f 00 00 80 3f 00 00 80 3f
       1.0 1.0 1.0 1.0
0001c0 00 00 80 3f 00 00 80 3f 00 00 80 3f 00 00 80 3f
       1.0 1.0 1.0 1.0
0001d0 00 00 80 3f 00 00 80 3f 00 00 80 3f 00 00 80 3f
       1.0 1.0 1.0 1.0
0001e0 00 00 80 3f 00 00 80 3f 00 00 80 3f 00 00 80 3f
       1.0 1.0 1.0 1.0
0001f0 00 00 80 3f 00 00 80 3f 00 00 80 3f 00 00 80 3f
       1.0 1.0 1.0 1.0

bias f4 [128]
000000 00 00 00 00 00 00 00 00 00 00 00 00 00 00 00 00
       0.0 0.0 0.0 0.0
000010 00 00 00 00 00 00 00 00 00 00 00 00 00 00 00 00
       0.0 0.0 0.0 0.0
000020 00 00 00 00 00 00 00 00 00 00 00 00 00 00 00 00
       0.0 0.0 0.0 0.0
000030 00 00 00 00 00 00 00 00 00 00 00 00 00 00 00 00
       0.0 0.0 0.0 0.0
000040 00 00 00 00 00 00 00 00 00 00 00 00 00 00 00 00
       0.0 0.0 0.0 0.0
000050 00 00 00 00 00 00 00 00 00 00 00 00 00 00 00 00
       0.0 0.0 0.0 0.0
000060 00 00 00 00 00 00 00 00 00 00 00 00 00 00 00 00
       0.0 0.0 0.0 0.0
000070 00 00 00 00 00 00 00 00 00 00 00 00 00 00 00 00
       0.0 0.0 0.0 0.0
000080 00 00 00 00 00 00 00 00 00 00 00 00 00 00 00 00
       0.0 0.0 0.0 0.0
000090 00 00 00 00 00 00 00 00 00 00 00 00 00 00 00 00
       0.0 0.0 0.0 0.0
0000a0 00 00 00 00 00 00 00 00 00 00 00 00 00 00 00 00
       0.0 0.0 0.0 0.0
0000b0 00 00 00 00 00 00 00 00 00 00 00 00 00 00 00 00
       0.0 0.0 0.0 0.0
0000c0 00 00 00 00 00 00 00 00 00 00 00 00 00 00 00 00
       0.0 0.0 0.0 0.0
0000d0 00 00 00 00 00 00 00 00 00 00 00 00 00 00 00 00
       0.0 0.0 0.0 0.0
0000e0 00 00 00 00 00 00 00 00 00 00 00 00 00 00 00 00
       0.0 0.0 0.0 0.0
0000f0 00 00 00 00 00 00 00 00 00 00 00 00 00 00 00 00
       0.0 0.0 0.0 0.0
000100 00 00 00 00 00 00 00 00 00 00 00 00 00 00 00 00
       0.0 0.0 0.0 0.0
000110 00 00 00 00 00 00 00 00 00 00 00 00 00 00 00 00
       0.0 0.0 0.0 0.0
000120 00 00 00 00 00 00 00 00 00 00 00 00 00 00 00 00
       0.0 0.0 0.0 0.0
000130 00 00 00 00 00 00 00 00 00 00 00 00 00 00 00 00
       0.0 0.0 0.0 0.0
000140 00 00 00 00 00 00 00 00 00 00 00 00 00 00 00 00
       0.0 0.0 0.0 0.0
000150 00 00 00 00 00 00 00 00 00 00 00 00 00 00 00 00
       0.0 0.0 0.0 0.0
000160 00 00 00 00 00 00 00 00 00 00 00 00 00 00 00 00
       0.0 0.0 0.0 0.0
000170 00 00 00 00 00 00 00 00 00 00 00 00 00 00 00 00
       0.0 0.0 0.0 0.0
000180 00 00 00 00 00 00 00 00 00 00 00 00 00 00 00 00
       0.0 0.0 0.0 0.0
000190 00 00 00 00 00 00 00 00 00 00 00 00 00 00 00 00
       0.0 0.0 0.0 0.0
0001a0 00 00 00 00 00 00 00 00 00 00 00 00 00 00 00 00
       0.0 0.0 0.0 0.0
0001b0 00 00 00 00 00 00 00 00 00 00 00 00 00 00 00 00
       0.0 0.0 0.0 0.0
0001c0 00 00 00 00 00 00 00 00 00 00 00 00 00 00 00 00
       0.0 0.0 0.0 0.0
0001d0 00 00 00 00 00 00 00 00 00 00 00 00 00 00 00 00
       0.0 0.0 0.0 0.0
0001e0 00 00 00 00 00 00 00 00 00 00 00 00 00 00 00 00
       0.0 0.0 0.0 0.0
0001f0 00 00 00 00 00 00 00 00 00 00 00 00 00 00 00 00
       0.0 0.0 0.0 0.0

running_mean f4 [128]
000000 00 00 00 00 00 00 00 00 00 00 00 00 00 00 00 00
       0.0 0.0 0.0 0.0
000010 00 00 00 00 00 00 00 00 00 00 00 00 00 00 00 00
       0.0 0.0 0.0 0.0
000020 00 00 00 00 00 00 00 00 00 00 00 00 00 00 00 00
       0.0 0.0 0.0 0.0
000030 00 00 00 00 00 00 00 00 00 00 00 00 00 00 00 00
       0.0 0.0 0.0 0.0
000040 00 00 00 00 00 00 00 00 00 00 00 00 00 00 00 00
       0.0 0.0 0.0 0.0
000050 00 00 00 00 00 00 00 00 00 00 00 00 00 00 00 00
       0.0 0.0 0.0 0.0
000060 00 00 00 00 00 00 00 00 00 00 00 00 00 00 00 00
       0.0 0.0 0.0 0.0
000070 00 00 00 00 00 00 00 00 00 00 00 00 00 00 00 00
       0.0 0.0 0.0 0.0
000080 00 00 00 00 00 00 00 00 00 00 00 00 00 00 00 00
       0.0 0.0 0.0 0.0
000090 00 00 00 00 00 00 00 00 00 00 00 00 00 00 00 00
       0.0 0.0 0.0 0.0
0000a0 00 00 00 00 00 00 00 00 00 00 00 00 00 00 00 00
       0.0 0.0 0.0 0.0
0000b0 00 00 00 00 00 00 00 00 00 00 00 00 00 00 00 00
       0.0 0.0 0.0 0.0
0000c0 00 00 00 00 00 00 00 00 00 00 00 00 00 00 00 00
       0.0 0.0 0.0 0.0
0000d0 00 00 00 00 00 00 00 00 00 00 00 00 00 00 00 00
       0.0 0.0 0.0 0.0
0000e0 00 00 00 00 00 00 00 00 00 00 00 00 00 00 00 00
       0.0 0.0 0.0 0.0
0000f0 00 00 00 00 00 00 00 00 00 00 00 00 00 00 00 00
       0.0 0.0 0.0 0.0
000100 00 00 00 00 00 00 00 00 00 00 00 00 00 00 00 00
       0.0 0.0 0.0 0.0
000110 00 00 00 00 00 00 00 00 00 00 00 00 00 00 00 00
       0.0 0.0 0.0 0.0
000120 00 00 00 00 00 00 00 00 00 00 00 00 00 00 00 00
       0.0 0.0 0.0 0.0
000130 00 00 00 00 00 00 00 00 00 00 00 00 00 00 00 00
       0.0 0.0 0.0 0.0
000140 00 00 00 00 00 00 00 00 00 00 00 00 00 00 00 00
       0.0 0.0 0.0 0.0
000150 00 00 00 00 00 00 00 00 00 00 00 00 00 00 00 00
       0.0 0.0 0.0 0.0
000160 00 00 00 00 00 00 00 00 00 00 00 00 00 00 00 00
       0.0 0.0 0.0 0.0
000170 00 00 00 00 00 00 00 00 00 00 00 00 00 00 00 00
       0.0 0.0 0.0 0.0
000180 00 00 00 00 00 00 00 00 00 00 00 00 00 00 00 00
       0.0 0.0 0.0 0.0
000190 00 00 00 00 00 00 00 00 00 00 00 00 00 00 00 00
       0.0 0.0 0.0 0.0
0001a0 00 00 00 00 00 00 00 00 00 00 00 00 00 00 00 00
       0.0 0.0 0.0 0.0
0001b0 00 00 00 00 00 00 00 00 00 00 00 00 00 00 00 00
       0.0 0.0 0.0 0.0
0001c0 00 00 00 00 00 00 00 00 00 00 00 00 00 00 00 00
       0.0 0.0 0.0 0.0
0001d0 00 00 00 00 00 00 00 00 00 00 00 00 00 00 00 00
       0.0 0.0 0.0 0.0
0001e0 00 00 00 00 00 00 00 00 00 00 00 00 00 00 00 00
       0.0 0.0 0.0 0.0
0001f0 00 00 00 00 00 00 00 00 00 00 00 00 00 00 00 00
       0.0 0.0 0.0 0.0

running_var f4 [128]
000000 00 00 80 3f 00 00 80 3f 00 00 80 3f 00 00 80 3f
       1.0 1.0 1.0 1.0
000010 00 00 80 3f 00 00 80 3f 00 00 80 3f 00 00 80 3f
       1.0 1.0 1.0 1.0
000020 00 00 80 3f 00 00 80 3f 00 00 80 3f 00 00 80 3f
       1.0 1.0 1.0 1.0
000030 00 00 80 3f 00 00 80 3f 00 00 80 3f 00 00 80 3f
       1.0 1.0 1.0 1.0
000040 00 00 80 3f 00 00 80 3f 00 00 80 3f 00 00 80 3f
       1.0 1.0 1.0 1.0
000050 00 00 80 3f 00 00 80 3f 00 00 80 3f 00 00 80 3f
       1.0 1.0 1.0 1.0
000060 00 00 80 3f 00 00 80 3f 00 00 80 3f 00 00 80 3f
       1.0 1.0 1.0 1.0
000070 00 00 80 3f 00 00 80 3f 00 00 80 3f 00 00 80 3f
       1.0 1.0 1.0 1.0
000080 00 00 80 3f 00 00 80 3f 00 00 80 3f 00 00 80 3f
       1.0 1.0 1.0 1.0
000090 00 00 80 3f 00 00 80 3f 00 00 80 3f 00 00 80 3f
       1.0 1.0 1.0 1.0
0000a0 00 00 80 3f 00 00 80 3f 00 00 80 3f 00 00 80 3f
       1.0 1.0 1.0 1.0
0000b0 00 00 80 3f 00 00 80 3f 00 00 80 3f 00 00 80 3f
       1.0 1.0 1.0 1.0
0000c0 00 00 80 3f 00 00 80 3f 00 00 80 3f 00 00 80 3f
       1.0 1.0 1.0 1.0
0000d0 00 00 80 3f 00 00 80 3f 00 00 80 3f 00 00 80 3f
       1.0 1.0 1.0 1.0
0000e0 00 00 80 3f 00 00 80 3f 00 00 80 3f 00 00 80 3f
       1.0 1.0 1.0 1.0
0000f0 00 00 80 3f 00 00 80 3f 00 00 80 3f 00 00 80 3f
       1.0 1.0 1.0 1.0
000100 00 00 80 3f 00 00 80 3f 00 00 80 3f 00 00 80 3f
       1.0 1.0 1.0 1.0
000110 00 00 80 3f 00 00 80 3f 00 00 80 3f 00 00 80 3f
       1.0 1.0 1.0 1.0
000120 00 00 80 3f 00 00 80 3f 00 00 80 3f 00 00 80 3f
       1.0 1.0 1.0 1.0
000130 00 00 80 3f 00 00 80 3f 00 00 80 3f 00 00 80 3f
       1.0 1.0 1.0 1.0
000140 00 00 80 3f 00 00 80 3f 00 00 80 3f 00 00 80 3f
       1.0 1.0 1.0 1.0
000150 00 00 80 3f 00 00 80 3f 00 00 80 3f 00 00 80 3f
       1.0 1.0 1.0 1.0
000160 00 00 80 3f 00 00 80 3f 00 00 80 3f 00 00 80 3f
       1.0 1.0 1.0 1.0
000170 00 00 80 3f 00 00 80 3f 00 00 80 3f 00 00 80 3f
       1.0 1.0 1.0 1.0
000180 00 00 80 3f 00 00 80 3f 00 00 80 3f 00 00 80 3f
       1.0 1.0 1.0 1.0
000190 00 00 80 3f 00 00 80 3f 00 00 80 3f 00 00 80 3f
       1.0 1.0 1.0 1.0
0001a0 00 00 80 3f 00 00 80 3f 00 00 80 3f 00 00 80 3f
       1.0 1.0 1.0 1.0
0001b0 00 00 80 3f 00 00 80 3f 00 00 80 3f 00 00 80 3f
       1.0 1.0 1.0 1.0
0001c0 00 00 80 3f 00 00 80 3f 00 00 80 3f 00 00 80 3f
       1.0 1.0 1.0 1.0
0001d0 00 00 80 3f 00 00 80 3f 00 00 80 3f 00 00 80 3f
       1.0 1.0 1.0 1.0
0001e0 00 00 80 3f 00 00 80 3f 00 00 80 3f 00 00 80 3f
       1.0 1.0 1.0 1.0
0001f0 00 00 80 3f 00 00 80 3f 00 00 80 3f 00 00 80 3f
       1.0 1.0 1.0 1.0

weight f4 [128, 1, 3, 3]
000000 89 f4 8a 3e 4b a9 1c be 20 95 49 3d 96 91 43 3e
       0.2713969 -0.15298955 0.049214482 0.19098505
000010 08 a0 13 be 98 a6 a3 be e7 e1 91 3e c0 66 9d bd
       -0.14416516 -0.31963038 0.28492662 -0.07685614
000020 40 f7 36 bd d0 d9 e9 3c 2f 21 95 be f6 b2 33 be
       -0.04466939 0.028546244 -0.2912688 -0.17548737
000030 82 26 04 3e 18 78 59 bd 00 9e 6f bc 00 5f 45 3d
       0.12905315 -0.053093046 -0.0146250725 0.048186302
000040 70 7e c2 bc c8 e1 3d bd 4e 46 5c be 26 d6 0e 3e
       -0.02374193 -0.0463579 -0.21511194 0.13948879
000050 33 f1 a2 3e 00 43 d8 ba ad f1 8f 3e 80 e2 66 bd
       0.31824645 -0.001649946 0.2811407 -0.05636835
000060 88 69 aa be f0 49 ff 3d de 9d 49 3e e3 fc 2f be
       -0.3328364 0.12465274 0.19689128 -0.17186312
000070 c0 ef 29 3e 5a 9e 41 3e bb ee 5f be 86 ad a1 be
       0.16595364 0.18908063 -0.21868412 -0.315777
000080 87 9d 8c 3e 6b 64 63 be f7 59 8b be 58 43 00 be
       0.27463934 -0.22206275 -0.27217075 -0.1252569
000090 51 60 8c 3e d4 ba d9 3d 68 fd 0b 3d ec b3 ab 3d
       0.27417234 0.10631338 0.034177214 0.08383927
0000a0 23 3c a3 be c4 8f ab 3d 96 a2 a7 be 1e 1d 44 be
       -0.31881818 0.083770305 -0.3274123 -0.19151732
0000b0 3c 68 d2 bd bb 6a 9b be 40 8b 74 be 50 89 26 be
       -0.102737874 -0.30354866 -0.23881245 -0.16263318
0000c0 a0 f5 d6 3d 75 c3 96 3e 8b a6 68 be ce 48 6b 3e
       0.10496068 0.29445997 -0.22719781 0.22976992
0000d0 d6 3f bf bd 46 83 21 be 4a fc 3a 3e 8c 27 d7 bd
       -0.093383476 -0.15772733 0.18260303 -0.1050559
0000e0 40 09 65 3d ec 6c a7 bd c0 fb e0 3c ac 36 9e bd
       0.055917025 -0.08175072 0.027463794 -0.077252716
0000f0 d2 14 5a 3e 80 63 c5 bc ec 31 bd 3d 4c cd 91 be
       0.21297005 -0.024095297 0.092380375 -0.28476942
000100 39 79 a0 3e 06 8e 86 be 40 3f c1 3c 9e 46 0d be
       0.31342486 -0.2628023 0.02358973 -0.1379647
000110 a6 1e 45 be 5c 42 87 bd 2c c3 93 3d 8a 03 9e be
       -0.19249973 -0.06604454 0.072149605 -0.30862075
000120 6c a2 e3 3d d2 53 49 3e 74 ac 98 3d a0 ba 41 be
       0.11114964 0.19660881 0.07454768 -0.18918848
000130 d0 87 b1 bc b2 21 45 3e aa f9 37 3e 50 93 fa bd
       -0.021671206 0.19251135 0.17966333 -0.12235129
000140 ba e1 01 3e e2 5e 69 3e 24 1c d3 3d d0 1f c2 3c
       0.12683764 0.22790101 0.10308102 0.02369681
000150 80 6b 02 be d0 ca ee 3d cc 9c d0 3d b6 51 22 be
       -0.1273632 0.11659777 0.10186157 -0.15851483
000160 64 5d ac 3d 92 d1 54 3e 23 27 a9 3e e2 a2 72 3e
       0.0841625 0.2078307 0.3303767 0.23694947
000170 12 b6 64 3e c8 df 3d bd ca 68 90 be 12 8e 15 3e
       0.2233508 -0.046355993 -0.28204948 0.14604977
000180 1b 84 89 3e dc 90 8e be 00 1b ed 3d ec 62 a7 bd
       0.268586 -0.27844894 0.115774155 -0.08173165
000190 ad 62 8d 3e ed d8 a4 3e 2f c3 93 3e 63 8d 5e be
       0.27614346 0.3219675 0.2885985 -0.21733622
0001a0 8b 8b 9d 3e c0 8b b1 bc 90 c9 93 bd 00 4e 0b bb
       0.30770525 -0.021673083 -0.07216179 -0.0021256208
0001b0 b0 74 05 3e 50 5f 16 3e 3e 3b 4f 3e 60 12 06 be
       0.13032794 0.14684796 0.20237443 -0.13092947
0001c0 f8 5c 06 be b4 2e 81 be a4 12 98 bd 96 d1 1f 3e
       -0.13121402 -0.25230944 -0.074254304 0.15607294
0001d0 a9 a6 8e 3e da 1e 79 3e df b3 89 be 50 aa a0 bc
       0.27861527 0.24328175 -0.26895043 -0.019612461
0001e0 a4 33 8e 3d e0 64 8d be 9e 38 06 be 78 77 75 3d
       0.069434434 -0.27616024 -0.13107535 0.059928387
0001f0 00 08 34 3b 30 37 f0 bc 76 31 c8 bd 30 6d a9 be
       0.0027470589 -0.02932319 -0.09775059 -0.33091116
000200 f3 0d a6 be 9a be 0b 3e c7 d9 8e be 29 ee 95 3e
       -0.32432517 0.13646927 -0.27900526 0.29283264
000210 70 3c 82 3c 56 4b 2d be c3 d2 40 be d4 a2 9b bd
       0.01589796 -0.1692327 -0.18830399 -0.075994164
000220 f4 8c 8d 3d b8 2c 1c 3e d8 df 4d bd 30 9d 2d be
       0.0691165 0.15251434 -0.050262302 -0.16954494
000230 20 63 52 be b6 a0 e6 bd 00 7a 45 3c 27 af a1 3e
       -0.20545626 -0.11261122 0.012053013 0.31578943
000240 8c 99 f1 bd fa eb 7e 3e c6 ac c8 bd c6 42 6a 3e
       -0.11796865 0.24894705 -0.09798579 0.22877035
000250 ce 0f 51 3e cd e3 a2 3e 38 06 20 3e f0 25 88 bd
       0.20416185 0.31814423 0.15627372 -0.06647861
000260 25 76 91 3e f9 47 a5 3e 36 cc 63 be c7 76 a6 be
       0.2841045 0.32281473 -0.22245869 -0.32512495
000270 dc 33 dd bd 40 5c 8a bd 10 76 08 3e c6 28 1a be
       -0.10800907 -0.067558765 0.13326287 -0.15054616
000280 1e 6f 77 be 68 04 85 be a0 3b 06 3e 82 ba 09 3e
       -0.24163482 -0.25979924 0.13108683 0.13450053
000290 7c c9 c9 bd 7c 59 ad 3d 2d 6d 8d 3e 58 f5 75 be
       -0.09852883 0.084643334 0.27622357 -0.24019372
0002a0 0c ae ea 3d 9a 96 4d 3e de 46 07 3e 56 c6 6c 3e
       0.11458978 0.20076981 0.13210627 0.23122534
0002b0 bd 9d 8d 3e 38 7e 05 bd 10 7c 10 be 68 a2 30 bd
       0.27659407 -0.032591075 -0.14109826 -0.043123633
0002c0 16 9b 09 be 7a c4 40 3e e8 35 13 3d 00 b9 55 bd
       -0.13438067 0.1882495 0.03594008 -0.052178383
0002d0 4a 9c 5e 3e a4 49 98 3d 4e f0 18 3e d4 aa e7 3d
       0.21739307 0.07435921 0.14935419 0.1131188
0002e0 12 4e 37 3e 28 e4 59 bd f3 3e 28 be fb 78 48 be
       0.17900875 -0.053196102 -0.16430263 -0.195774
0002f0 e6 36 18 3e 1f d8 86 be 16 e2 01 3e 96 75 24 3e
       0.14864692 -0.26336762 0.12683901 0.1606048
000300 da d3 34 3e f0 00 be bc d0 ea 5f be f8 04 7c 3d
       0.1765894 -0.023193806 -0.21866918 0.061528176
000310 82 47 5b 3e 16 2c 6f be b6 23 70 be a2 d1 55 3e
       0.21413997 -0.23356661 -0.23451123 0.2088075
000320 a0 5a 44 bd 8e eb 00 be 2f db 9a 3e a6 79 50 be
       -0.04793799 -0.12589857 0.3024535 -0.20358905
000330 d5 97 97 3e 79 eb 84 3e 00 84 00 bd dd 15 a8 3e
       0.29608026 0.259609 -0.031375885 0.3282918
000340 f4 30 c3 3d b3 d2 82 be 0c 9e eb bd d8 d3 7c be
       0.095308214 -0.25551376 -0.115047544 -0.24690187
000350 d0 a1 75 be aa 70 a0 be 38 34 4b 3d f7 dc 90 3e
       -0.23987508 -0.31335956 0.049610347 0.28293583
000360 9a d6 31 3e 03 39 24 be 87 c7 83 be 3f 2d 80 3e
       0.1736702 -0.16037373 -0.25738165 0.2503452
000370 5c 93 a7 bd 80 5c 51 bb 08 b5 24 3d 92 03 9f be
       -0.081824034 -0.0031946003 0.040211707 -0.3105741
000380 b3 ab 97 3e 00 d5 5b bd bb 41 a3 be 2a 9b 77 3e
       0.29623184 -0.05366993 -0.31886086 0.24180284
000390 26 79 d3 bd c4 ce b0 3d 10 75 01 3e 46 a5 da bd
       -0.103258416 0.086331874 0.12642312 -0.10676055
0003a0 da 94 88 be f8 23 54 bd a8 ff 4a bd b8 35 47 3d
       -0.26676065 -0.051792115 -0.04956022 0.048635215
0003b0 ae 83 36 be d6 61 4f 3e 90 c1 d4 bc 86 c8 15 3e
       -0.1782367 0.20252165 -0.025971204 0.14627275
0003c0 b8 98 4e bd d0 ef 8e be 40 68 17 be 70 06 a5 bd
       -0.050438613 -0.27917337 -0.14785862 -0.080578685
0003d0 44 df bc 3d 6e 71 4e 3e a0 57 68 3d b8 88 04 3d
       0.09222272 0.20160457 0.05672419 0.032356948
0003e0 1e 13 4f 3e 50 7c 19 3e 7c 75 93 be 5a 9a 94 be
       0.20222136 0.14988828 -0.2880057 -0.2902401
0003f0 00 6d e5 3c 6b 08 4c be a0 f2 f4 3d c6 79 7f be
       0.028006077 -0.19925086 0.119603395 -0.24948797

weight f4 [128]
000000 00 00 80 3f 00 00 80 3f 00 00 80 3f 00 00 80 3f
       1.0 1.0 1.0 1.0
000010 00 00 80 3f 00 00 80 3f 00 00 80 3f 00 00 80 3f
       1.0 1.0 1.0 1.0
000020 00 00 80 3f 00 00 80 3f 00 00 80 3f 00 00 80 3f
       1.0 1.0 1.0 1.0
000030 00 00 80 3f 00 00 80 3f 00 00 80 3f 00 00 80 3f
       1.0 1.0 1.0 1.0
000040 00 00 80 3f 00 00 80 3f 00 00 80 3f 00 00 80 3f
       1.0 1.0 1.0 1.0
000050 00 00 80 3f 00 00 80 3f 00 00 80 3f 00 00 80 3f
       1.0 1.0 1.0 1.0
000060 00 00 80 3f 00 00 80 3f 00 00 80 3f 00 00 80 3f
       1.0 1.0 1.0 1.0
000070 00 00 80 3f 00 00 80 3f 00 00 80 3f 00 00 80 3f
       1.0 1.0 1.0 1.0
000080 00 00 80 3f 00 00 80 3f 00 00 80 3f 00 00 80 3f
       1.0 1.0 1.0 1.0
000090 00 00 80 3f 00 00 80 3f 00 00 80 3f 00 00 80 3f
       1.0 1.0 1.0 1.0
0000a0 00 00 80 3f 00 00 80 3f 00 00 80 3f 00 00 80 3f
       1.0 1.0 1.0 1.0
0000b0 00 00 80 3f 00 00 80 3f 00 00 80 3f 00 00 80 3f
       1.0 1.0 1.0 1.0
0000c0 00 00 80 3f 00 00 80 3f 00 00 80 3f 00 00 80 3f
       1.0 1.0 1.0 1.0
0000d0 00 00 80 3f 00 00 80 3f 00 00 80 3f 00 00 80 3f
       1.0 1.0 1.0 1.0
0000e0 00 00 80 3f 00 00 80 3f 00 00 80 3f 00 00 80 3f
       1.0 1.0 1.0 1.0
0000f0 00 00 80 3f 00 00 80 3f 00 00 80 3f 00 00 80 3f
       1.0 1.0 1.0 1.0
000100 00 00 80 3f 00 00 80 3f 00 00 80 3f 00 00 80 3f
       1.0 1.0 1.0 1.0
000110 00 00 80 3f 00 00 80 3f 00 00 80 3f 00 00 80 3f
       1.0 1.0 1.0 1.0
000120 00 00 80 3f 00 00 80 3f 00 00 80 3f 00 00 80 3f
       1.0 1.0 1.0 1.0
000130 00 00 80 3f 00 00 80 3f 00 00 80 3f 00 00 80 3f
       1.0 1.0 1.0 1.0
000140 00 00 80 3f 00 00 80 3f 00 00 80 3f 00 00 80 3f
       1.0 1.0 1.0 1.0
000150 00 00 80 3f 00 00 80 3f 00 00 80 3f 00 00 80 3f
       1.0 1.0 1.0 1.0
000160 00 00 80 3f 00 00 80 3f 00 00 80 3f 00 00 80 3f
       1.0 1.0 1.0 1.0
000170 00 00 80 3f 00 00 80 3f 00 00 80 3f 00 00 80 3f
       1.0 1.0 1.0 1.0
000180 00 00 80 3f 00 00 80 3f 00 00 80 3f 00 00 80 3f
       1.0 1.0 1.0 1.0
000190 00 00 80 3f 00 00 80 3f 00 00 80 3f 00 00 80 3f
       1.0 1.0 1.0 1.0
0001a0 00 00 80 3f 00 00 80 3f 00 00 80 3f 00 00 80 3f
       1.0 1.0 1.0 1.0
0001b0 00 00 80 3f 00 00 80 3f 00 00 80 3f 00 00 80 3f
       1.0 1.0 1.0 1.0
0001c0 00 00 80 3f 00 00 80 3f 00 00 80 3f 00 00 80 3f
       1.0 1.0 1.0 1.0
0001d0 00 00 80 3f 00 00 80 3f 00 00 80 3f 00 00 80 3f
       1.0 1.0 1.0 1.0
0001e0 00 00 80 3f 00 00 80 3f 00 00 80 3f 00 00 80 3f
       1.0 1.0 1.0 1.0
0001f0 00 00 80 3f 00 00 80 3f 00 00 80 3f 00 00 80 3f
       1.0 1.0 1.0 1.0

bias f4 [128]
000000 00 00 00 00 00 00 00 00 00 00 00 00 00 00 00 00
       0.0 0.0 0.0 0.0
000010 00 00 00 00 00 00 00 00 00 00 00 00 00 00 00 00
       0.0 0.0 0.0 0.0
000020 00 00 00 00 00 00 00 00 00 00 00 00 00 00 00 00
       0.0 0.0 0.0 0.0
000030 00 00 00 00 00 00 00 00 00 00 00 00 00 00 00 00
       0.0 0.0 0.0 0.0
000040 00 00 00 00 00 00 00 00 00 00 00 00 00 00 00 00
       0.0 0.0 0.0 0.0
000050 00 00 00 00 00 00 00 00 00 00 00 00 00 00 00 00
       0.0 0.0 0.0 0.0
000060 00 00 00 00 00 00 00 00 00 00 00 00 00 00 00 00
       0.0 0.0 0.0 0.0
000070 00 00 00 00 00 00 00 00 00 00 00 00 00 00 00 00
       0.0 0.0 0.0 0.0
000080 00 00 00 00 00 00 00 00 00 00 00 00 00 00 00 00
       0.0 0.0 0.0 0.0
000090 00 00 00 00 00 00 00 00 00 00 00 00 00 00 00 00
       0.0 0.0 0.0 0.0
0000a0 00 00 00 00 00 00 00 00 00 00 00 00 00 00 00 00
       0.0 0.0 0.0 0.0
0000b0 00 00 00 00 00 00 00 00 00 00 00 00 00 00 00 00
       0.0 0.0 0.0 0.0
0000c0 00 00 00 00 00 00 00 00 00 00 00 00 00 00 00 00
       0.0 0.0 0.0 0.0
0000d0 00 00 00 00 00 00 00 00 00 00 00 00 00 00 00 00
       0.0 0.0 0.0 0.0
0000e0 00 00 00 00 00 00 00 00 00 00 00 00 00 00 00 00
       0.0 0.0 0.0 0.0
0000f0 00 00 00 00 00 00 00 00 00 00 00 00 00 00 00 00
       0.0 0.0 0.0 0.0
000100 00 00 00 00 00 00 00 00 00 00 00 00 00 00 00 00
       0.0 0.0 0.0 0.0
000110 00 00 00 00 00 00 00 00 00 00 00 00 00 00 00 00
       0.0 0.0 0.0 0.0
000120 00 00 00 00 00 00 00 00 00 00 00 00 00 00 00 00
       0.0 0.0 0.0 0.0
000130 00 00 00 00 00 00 00 00 00 00 00 00 00 00 00 00
       0.0 0.0 0.0 0.0
000140 00 00 00 00 00 00 00 00 00 00 00 00 00 00 00 00
       0.0 0.0 0.0 0.0
000150 00 00 00 00 00 00 00 00 00 00 00 00 00 00 00 00
       0.0 0.0 0.0 0.0
000160 00 00 00 00 00 00 00 00 00 00 00 00 00 00 00 00
       0.0 0.0 0.0 0.0
000170 00 00 00 00 00 00 00 00 00 00 00 00 00 00 00 00
       0.0 0.0 0.0 0.0
000180 00 00 00 00 00 00 00 00 00 00 00 00 00 00 00 00
       0.0 0.0 0.0 0.0
000190 00 00 00 00 00 00 00 00 00 00 00 00 00 00 00 00
       0.0 0.0 0.0 0.0
0001a0 00 00 00 00 00 00 00 00 00 00 00 00 00 00 00 00
       0.0 0.0 0.0 0.0
0001b0 00 00 00 00 00 00 00 00 00 00 00 00 00 00 00 00
       0.0 0.0 0.0 0.0
0001c0 00 00 00 00 00 00 00 00 00 00 00 00 00 00 00 00
       0.0 0.0 0.0 0.0
0001d0 00 00 00 00 00 00 00 00 00 00 00 00 00 00 00 00
       0.0 0.0 0.0 0.0
0001e0 00 00 00 00 00 00 00 00 00 00 00 00 00 00 00 00
       0.0 0.0 0.0 0.0
0001f0 00 00 00 00 00 00 00 00 00 00 00 00 00 00 00 00
       0.0 0.0 0.0 0.0

running_mean f4 [128]
000000 00 00 00 00 00 00 00 00 00 00 00 00 00 00 00 00
       0.0 0.0 0.0 0.0
000010 00 00 00 00 00 00 00 00 00 00 00 00 00 00 00 00
       0.0 0.0 0.0 0.0
000020 00 00 00 00 00 00 00 00 00 00 00 00 00 00 00 00
       0.0 0.0 0.0 0.0
000030 00 00 00 00 00 00 00 00 00 00 00 00 00 00 00 00
       0.0 0.0 0.0 0.0
000040 00 00 00 00 00 00 00 00 00 00 00 00 00 00 00 00
       0.0 0.0 0.0 0.0
000050 00 00 00 00 00 00 00 00 00 00 00 00 00 00 00 00
       0.0 0.0 0.0 0.0
000060 00 00 00 00 00 00 00 00 00 00 00 00 00 00 00 00
       0.0 0.0 0.0 0.0
000070 00 00 00 00 00 00 00 00 00 00 00 00 00 00 00 00
       0.0 0.0 0.0 0.0
000080 00 00 00 00 00 00 00 00 00 00 00 00 00 00 00 00
       0.0 0.0 0.0 0.0
000090 00 00 00 00 00 00 00 00 00 00 00 00 00 00 00 00
       0.0 0.0 0.0 0.0
0000a0 00 00 00 00 00 00 00 00 00 00 00 00 00 00 00 00
       0.0 0.0 0.0 0.0
0000b0 00 00 00 00 00 00 00 00 00 00 00 00 00 00 00 00
       0.0 0.0 0.0 0.0
0000c0 00 00 00 00 00 00 00 00 00 00 00 00 00 00 00 00
       0.0 0.0 0.0 0.0
0000d0 00 00 00 00 00 00 00 00 00 00 00 00 00 00 00 00
       0.0 0.0 0.0 0.0
0000e0 00 00 00 00 00 00 00 00 00 00 00 00 00 00 00 00
       0.0 0.0 0.0 0.0
0000f0 00 00 00 00 00 00 00 00 00 00 00 00 00 00 00 00
       0.0 0.0 0.0 0.0
000100 00 00 00 00 00 00 00 00 00 00 00 00 00 00 00 00
       0.0 0.0 0.0 0.0
000110 00 00 00 00 00 00 00 00 00 00 00 00 00 00 00 00
       0.0 0.0 0.0 0.0
000120 00 00 00 00 00 00 00 00 00 00 00 00 00 00 00 00
       0.0 0.0 0.0 0.0
000130 00 00 00 00 00 00 00 00 00 00 00 00 00 00 00 00
       0.0 0.0 0.0 0.0
000140 00 00 00 00 00 00 00 00 00 00 00 00 00 00 00 00
       0.0 0.0 0.0 0.0
000150 00 00 00 00 00 00 00 00 00 00 00 00 00 00 00 00
       0.0 0.0 0.0 0.0
000160 00 00 00 00 00 00 00 00 00 00 00 00 00 00 00 00
       0.0 0.0 0.0 0.0
000170 00 00 00 00 00 00 00 00 00 00 00 00 00 00 00 00
       0.0 0.0 0.0 0.0
000180 00 00 00 00 00 00 00 00 00 00 00 00 00 00 00 00
       0.0 0.0 0.0 0.0
000190 00 00 00 00 00 00 00 00 00 00 00 00 00 00 00 00
       0.0 0.0 0.0 0.0
0001a0 00 00 00 00 00 00 00 00 00 00 00 00 00 00 00 00
       0.0 0.0 0.0 0.0
0001b0 00 00 00 00 00 00 00 00 00 00 00 00 00 00 00 00
       0.0 0.0 0.0 0.0
0001c0 00 00 00 00 00 00 00 00 00 00 00 00 00 00 00 00
       0.0 0.0 0.0 0.0
0001d0 00 00 00 00 00 00 00 00 00 00 00 00 00 00 00 00
       0.0 0.0 0.0 0.0
0001e0 00 00 00 00 00 00 00 00 00 00 00 00 00 00 00 00
       0.0 0.0 0.0 0.0
0001f0 00 00 00 00 00 00 00 00 00 00 00 00 00 00 00 00
       0.0 0.0 0.0 0.0

running_var f4 [128]
000000 00 00 80 3f 00 00 80 3f 00 00 80 3f 00 00 80 3f
       1.0 1.0 1.0 1.0
000010 00 00 80 3f 00 00 80 3f 00 00 80 3f 00 00 80 3f
       1.0 1.0 1.0 1.0
000020 00 00 80 3f 00 00 80 3f 00 00 80 3f 00 00 80 3f
       1.0 1.0 1.0 1.0
000030 00 00 80 3f 00 00 80 3f 00 00 80 3f 00 00 80 3f
       1.0 1.0 1.0 1.0
000040 00 00 80 3f 00 00 80 3f 00 00 80 3f 00 00 80 3f
       1.0 1.0 1.0 1.0
000050 00 00 80 3f 00 00 80 3f 00 00 80 3f 00 00 80 3f
       1.0 1.0 1.0 1.0
000060 00 00 80 3f 00 00 80 3f 00 00 80 3f 00 00 80 3f
       1.0 1.0 1.0 1.0
000070 00 00 80 3f 00 00 80 3f 00 00 80 3f 00 00 80 3f
       1.0 1.0 1.0 1.0
000080 00 00 80 3f 00 00 80 3f 00 00 80 3f 00 00 80 3f
       1.0 1.0 1.0 1.0
000090 00 00 80 3f 00 00 80 3f 00 00 80 3f 00 00 80 3f
       1.0 1.0 1.0 1.0
0000a0 00 00 80 3f 00 00 80 3f 00 00 80 3f 00 00 80 3f
       1.0 1.0 1.0 1.0
0000b0 00 00 80 3f 00 00 80 3f 00 00 80 3f 00 00 80 3f
       1.0 1.0 1.0 1.0
0000c0 00 00 80 3f 00 00 80 3f 00 00 80 3f 00 00 80 3f
       1.0 1.0 1.0 1.0
0000d0 00 00 80 3f 00 00 80 3f 00 00 80 3f 00 00 80 3f
       1.0 1.0 1.0 1.0
0000e0 00 00 80 3f 00 00 80 3f 00 00 80 3f 00 00 80 3f
       1.0 1.0 1.0 1.0
0000f0 00 00 80 3f 00 00 80 3f 00 00 80 3f 00 00 80 3f
       1.0 1.0 1.0 1.0
000100 00 00 80 3f 00 00 80 3f 00 00 80 3f 00 00 80 3f
       1.0 1.0 1.0 1.0
000110 00 00 80 3f 00 00 80 3f 00 00 80 3f 00 00 80 3f
       1.0 1.0 1.0 1.0
000120 00 00 80 3f 00 00 80 3f 00 00 80 3f 00 00 80 3f
       1.0 1.0 1.0 1.0
000130 00 00 80 3f 00 00 80 3f 00 00 80 3f 00 00 80 3f
       1.0 1.0 1.0 1.0
000140 00 00 80 3f 00 00 80 3f 00 00 80 3f 00 00 80 3f
       1.0 1.0 1.0 1.0
000150 00 00 80 3f 00 00 80 3f 00 00 80 3f 00 00 80 3f
       1.0 1.0 1.0 1.0
000160 00 00 80 3f 00 00 80 3f 00 00 80 3f 00 00 80 3f
       1.0 1.0 1.0 1.0
000170 00 00 80 3f 00 00 80 3f 00 00 80 3f 00 00 80 3f
       1.0 1.0 1.0 1.0
000180 00 00 80 3f 00 00 80 3f 00 00 80 3f 00 00 80 3f
       1.0 1.0 1.0 1.0
000190 00 00 80 3f 00 00 80 3f 00 00 80 3f 00 00 80 3f
       1.0 1.0 1.0 1.0
0001a0 00 00 80 3f 00 00 80 3f 00 00 80 3f 00 00 80 3f
       1.0 1.0 1.0 1.0
0001b0 00 00 80 3f 00 00 80 3f 00 00 80 3f 00 00 80 3f
       1.0 1.0 1.0 1.0
0001c0 00 00 80 3f 00 00 80 3f 00 00 80 3f 00 00 80 3f
       1.0 1.0 1.0 1.0
0001d0 00 00 80 3f 00 00 80 3f 00 00 80 3f 00 00 80 3f
       1.0 1.0 1.0 1.0
0001e0 00 00 80 3f 00 00 80 3f 00 00 80 3f 00 00 80 3f
       1.0 1.0 1.0 1.0
0001f0 00 00 80 3f 00 00 80 3f 00 00 80 3f 00 00 80 3f
       1.0 1.0 1.0 1.0

weight f4 [32, 128, 1, 1]
000000 c0 f8 d5 3a ca ab 4e 3d 78 f2 b5 3c dc 9e b4 bd
       0.0016324744 0.0504568 0.022210345 -0.088193625
000010 a7 80 9f bd 36 57 1e 3d 86 64 57 3d f8 ce ca 3c
       -0.0778821 0.03865739 0.0525861 0.024756894
000020 9c c4 d4 3c 1c 9a b0 bd 21 c1 b4 3d 12 16 82 bd
       0.025972657 -0.08623144 0.08825899 -0.06351866
000030 0d 65 aa bd e8 1d d2 3c 36 f2 5d 3d ee e2 49 3d
       -0.08320055 0.025649026 0.05418607 0.049288683
000040 d8 12 36 bc a8 82 4d bd d0 41 7f bd 41 0e b0 3d
       -0.011112891 -0.05017343 -0.062318623 0.08596469
000050 c7 67 9d bd 20 67 34 bc 9a 78 60 3d 60 64 e0 bb
       -0.076858096 -0.011010915 0.054802515 -0.006847903
000060 d8 a5 0d 3c 4a ab 32 3d 95 0b a0 bd bc 15 e5 bc
       0.008645497 0.043620385 -0.07814709 -0.027964465
000070 0a 9a 97 bd 0e a5 4a 3d 72 c7 67 3d a0 41 3d 3c
       -0.074024275 0.049473815 0.05658669 0.011551291
000080 2a 02 61 bd aa 5e 33 bd ba 31 0a 3d 86 aa 92 bd
       -0.054933704 -0.04379145 0.03373883 -0.07161431
000090 90 71 76 bc b5 f1 89 bd 5c 4a 94 bd f0 8e 78 bc
       -0.015041724 -0.06735555 -0.072407454 -0.015170798
0000a0 74 ea 8d bc 7b 3e 86 3d d4 12 de bc e7 49 83 3d
       -0.01732371 0.06554886 -0.027108587 0.0641058
0000b0 19 cd 9d bd fe 25 4d bd da 65 32 3d 28 53 a7 bc
       -0.07705135 -0.05008506 0.043554164 -0.020425394
0000c0 30 88 78 bc d0 7a 05 3c 03 69 87 3d 64 d6 e7 bc
       -0.015169188 0.008146957 0.06611826 -0.028300472
0000d0 e1 d5 5d bd be 9d 04 3d e8 2f 92 bc 36 3a 6e bd
       -0.05415905 0.032376997 -0.01784511 -0.058160983
0000e0 bf c5 42 bd fa bc 26 bd 0c e0 01 3d 58 dd 70 3c
       -0.047551867 -0.040707566 0.03170781 0.01470121
0000f0 17 54 81 3d 78 4c 84 bd 7a e6 20 3d 18 5f c9 bc
       0.06314867 -0.06459898 0.0392823 -0.024581477
000100 62 fd 72 3d 85 53 98 3d f3 d2 96 3d c8 f2 76 bc
       0.059323676 0.07437805 0.07364454 -0.015072532
000110 d8 06 f5 3c c8 fc 02 3c 05 10 ae 3d 42 b9 55 3d
       0.02991049 0.007994838 0.08499149 0.05217863
000120 29 eb 6d bd 20 77 de 3c 29 6d 22 bd d4 25 9f 3c
       -0.058085594 0.027156413 -0.039654884 0.019427218
000130 46 ee 7d 3d f8 0c d3 3c 20 2d 58 3c 55 fa ac 3d
       0.061994813 0.02576302 0.013194352 0.084461845
000140 e5 11 9f 3d c0 93 12 3d d5 bb 9d 3d 6c 9c ec 3c
       0.07767085 0.035785437 0.07701842 0.028883182
000150 a8 1d 63 bd 2e 7a 0a bd 0c 38 b7 bc 8f 18 83 bd
       -0.055448204 -0.033807926 -0.022365592 -0.064011686
000160 e1 a4 96 3d 4f aa 89 3d 09 2d 7a bd fd cb 18 bd
       0.07355667 0.06721937 -0.061078105 -0.037303913
000170 56 2c 3b 3d c6 a0 7f 3d dd ed 9a bd 20 52 ef bb
       0.04569658 0.062409185 -0.075649 -0.0073034912
000180 40 ee 2f 3c 63 de 88 3d 4f 58 46 bd f0 a4 48 bc
       0.010737956 0.06683042 -0.04842406 -0.012246355
000190 7e 07 db bc 6f 59 2d bd 42 d6 10 3d fc 50 ce bc
       -0.026736971 -0.04232162 0.035360582 -0.0251851
0001a0 ab 75 ae 3d 93 31 95 3d 66 eb 67 3d 7d 02 a6 3d
       0.08518537 0.07284846 0.056620978 0.08105943
0001b0 64 7b 82 bc f8 b6 25 3c 54 a0 3d bd c0 c2 69 3c
       -0.015927978 0.010114424 -0.04629548 0.014267623
0001c0 ec f9 80 bd d6 75 6e 3d 9a 9b 10 bd 76 bb e5 bc
       -0.06297669 0.058217846 -0.035304643 -0.02804349
0001d0 71 90 1f bd a0 f1 af bb 55 52 09 bd 35 27 a4 3d
       -0.03895611 -0.00536938 -0.033525784 0.08015291
0001e0 d6 55 0f 3d f8 a8 67 bc f6 57 16 3d 7e 72 a8 bd
       0.03499397 -0.014139406 0.03670498 -0.08224963
0001f0 94 13 f0 bc 9d e7 81 3d 57 86 9a 3d 33 0a af 3d
       -0.02930621 0.06343005 0.075451545 0.08546867
000200 78 a8 cb bc 58 ef 9f 3c f4 96 c8 3c 52 c9 75 bd
       -0.024860606 0.019523308 0.024486043 -0.060006447
000210 9e e1 4c 3d e0 73 57 bd bc 33 da bc 7a 39 57 3d
       0.050019853 -0.05260074 -0.026635997 0.05254505
000220 39 d3 b0 3d 54 09 81 bc c0 7e 59 bc f0 18 92 bb
       0.086340375 -0.015751518 -0.013274848 -0.004458539
000230 6d 8c 8f bd 5a 5f 96 bd 68 2c b2 3c 64 fc a4 3c
       -0.07009206 -0.073424056 0.02174969 0.02013988
000240 66 5b 5d 3d 11 55 98 3d 82 77 40 bd d4 11 e8 bc
       0.054042242 0.074381 -0.04698897 -0.028328814
000250 4d cd 8b 3d da 76 6a 3d af a0 8b 3d 57 87 a0 3d
       0.068262674 0.057242252 0.06817757 0.07838314
000260 98 40 7d 3c 88 82 e7 3c bc e6 a5 bc 56 ff 55 3d
       0.015457295 0.028260484 -0.020251624 0.05224546
000270 9e a9 3e 3d 91 bc 3d bd 73 b8 1b bd ac b8 ea bc
       0.04654848 -0.04632241 -0.0380177 -0.028652512
000280 c0 33 97 bb 48 26 2e bc 50 42 e4 3b 5a 83 92 bd
       -0.0046143234 -0.010629244 0.006965913 -0.071539596
000290 3a f8 e6 bc d0 d0 15 3c 4f d7 91 bd 40 cc 57 3b
       -0.028194536 0.009144023 -0.07121145 0.003292814
0002a0 09 90 ad 3d 7a 0b 4f bd b1 ca ae 3d f3 25 90 3d
       0.08474738 -0.050548054 0.08534754 0.07038488
0002b0 43 94 9d 3d 04 b7 10 3d 3a 88 48 3d aa 5c b2 bd
       0.07694294 0.035330787 0.04895804 -0.087090805
0002c0 b0 38 86 3b 09 34 03 bd ff b2 97 3d 3e 52 4a 3d
       0.004096113 -0.032032046 0.07407188 0.04939484
0002d0 06 26 03 3d a0 01 e2 3b c0 18 7c bb 08 1d 03 bd
       0.032018684 0.0068971664 -0.00384669 -0.03201011
0002e0 1b 87 8f 3d 56 cf 19 3d 0d a8 00 bd c2 30 dd bc
       0.07008191 0.037551247 -0.031410266 -0.027000789
0002f0 55 38 97 bd 50 9f 38 bc 71 16 ad 3d 18 22 c6 bc
       -0.07383791 -0.011268452 0.08451546 -0.024186179
000300 b9 23 9a bd 9c 0b 2d bd 73 93 99 3d a1 8d 29 bd
       -0.07526345 -0.0422474 0.07498827 -0.041394833
000310 86 7c 14 bd 5e 9e 20 bd 28 f1 7d 3c 40 8f 58 3b
       -0.036251567 -0.03921353 0.015499391 0.0033044368
000320 f8 08 93 bc 68 c5 8e bc c0 c4 a9 bd e8 18 81 3c
       -0.017948613 -0.017428115 -0.0828948 0.015758947
000330 8c f6 84 bd 8d fe 52 bd 23 c6 52 bd a8 27 2c 3c
       -0.064923376 -0.05151229 -0.05145849 0.010507502
000340 1b 05 ac 3d b8 ce 3f 3c 5a f6 66 3d 84 ff d2 3c
       0.08399411 0.011707 0.056387283 0.025756605
000350 38 eb 7d bd 56 a1 76 3d 8c 6e 51 bd 8b 9e 8d 3d
       -0.0619919 0.060212456 -0.051130816 0.06915005
000360 ae b1 05 bd e4 0b 9c 3c 46 47 8b bd fa 8d a9 bd
       -0.03264015 0.019048639 -0.06800704 -0.08279033
000370 41 83 1a bd d4 0e b4 3c ac 52 cc bc f3 71 af 3d
       -0.03772283 0.021979727 -0.024941765 0.08566656
000380 40 c3 01 3c a0 77 92 bd a0 05 fa 3b 30 70 81 3b
       0.007920086 -0.07151723 0.007630065 0.0039501414
000390 7b e7 7a bd f0 c0 49 3c 9a ef 13 3d b6 44 a5 bd
       -0.061255913 0.012314066 0.036117174 -0.08069746
0003a0 1d a5 87 3d ac 5a 0d 3d ba bc 67 3d 98 9f 28 bc
       0.0662329 0.0345103 0.056576468 -0.010291956
0003b0 16 55 15 3d b4 a2 f5 3c a0 2c 0b 3d a0 7b c9 bb
       0.036458097 0.02998481 0.033978105 -0.0061487705
0003c0 3e 20 6a 3d 7e 08 68 bd ec 8b ac 3c 06 0d 16 3d
       0.057159655 -0.056648724 0.021062814 0.036633514
0003d0 22 ca 41 3d b2 67 38 3d e6 c0 3e 3d d6 71 4f 3d
       0.04731191 0.045020767 0.04657068 0.05064567
0003e0 9e 68 5f bd 60 25 53 bd 69 5f 92 3d 00 c6 f2 39
       -0.05454313 -0.051549315 0.07147104 0.00046305358
0003f0 62 80 69 3d ba 3b 69 3d 70 6e 47 3c cf 31 86 3d
       0.0570072 0.056941725 0.012172326 0.06552469

bias f4 [32]
000000 90 9a 72 3c 61 f0 9f 3d 62 a8 31 3d f0 c3 c6 bc
       0.014807358 0.078095205 0.043373473 -0.024263352
000010 44 ea d1 3c 62 1d 75 3d 78 04 b1 bd 73 35 8f 3d
       0.025624402 0.059842475 -0.086434305 0.069926165
000020 da ec 19 bd b4 21 7c bd 89 b8 9c bd 0e e8 80 bd
       -0.037579395 -0.06155558 -0.07652385 -0.06294261
000030 63 e5 92 3d 8a da 3c 3d 00 1d 8a 39 30 90 17 bd
       0.07172658 0.046106853 0.00026343018 -0.037002742
000040 56 64 97 bd 98 50 36 bc 2b 46 aa 3d d3 d0 98 3d
       -0.073921844 -0.0111276135 0.08314165 0.07461705
000050 b0 b4 4e 3c 16 33 26 3d 08 75 9a bd 58 03 57 bc
       0.012616321 0.040576063 -0.07541853 -0.013123356
000060 7f 7b 99 3d 9e cc 1d 3d d7 65 91 3d e4 38 fa 3c
       0.07494258 0.038525216 0.070995025 0.030544706
000070 4c 3e 3a bd d2 b5 a0 bd e2 95 fd bc 98 3e 04 3d
       -0.045469567 -0.078471795 -0.030955259 0.032286257

weight f4 [128, 32, 1, 1]
000000 86 9a d5 3d 87 b5 30 3e 00 4d 76 bd 80 49 9c 3a
       0.10429864 0.17256747 -0.060132027 0.001192376
000010 be 20 87 3d ce 9d 9a 3d 20 0c fa 3c f0 05 a3 bc
       0.06598042 0.0754963 0.03052336 -0.019900292
000020 10 c8 35 bd 06 2f 84 3d 01 db 04 3e 3b d8 b5 bd
       -0.044380248 0.064542815 0.12974168 -0.08879133
000030 70 18 b5 bc 1a 87 ef 3d ff 26 2e 3e 00 8c bf bc
       -0.02210638 0.116956905 0.17007063 -0.023382187
000040 3a b1 8e 3d f0 86 03 bd 11 ea 2e be cd c8 2f be
       0.06967397 -0.03211111 -0.17081477 -0.17166443
000050 99 26 0b be a6 a4 17 be b0 25 4d 3c d4 1e 74 3d
       -0.13588943 -0.14808902 0.012521192 0.059599712
000060 e0 cb 86 3c 51 55 2f be b2 29 96 3d 9f 7e 0c be
       0.016454637 -0.1712239 0.073321715 -0.13720177
000070 aa b4 fc 3d 42 31 b3 3d 5c 41 29 bd c0 89 5b 3c
       0.123391464 0.087496296 -0.041322097 0.013399541
000080 b1 8a 0a 3e 5a 66 d3 bd 46 72 82 3d 30 16 83 3c
       0.13529469 -0.103222564 0.06369452 0.01600179
000090 f6 d3 b3 3d 04 d5 47 bd 40 06 b6 bc ab 75 29 be
       0.08780663 -0.048787132 -0.022219777 -0.16548793
0000a0 c0 39 b3 bd 58 0d 86 bc 22 82 da 3d 98 c6 90 bd
       -0.08751249 -0.016363785 0.10669352 -0.07069129
0000b0 e3 27 2f 3e 02 55 c7 3d 3c 36 17 be 10 bc 9d bd
       0.1710506 0.09733011 -0.14766783 -0.07701886
0000c0 f2 19 97 3d 3f 41 13 3e 81 89 13 3e de 4f 81 bd
       0.073779956 0.14380358 0.14407922 -0.063140616
0000d0 0e a5 13 be 2a ed fd bd 4c 4f 76 3d 1a 55 f6 3d
       -0.14418432 -0.12398751 0.060134217 0.120279506
0000e0 1a 91 13 be e0 47 e2 3c 76 a3 20 be aa 12 ef bd
       -0.1441082 0.027622163 -0.15687355 -0.11673482
0000f0 85 8f 89 bd c5 3f 31 be 64 90 c8 bd f3 76 db bd
       -0.06716827 -0.17309482 -0.09793165 -0.10716047
000100 07 fd 0c be 54 f3 69 3d 89 cc 20 3e 87 e6 26 3e
       -0.13768397 0.05711682 0.15703024 0.16298877
000110 15 fa 18 be ba 12 b2 3d 60 c0 fb bd 20 a0 f0 bb
       -0.14939149 0.08694978 -0.12292552 -0.007343307
000120 38 e8 52 bd e5 6e 12 3e 78 d8 85 3d 85 ae d1 bd
       -0.051490992 0.14300115 0.06535429 -0.10238365
000130 f9 e0 10 3e 42 ce dc bd ff bd d1 bd e0 d6 bb 3c
       0.1414832 -0.10781528 -0.10241317 0.022929609
000140 13 99 d7 bd 60 93 87 3d cb dd 1b be b6 a9 cb bd
       -0.105272435 0.066199064 -0.15221326 -0.09944479
000150 00 2f 1d bd e6 13 15 be 6e a9 10 be 73 59 07 3e
       -0.0383749 -0.14558372 -0.14127132 0.13217716
000160 e2 dc 23 be ff c9 0c 3e 55 e5 d7 bd 00 b6 bc 3a
       -0.16002229 0.1374893 -0.105417885 0.0014397502
000170 ac 06 42 bd a4 af 31 bd a0 5b 16 bd c7 f9 20 3e
       -0.047369644 -0.043380395 -0.036708474 0.15720282
000180 42 3f 81 3d 16 47 9c bd 4b 85 e9 bd 4e ae 9a 3d
       0.063108936 -0.07630746 -0.11402377 0.07552777
000190 2a 3a 2d be 02 50 c5 3d 4a 5c 82 bd b5 3f 27 3e
       -0.16916719 0.09634401 -0.06365259 0.16332896
0001a0 70 eb f7 bc f7 2c 08 3e bc c0 18 3d 2c 8c 76 bd
       -0.030263633 0.13298403 0.03729318 -0.060192272
0001b0 f8 40 dc bd 2d 5a 19 3e 86 da c7 3d b0 b9 fe 3c
       -0.10754579 0.14975806 0.09758477 0.031094402
0001c0 58 e7 95 bc 12 85 a5 3d da 1e 30 be 4a 54 b7 bd
       -0.01829879 0.08082022 -0.17199269 -0.08951624
0001d0 20 93 56 3d 5c ce 3b bd 09 6c 2b be 0d 63 0c 3e
       0.052386403 -0.045851097 -0.16740431 0.1370966
0001e0 08 b0 4c 3d be dd a5 3d 9c 40 7d 3d ce 5f a3 3d
       0.049972564 0.080989346 0.061829194 0.07977258
0001f0 84 a9 61 bd 8b 03 35 3e 58 b8 40 bd 8f 0a 31 3e
       -0.055093303 0.17677133 -0.047050804 0.17289184
000200 51 45 1a be c4 5d ff bd 2e 2e d9 3d fb a2 11 3e
       -0.15065505 -0.12469056 0.10604511 0.14222328
000210 1a 2f f0 3d 36 34 c6 3d 0e ca cd 3d 34 08 c7 bd
       0.11727734 0.09677927 0.100483045 -0.097183615
000220 b3 74 34 be a4 ee 28 be 30 80 89 bc 52 7e cb 3d
       -0.17622642 -0.16497284 -0.016784757 0.09936203
000230 20 ae 91 bd 9c 98 45 3d 60 24 80 bc ba 92 d3 3d
       -0.0711329 0.048241243 -0.015642345 0.1033072
000240 32 88 c4 bd ca 7b 82 bd 7e 0a be bd cf 0e 23 3e
       -0.0959629 -0.06371267 -0.09279345 0.15923618
000250 65 19 00 3e f0 ac fc bc 38 2e 14 bd 44 24 c3 bd
       0.12509687 -0.030844182 -0.03617689 -0.095284015
000260 ff 59 12 be 96 40 bf 3d 58 61 28 be 80 6a 05 bd
       -0.14292143 0.09338491 -0.16443384 -0.03257227
000270 30 59 f1 3c 60 5a 70 3d 23 03 1a be 18 9b e0 3c
       0.029461473 0.05867994 -0.15040259 0.027417704
000280 80 8d f3 bc fd 58 34 be b8 5c e2 3c 06 14 9f bd
       -0.029730558 -0.17612071 0.027632102 -0.07767491
000290 6c 3d 46 3d 79 3e b2 bd 31 74 1f be 00 59 84 bb
       0.04839842 -0.08703322 -0.15571667 -0.00403893
0002a0 c5 0a 0f 3e 70 9e 0e 3d 7c c6 10 be 4c 4e 20 be
       0.13968952 0.034819067 -0.14138216 -0.15654868
0002b0 a3 be 08 be d6 ef de 3d 80 0d 41 3d fe b7 b5 bd
       -0.13353972 0.10885589 0.047132015 -0.08872984
0002c0 68 db 03 be 4c 61 da bd 40 4c 44 bc 94 2a 54 3d
       -0.12876666 -0.10663089 -0.01198107 0.05179842
0002d0 bc 16 74 bd bd 22 0c 3e 7f f8 b4 bd 5d f9 1d 3e
       -0.059591994 0.13685127 -0.08836459 0.15427156
0002e0 7a a6 75 bd 00 93 5b bb 00 26 ee b9 16 74 34 be
       -0.059973218 -0.0033504367 -0.0004542321 -0.17622408
0002f0 e0 8c 92 bd 55 6d c2 bd e8 da 71 bd 70 c5 4f 3d
       -0.07155776 -0.0949351 -0.059046656 0.0507254
000300 1a a4 da 3d 88 46 07 3d da 22 9f bd d8 69 e8 bd
       0.10675831 0.03302625 -0.07770319 -0.11348313
000310 dc 5c 17 3d 72 97 e6 3d 56 87 01 be 4b 56 e7 bd
       0.036953792 0.11259355 -0.12649283 -0.11295756
000320 a4 8e 7f 3d e7 ee 06 3e c1 96 1d 3e 50 e2 de 3c
       0.062391892 0.13177072 0.1538954 0.027207524
000330 db 48 05 3e b7 34 1f 3e 5b 10 1c be 90 80 ed bd
       0.13016073 0.15547453 -0.15240614 -0.11596787
000340 1a 84 b7 3d e4 5b 8f bd ae 8c a6 3d a5 6b a4 bd
       0.08960743 -0.069999486 0.08132301 -0.08028344
000350 4d 34 08 be dc c3 53 bd 40 f5 b1 3b d8 26 6f 3d
       -0.13301201 -0.051700458 0.0054308474 0.058386654
000360 83 21 bb bd b0 8a 84 bc 70 c9 d0 bc 40 fb d9 bb
       -0.09137251 -0.016179413 -0.025486678 -0.006652266
000370 95 89 1b 3e c9 a0 0b 3e e4 61 3a bd 8e 1a fe 3d
       0.15189202 0.13635553 -0.045503512 0.12407409
000380 e0 a0 5d bd ff 1e 2e 3e 8e 62 df 3d 80 e9 47 bb
       -0.0541085 0.17004012 0.1090747 -0.0030504167
000390 e9 aa 27 be a0 84 19 bc e4 27 f3 bd 36 39 df bd
       -0.16373791 -0.009369999 -0.11872843 -0.10899584
0003a0 20 42 38 bd 10 2b 2f 3c 34 94 9a bd 68 64 af 3c
       -0.044984937 0.010691419 -0.07547799 0.021410182
0003b0 99 dc 1c 3e e6 f3 98 3d 7b 65 23 3e c0 d4 52 3b
       0.15318526 0.07468395 0.1595668 0.0032170266
0003c0 48 58 af 3c 18 bd 43 bd 82 48 ec 3d 98 7f fe bc
       0.0214044 -0.047787756 0.11537267 -0.0310667
0003d0 ea 6b ea 3d b1 98 32 3e 24 ef 06 3d 73 6a 98 bd
       0.11446364 0.1744106 0.032942906 -0.074421786
0003e0 03 c6 1a 3e b0 de de bd a0 17 cb 3c 90 5c 5b bd
       0.15114598 -0.10882318 0.024791539 -0.05355507
0003f0 ca 4a ec 3d 4c 17 22 bd 15 e2 14 be b4 ae 5b 3d
       0.115377024 -0.039573 -0.14539368 0.053633407
