Quantization_Compilation/blocks_quantization_vitis_ai_3.0/float/ResidualBlock-in_48x28x28-out_48-k_5-e_3-s_1-act_relu-use_se_True.pth (torch, 136568 bytes, 19 tensors)

weight f4 [144, 48, 1, 1]
00000000: c847 42bd 48fe 8d3d 240e 583d b023 d7bd
00000010: a0cb 84bb c825 b53c 15ac ebbd c297 83bd
00000020: 08a5 b4bd 8af9 c63d 8047 273b d0e5 823d
00000030: eadf 0a3e 0435 e0bc 68d9 b13d e6a0 7dbd
00000040: e8ae da3d 269c 78bd 0c5d e23d 80f0 08bb
00000050: d03c 6ebd 41ca b1bd b099 b53d b94e c3bd
00000060: 406d 34bb 38d2 563d bc6e 933d 4054 de3d
00000070: b066 f43c 1319 c4bd aca7 70bd 2816 d63c
00000080: 8bca ccbd 4c5a 8e3d 7842 663d aead c33d
00000090: 38d4 72bd f165 05be 5c0a da3d 94b7 b43d
000000a0: bc69 683d c508 00be f855 b83c 7815 98bd
000000b0: f528 99bd b04e 29bc 120e e2bd 3c84 083d
000000c0: 8546 c1bd 906c abbd 10ce 05bc 729e 66bd
000000d0: ae23 8fbd 484c ca3d 1c98 46bd e82e c93d
000000e0: 581e 5c3d d838 5cbd 20ad a5bb 2c35 4b3d
000000f0: ee2a a43d 20b5 45bc 20a6 02bc 1467 82bd
00000100: 02ee a93d 006d 86bb a1c1 13be 800c 9e3c
00000110: 5055 f1bd 008e 7bbb 6ec5 9abd 90f0 4f3c
00000120: 94fe 65bd ec95 c8bc a4e3 653d 1128 b6bd
00000130: fd34 0fbe 08f1 b43d 80fa be3d 2027 683d
00000140: 99d6 f6bd dae8 c0bd e866 463d e6d1 edbd
00000150: d8fc 03bd 3ab1 e0bd fe66 9d3d 263a cabd
00000160: 7852 d83c f800 9cbd 0004 9bb9 209b afbb
00000170: 7c83 c0bd 02b7 b83d d000 74bc 5049 c73d
00000180: 8241 a1bd a665 03be b499 033e 0c00 9b3d
00000190: f09e 813d b4ca 153d b04e 53bd 449a 3b3d
000001a0: 0060 d6bd 9af5 08be 3c26 e7bd e4ac bb3d
000001b0: cc14 0ebd a0d1 8fbd 32d3 013e a827 013e
000001c0: f0d5 e33d 36a7 0d3e 20ef 49bc cecf b6bd
000001d0: ce70 8f3d f40c efbd e8b6 a53d b06d de3d
000001e0: 0c79 00bd 80a9 583b be4a 5abd 80a9 8ebd
000001f0: c2a6 ffbd fa96 c03d 5097 95bc 6673 bf3d
00000200: 8ce6 e5bc d4f0 833d 0835 edbd 0ad4 37bd
00000210: 26fb 8c3d 0871 033e dd9e 0fbe e01a 5e3c
00000220: f0fb c13d 18d4 3c3d fcad e53d 80b8 a93b
00000230: 0c62 eb3d 7c07 01be bb18 9ebd 081b bc3d
00000240: 309b 1a3d 2cef 1fbd 1044 81bc 6497 dd3d
00000250: 1e74 65bd 7a2c debd 8e9a 0f3e da35 e7bd
00000260: c83d d53d 8036 583b f13e 8fbd deb3 f5bd
00000270: 80fa b03d faae 1bbd 2492 b2bd 184b 6f3d
00000280: aa3d b53d ca37 03be a883 b1bd 22bd a0bd
00000290: 08e0 103e 9c30 453d 8475 e13d acb1 d73d
000002a0: 649b 593d c04d 643c 1626 0abe 226b 123e
000002b0: 0308 9bbd b0cc eabc fe09 a1bd 8e0d ac3d
000002c0: 6cb7 ebbc 187f 163d 940f 3bbd 118e 81bd
000002d0: 2092 8b3b de99 913d 86fa 863d 4c17 8fbd
000002e0: 407f 053d f72f 88bd 8e29 0e3e 5820 be3c
000002f0: 6c2a e63d 30f9 1c3d 4c0f d7bd 77d6 a2bd
00000300: 3aac dabd 2099 e23c dcbd 473d 0847 ba3c
00000310: 62cf 00be 50a4 2d3c fec5 863d e2ee 023e
00000320: 9c2f babd 4083 043d 7ed5 bf3d 7822 a63c
00000330: c821 e53d 90e8 603c f8ff 323d 6a20 0e3e
00000340: ac07 e13d 486f 00be b300 87bd 604e b5bb
00000350: 20c1 953b 93a2 c5bd 407d b33c 0af8 033e
00000360: 10af 353d 800f 89ba 2037 e73b 0038 023a
00000370: 9069 0d3c e81c 183d f4c0 363d e085 363d
00000380: 38ba f83c 47a0 89bd 383e da3c 5398 83bd
00000390: 6499 0c3d 50c3 8bbc e043 fa3b f3d0 f4bd
000003a0: b8c6 e9bd 90ee 08bd 1834 b03c ac50 0f3e
000003b0: f05b 84bd d0d8 03bc 2065 803b 6aa8 043e
000003c0: 8879 283d 703a 34bd c415 02be 8cad a53d
000003d0: 1630 0f3e 04fa 05be 7ce7 0bbe 284e ab3d
000003e0: 30bb 8a3c 7c97 c63d 9c3e 3e3d 5071 103d
000003f0: c87e 5d3d ecdf 79bd 0095 9bbb dc4e f63d
-0.047431737 0.06933266 0.05274786 -0.10504854 -0.0040525943 0.022112742 -0.115074314 -0.0642543
-0.0882054 0.097155645 0.0025524795 0.063914895 0.13561979 -0.02736903 0.08684045 -0.061921023
0.10677892 -0.06069579 0.110529035 -0.0020895302 -0.058163464 -0.08681155 0.08867204 -0.095364995
-0.0027530938 0.052446574 0.07198855 0.10855913 0.029834121 -0.09575095 -0.058753654 0.026133612
-0.099995695 0.069508165 0.056215733 0.09554611 -0.05928442 -0.13027169 0.10646507 0.08824077
0.05674146 -0.12503345 0.02250193 -0.0742597 -0.07478515 -0.010333702 -0.1103784 0.033329234
-0.09437279 -0.08370316 -0.008166805 -0.05630345 -0.06989227 0.09877831 -0.048484907 0.098234
0.053739876 -0.053765148 -0.0050560385 0.049611256 0.08016001 -0.012067109 -0.007974178 -0.06367317
0.082973495 -0.0041023493 -0.14429332 0.01929307 -0.1178385 -0.00383842 -0.07557188 0.012691632
-0.056150988 -0.02448555 0.0561253 -0.08894361 -0.13985057 0.088350356 0.09325123 0.056677938
-0.1205265 -0.09419413 0.048437983 -0.116123006 -0.032223552 -0.10971303 0.0768566 -0.09874372
0.026406512 -0.07617372 -0.00029566884 -0.0053590685 -0.09400079 0.09019281 -0.014892772 0.0973078
-0.07873823 -0.12831745 0.12851602 0.07568368 0.06329143 0.036570266 -0.051588714 0.045801416
-0.10467529 -0.1337494 -0.112865895 0.09163836 -0.034687802 -0.07022405 0.12678221 0.12612784
0.1112479 0.13833317 -0.012325078 -0.08926354 0.07003938 -0.116723925 0.08091527 0.10860765
-0.03136544 0.0033060014 -0.053293936 -0.06965923 -0.124829784 0.094037965 -0.018260628 0.093481824
-0.028064035 0.06442419 -0.115823805 -0.04487995 0.0688384 0.12836087 -0.14025445 0.013556212
0.094718814 0.046100706 0.112148255 0.005179465 0.1149331 -0.12600511 -0.07719561 0.09184843
0.037745655 -0.03904645 -0.015779525 0.10819891 -0.05601894 -0.10848327 0.14023802 -0.11289568
0.104121745 0.003299147 -0.06994427 -0.119971976 0.08641529 -0.038008668 -0.0871928 0.058421224
0.08849652 -0.1281425 -0.086676896 -0.07848574 0.14147961 0.04814206 0.110087425 0.10531935
0.053126708 0.013934553 -0.13491091 0.1429868 -0.075698875 -0.028662056 -0.07863234 0.08401023
-0.028773986 0.0367423 -0.045669153 -0.06325925 0.004259363 0.07109426 0.06590752 -0.069868654
0.03259206 -0.066497736 0.1388304 0.023208782 0.1123856 0.03832358 -0.105009645 -0.07951062
-0.10677381 0.027660906 0.04876505 0.022738948 -0.1257911 0.010598257 0.06580733 0.12786439
-0.09091112 0.032351732 0.09366892 0.020280108 0.11188084 0.013727322 0.043701142 0.13879552
0.109877914 -0.1254245 -0.0659193 -0.0055330247 0.0045701414 -0.09650149 0.02191031 0.12887588
0.044356406 -0.001045689 0.007056132 0.0004967451 0.008631125 0.037136942 0.04461761 0.044561267
0.030362234 -0.067200236 0.026640996 -0.06425538 0.034325972 -0.017060906 0.007637486 -0.119539164
-0.11414856 -0.033430636 0.021509215 0.13995618 -0.06462848 -0.008047298 0.003918305 0.1295487
0.041131526 -0.044001043 -0.12703615 0.08089742 0.13983187 -0.13083655 -0.13662523 0.083645165
0.016934961 0.09696862 0.046446428 0.035264313 0.054075986 -0.061004564 -0.004747987 0.1202676

weight f4 [144]
00000000: 0000 803f 0000 803f 0000 803f 0000 803f
00000010: 0000 803f 0000 803f 0000 803f 0000 803f
00000020: 0000 803f 0000 803f 0000 803f 0000 803f
00000030: 0000 803f 0000 803f 0000 803f 0000 803f
00000040: 0000 803f 0000 803f 0000 803f 0000 803f
00000050: 0000 803f 0000 803f 0000 803f 0000 803f
00000060: 0000 803f 0000 803f 0000 803f 0000 803f
00000070: 0000 803f 0000 803f 0000 803f 0000 803f
00000080: 0000 803f 0000 803f 0000 803f 0000 803f
00000090: 0000 803f 0000 803f 0000 803f 0000 803f
000000a0: 0000 803f 0000 803f 0000 803f 0000 803f
000000b0: 0000 803f 0000 803f 0000 803f 0000 803f
000000c0: 0000 803f 0000 803f 0000 803f 0000 803f
000000d0: 0000 803f 0000 803f 0000 803f 0000 803f
000000e0: 0000 803f 0000 803f 0000 803f 0000 803f
000000f0: 0000 803f 0000 803f 0000 803f 0000 803f
00000100: 0000 803f 0000 803f 0000 803f 0000 803f
00000110: 0000 803f 0000 803f 0000 803f 0000 803f
00000120: 0000 803f 0000 803f 0000 803f 0000 803f
00000130: 0000 803f 0000 803f 0000 803f 0000 803f
00000140: 0000 803f 0000 803f 0000 803f 0000 803f
00000150: 0000 803f 0000 803f 0000 803f 0000 803f
00000160: 0000 803f 0000 803f 0000 803f 0000 803f
00000170: 0000 803f 0000 803f 0000 803f 0000 803f
00000180: 0000 803f 0000 803f 0000 803f 0000 803f
00000190: 0000 803f 0000 803f 0000 803f 0000 803f
000001a0: 0000 803f 0000 803f 0000 803f 0000 803f
000001b0: 0000 803f 0000 803f 0000 803f 0000 803f
000001c0: 0000 803f 0000 803f 0000 803f 0000 803f
000001d0: 0000 803f 0000 803f 0000 803f 0000 803f
000001e0: 0000 803f 0000 803f 0000 803f 0000 803f
000001f0: 0000 803f 0000 803f 0000 803f 0000 803f
00000200: 0000 803f 0000 803f 0000 803f 0000 803f
00000210: 0000 803f 0000 803f 0000 803f 0000 803f
00000220: 0000 803f 0000 803f 0000 803f 0000 803f
00000230: 0000 803f 0000 803f 0000 803f 0000 803f
1.0 1.0 1.0 1.0 1.0 1.0 1.0 1.0
1.0 1.0 1.0 1.0 1.0 1.0 1.0 1.0
1.0 1.0 1.0 1.0 1.0 1.0 1.0 1.0
1.0 1.0 1.0 1.0 1.0 1.0 1.0 1.0
1.0 1.0 1.0 1.0 1.0 1.0 1.0 1.0
1.0 1.0 1.0 1.0 1.0 1.0 1.0 1.0
1.0 1.0 1.0 1.0 1.0 1.0 1.0 1.0
1.0 1.0 1.0 1.0 1.0 1.0 1.0 1.0
1.0 1.0 1.0 1.0 1.0 1.0 1.0 1.0
1.0 1.0 1.0 1.0 1.0 1.0 1.0 1.0
1.0 1.0 1.0 1.0 1.0 1.0 1.0 1.0
1.0 1.0 1.0 1.0 1.0 1.0 1.0 1.0
1.0 1.0 1.0 1.0 1.0 1.0 1.0 1.0
1.0 1.0 1.0 1.0 1.0 1.0 1.0 1.0
1.0 1.0 1.0 1.0 1.0 1.0 1.0 1.0
1.0 1.0 1.0 1.0 1.0 1.0 1.0 1.0
1.0 1.0 1.0 1.0 1.0 1.0 1.0 1.0
1.0 1.0 1.0 1.0 1.0 1.0 1.0 1.0

bias f4 [144]
00000000: 0000 0000 0000 0000 0000 0000 0000 0000
00000010: 0000 0000 0000 0000 0000 0000 0000 0000
00000020: 0000 0000 0000 0000 0000 0000 0000 0000
00000030: 0000 0000 0000 0000 0000 0000 0000 0000
00000040: 0000 0000 0000 0000 0000 0000 0000 0000
00000050: 0000 0000 0000 0000 0000 0000 0000 0000
00000060: 0000 0000 0000 0000 0000 0000 0000 0000
00000070: 0000 0000 0000 0000 0000 0000 0000 0000
00000080: 0000 0000 0000 0000 0000 0000 0000 0000
00000090: 0000 0000 0000 0000 0000 0000 0000 0000
000000a0: 0000 0000 0000 0000 0000 0000 0000 0000
000000b0: 0000 0000 0000 0000 0000 0000 0000 0000
000000c0: 0000 0000 0000 0000 0000 0000 0000 0000
000000d0: 0000 0000 0000 0000 0000 0000 0000 0000
000000e0: 0000 0000 0000 0000 0000 0000 0000 0000
000000f0: 0000 0000 0000 0000 0000 0000 0000 0000
00000100: 0000 0000 0000 0000 0000 0000 0000 0000
00000110: 0000 0000 0000 0000 0000 0000 0000 0000
00000120: 0000 0000 0000 0000 0000 0000 0000 0000
00000130: 0000 0000 0000 0000 0000 0000 0000 0000
00000140: 0000 0000 0000 0000 0000 0000 0000 0000
00000150: 0000 0000 0000 0000 0000 0000 0000 0000
00000160: 0000 0000 0000 0000 0000 0000 0000 0000
00000170: 0000 0000 0000 0000 0000 0000 0000 0000
00000180: 0000 0000 0000 0000 0000 0000 0000 0000
00000190: 0000 0000 0000 0000 0000 0000 0000 0000
000001a0: 0000 0000 0000 0000 0000 0000 0000 0000
000001b0: 0000 0000 0000 0000 0000 0000 0000 0000
000001c0: 0000 0000 0000 0000 0000 0000 0000 0000
000001d0: 0000 0000 0000 0000 0000 0000 0000 0000
000001e0: 0000 0000 0000 0000 0000 0000 0000 0000
000001f0: 0000 0000 0000 0000 0000 0000 0000 0000
00000200: 0000 0000 0000 0000 0000 0000 0000 0000
00000210: 0000 0000 0000 0000 0000 0000 0000 0000
00000220: 0000 0000 0000 0000 0000 0000 0000 0000
00000230: 0000 0000 0000 0000 0000 0000 0000 0000
0.0 0.0 0.0 0.0 0.0 0.0 0.0 0.0
0.0 0.0 0.0 0.0 0.0 0.0 0.0 0.0
0.0 0.0 0.0 0.0 0.0 0.0 0.0 0.0
0.0 0.0 0.0 0.0 0.0 0.0 0.0 0.0
0.0 0.0 0.0 0.0 0.0 0.0 0.0 0.0
0.0 0.0 0.0 0.0 0.0 0.0 0.0 0.0
0.0 0.0 0.0 0.0 0.0 0.0 0.0 0.0
0.0 0.0 0.0 0.0 0.0 0.0 0.0 0.0
0.0 0.0 0.0 0.0 0.0 0.0 0.0 0.0
0.0 0.0 0.0 0.0 0.0 0.0 0.0 0.0
0.0 0.0 0.0 0.0 0.0 0.0 0.0 0.0
0.0 0.0 0.0 0.0 0.0 0.0 0.0 0.0
0.0 0.0 0.0 0.0 0.0 0.0 0.0 0.0
0.0 0.0 0.0 0.0 0.0 0.0 0.0 0.0
0.0 0.0 0.0 0.0 0.0 0.0 0.0 0.0
0.0 0.0 0.0 0.0 0.0 0.0 0.0 0.0
0.0 0.0 0.0 0.0 0.0 0.0 0.0 0.0
0.0 0.0 0.0 0.0 0.0 0.0 0.0 0.0

running_mean f4 [144]
00000000: 0000 0000 0000 0000 0000 0000 0000 0000
00000010: 0000 0000 0000 0000 0000 0000 0000 0000
00000020: 0000 0000 0000 0000 0000 0000 0000 0000
00000030: 0000 0000 0000 0000 0000 0000 0000 0000
00000040: 0000 0000 0000 0000 0000 0000 0000 0000
00000050: 0000 0000 0000 0000 0000 0000 0000 0000
00000060: 0000 0000 0000 0000 0000 0000 0000 0000
00000070: 0000 0000 0000 0000 0000 0000 0000 0000
00000080: 0000 0000 0000 0000 0000 0000 0000 0000
00000090: 0000 0000 0000 0000 0000 0000 0000 0000
000000a0: 0000 0000 0000 0000 0000 0000 0000 0000
000000b0: 0000 0000 0000 0000 0000 0000 0000 0000
000000c0: 0000 0000 0000 0000 0000 0000 0000 0000
000000d0: 0000 0000 0000 0000 0000 0000 0000 0000
000000e0: 0000 0000 0000 0000 0000 0000 0000 0000
000000f0: 0000 0000 0000 0000 0000 0000 0000 0000
00000100: 0000 0000 0000 0000 0000 0000 0000 0000
00000110: 0000 0000 0000 0000 0000 0000 0000 0000
00000120: 0000 0000 0000 0000 0000 0000 0000 0000
00000130: 0000 0000 0000 0000 0000 0000 0000 0000
00000140: 0000 0000 0000 0000 0000 0000 0000 0000
00000150: 0000 0000 0000 0000 0000 0000 0000 0000
00000160: 0000 0000 0000 0000 0000 0000 0000 0000
00000170: 0000 0000 0000 0000 0000 0000 0000 0000
00000180: 0000 0000 0000 0000 0000 0000 0000 0000
00000190: 0000 0000 0000 0000 0000 0000 0000 0000
000001a0: 0000 0000 0000 0000 0000 0000 0000 0000
000001b0: 0000 0000 0000 0000 0000 0000 0000 0000
000001c0: 0000 0000 0000 0000 0000 0000 0000 0000
000001d0: 0000 0000 0000 0000 0000 0000 0000 0000
000001e0: 0000 0000 0000 0000 0000 0000 0000 0000
000001f0: 0000 0000 0000 0000 0000 0000 0000 0000
00000200: 0000 0000 0000 0000 0000 0000 0000 0000
00000210: 0000 0000 0000 0000 0000 0000 0000 0000
00000220: 0000 0000 0000 0000 0000 0000 0000 0000
00000230: 0000 0000 0000 0000 0000 0000 0000 0000
0.0 0.0 0.0 0.0 0.0 0.0 0.0 0.0
0.0 0.0 0.0 0.0 0.0 0.0 0.0 0.0
0.0 0.0 0.0 0.0 0.0 0.0 0.0 0.0
0.0 0.0 0.0 0.0 0.0 0.0 0.0 0.0
0.0 0.0 0.0 0.0 0.0 0.0 0.0 0.0
0.0 0.0 0.0 0.0 0.0 0.0 0.0 0.0
0.0 0.0 0.0 0.0 0.0 0.0 0.0 0.0
0.0 0.0 0.0 0.0 0.0 0.0 0.0 0.0
0.0 0.0 0.0 0.0 0.0 0.0 0.0 0.0
0.0 0.0 0.0 0.0 0.0 0.0 0.0 0.0
0.0 0.0 0.0 0.0 0.0 0.0 0.0 0.0
0.0 0.0 0.0 0.0 0.0 0.0 0.0 0.0
0.0 0.0 0.0 0.0 0.0 0.0 0.0 0.0
0.0 0.0 0.0 0.0 0.0 0.0 0.0 0.0
0.0 0.0 0.0 0.0 0.0 0.0 0.0 0.0
0.0 0.0 0.0 0.0 0.0 0.0 0.0 0.0
0.0 0.0 0.0 0.0 0.0 0.0 0.0 0.0
0.0 0.0 0.0 0.0 0.0 0.0 0.0 0.0

running_var f4 [144]
00000000: 0000 803f 0000 803f 0000 803f 0000 803f
00000010: 0000 803f 0000 803f 0000 803f 0000 803f
00000020: 0000 803f 0000 803f 0000 803f 0000 803f
00000030: 0000 803f 0000 803f 0000 803f 0000 803f
00000040: 0000 803f 0000 803f 0000 803f 0000 803f
00000050: 0000 803f 0000 803f 0000 803f 0000 803f
00000060: 0000 803f 0000 803f 0000 803f 0000 803f
00000070: 0000 803f 0000 803f 0000 803f 0000 803f
00000080: 0000 803f 0000 803f 0000 803f 0000 803f
00000090: 0000 803f 0000 803f 0000 803f 0000 803f
000000a0: 0000 803f 0000 803f 0000 803f 0000 803f
000000b0: 0000 803f 0000 803f 0000 803f 0000 803f
000000c0: 0000 803f 0000 803f 0000 803f 0000 803f
000000d0: 0000 803f 0000 803f 0000 803f 0000 803f
000000e0: 0000 803f 0000 803f 0000 803f 0000 803f
000000f0: 0000 803f 0000 803f 0000 803f 0000 803f
00000100: 0000 803f 0000 803f 0000 803f 0000 803f
00000110: 0000 803f 0000 803f 0000 803f 0000 803f
00000120: 0000 803f 0000 803f 0000 803f 0000 803f
00000130: 0000 803f 0000 803f 0000 803f 0000 803f
00000140: 0000 803f 0000 803f 0000 803f 0000 803f
00000150: 0000 803f 0000 803f 0000 803f 0000 803f
00000160: 0000 803f 0000 803f 0000 803f 0000 803f
00000170: 0000 803f 0000 803f 0000 803f 0000 803f
00000180: 0000 803f 0000 803f 0000 803f 0000 803f
00000190: 0000 803f 0000 803f 0000 803f 0000 803f
000001a0: 0000 803f 0000 803f 0000 803f 0000 803f
000001b0: 0000 803f 0000 803f 0000 803f 0000 803f
000001c0: 0000 803f 0000 803f 0000 803f 0000 803f
000001d0: 0000 803f 0000 803f 0000 803f 0000 803f
000001e0: 0000 803f 0000 803f 0000 803f 0000 803f
000001f0: 0000 803f 0000 803f 0000 803f 0000 803f
00000200: 0000 803f 0000 803f 0000 803f 0000 803f
00000210: 0000 803f 0000 803f 0000 803f 0000 803f
00000220: 0000 803f 0000 803f 0000 803f 0000 803f
00000230: 0000 803f 0000 803f 0000 803f 0000 803f
1.0 1.0 1.0 1.0 1.0 1.0 1.0 1.0
1.0 1.0 1.0 1.0 1.0 1.0 1.0 1.0
1.0 1.0 1.0 1.0 1.0 1.0 1.0 1.0
1.0 1.0 1.0 1.0 1.0 1.0 1.0 1.0
1.0 1.0 1.0 1.0 1.0 1.0 1.0 1.0
1.0 1.0 1.0 1.0 1.0 1.0 1.0 1.0
1.0 1.0 1.0 1.0 1.0 1.0 1.0 1.0
1.0 1.0 1.0 1.0 1.0 1.0 1.0 1.0
1.0 1.0 1.0 1.0 1.0 1.0 1.0 1.0
1.0 1.0 1.0 1.0 1.0 1.0 1.0 1.0
1.0 1.0 1.0 1.0 1.0 1.0 1.0 1.0
1.0 1.0 1.0 1.0 1.0 1.0 1.0 1.0
1.0 1.0 1.0 1.0 1.0 1.0 1.0 1.0
1.0 1.0 1.0 1.0 1.0 1.0 1.0 1.0
1.0 1.0 1.0 1.0 1.0 1.0 1.0 1.0
1.0 1.0 1.0 1.0 1.0 1.0 1.0 1.0
1.0 1.0 1.0 1.0 1.0 1.0 1.0 1.0
1.0 1.0 1.0 1.0 1.0 1.0 1.0 1.0

weight f4 [144, 1, 5, 5]
00000000: 6048 e2bd a337 143e c0e9 efbc f75b ebbd
00000010: eaae c6bd 4ef6 853d 9d4f a7bd 80ed e93c
00000020: 9454 63bd 488d 0e3d 44f2 713d 4026 9dbc
00000030: e1a0 1a3e ba7c 36be c034 4bbe 9a7a a0bd
00000040: 9956 463e 27b8 45be 26f9 c63d 608e a4bb
00000050: dad4 2fbe c008 8b3b 3c61 4d3d d2b9 b43d
00000060: a65e e93d bfbe 093e a82e 8bbc 001f 7cbd
00000070: 3a7d ecbd dadc a8bd c69e f73d af7f 4c3e
00000080: c276 e53d e238 fe3d f896 3ebd 58c9 1bbe
00000090: 13d5 e2bd c22a b73d d6f2 873d 50c2 dfbd
000000a0: f0f0 c7bd 7a19 acbd 5f62 283e eccd 89bd
000000b0: 6bf2 1abe f78e 0f3e b3a1 3c3e a0fa 4cbd
000000c0: df2b 1e3e 7332 febd c0d6 303b eaee 9dbd
000000d0: 3471 48bd 400b 2cbb b057 e1bc 4877 14be
000000e0: e493 653d 9abb f1bd c92f 193e c9b3 0f3e
000000f0: cf22 3abe b329 383e 0ac6 c7bd 867f 27be
00000100: 10c7 1ebe f2db c33d 4a32 d43d 9215 db3d
00000110: b189 083e dcf1 07be c475 0abe 60d0 50bc
00000120: d6d8 9e3d 80d7 103b 58e4 51bd 8682 ea3d
00000130: 1218 4cbe 726a 36be ccef 4dbd 00ed 3cbe
00000140: 7777 a4bd 5dfb 013e ba05 93bd 1352 1cbe
00000150: 8794 b1bd eefb 25be fdff f2bd a08f e13b
00000160: 32ae d23d 0017 77bd a0f1 67bd aa75 abbd
00000170: b813 01be e46b 93bd 5404 20bd 005c 7c3b
00000180: 8226 44be d2ea ea3d 69d6 3b3e f6c7 26be
00000190: 1127 1c3e 6050 843b 3aae 8d3d 406d c7bb
000001a0: 9c26 6d3d 3041 303c 18ea 1dbe 19a2 313e
000001b0: 7a63 a63d e2a0 a23d e434 6a3d 974e c3bd
000001c0: f27e 9e3d 00fb 0dbe 8449 5e3d e27f b33d
000001d0: e244 903d 0060 1b3a 8b76 223e f9a9 163e
000001e0: 18c1 dfbc e466 523d e767 e8bd 7d31 a0bd
000001f0: cc85 4bbd d430 2cbd 0495 583d 7970 3d3e
00000200: 9777 0d3e 2ae1 cabd b7a6 d8bd a81b 44be
00000210: 362a 87bd b0e0 d7bd 507d 40bc 405b edbb
00000220: 0015 123c 6fe0 173e d2ee ff3d 718e 0d3e
00000230: 6a7a b2bd 42b8 f13d 6a41 bfbd 5054 15bc
00000240: e8c9 4abe ca02 ff3d 85a3 32be cabf a2bd
00000250: 983e 9dbc 872d e4bd 3244 37be eb68 203e
00000260: 20ae b1bd d9c9 0a3e 2052 283c 94d7 2c3d
00000270: 42a6 ba3d 21c4 0a3e a8d0 a4bc 1d6f 04be
00000280: aa89 e5bd 85e8 3dbe 7c90 5b3d 0653 f83d
00000290: a61c 9d3d ebd7 0b3e 00e2 74bc eac6 b03d
000002a0: c0ac 523b 5701 003e 42f7 8d3d 78df 0ebe
000002b0: f65a 83bd 83a6 febd 405f bcbc d69e 01be
000002c0: 58f4 2bbe 387c 353d f1f6 3c3e a0e0 ffbd
000002d0: ab03 3fbe 3422 37bd 206b 073d 500c 97bc
000002e0: 1d70 09be 8fc3 3cbe 00a2 dabc 768d 973d
000002f0: 2c9e 673d 3db8 e7bd b040 123c 406d d93b
00000300: 5a92 04be d2f8 9d3d f434 09be 8df0 12be
00000310: 9021 c1bd 3024 b6bc e8cb 3dbe ffc7 053e
00000320: ec64 4d3d 6fa8 3bbe b887 33be a0bb 19bd
00000330: 9926 4c3e dd43 9fbd 4e47 993d d754 c2bd
00000340: 9a13 afbd 9027 cc3c 4f19 30be 3b34 373e
00000350: 0eb2 d73d 00cd 06bc 22c1 d03d 3eb4 e33d
00000360: 886c 41be 5ab7 0abe 923f cc3d ca9a f33d
00000370: b281 17be 3a74 f73d b224 ca3d b094 d93c
00000380: e06a 15bd 6708 c3bd 08a4 04bd fabc 98bd
00000390: 9855 a4bc 2669 88bd 6874 fb3c bd17 adbd
000003a0: 1e0a 1dbe c5e0 0a3e 48df 36be 9a15 8abd
000003b0: e3c0 353e 7a01 983d 7a21 d1bd 30e1 fbbd
000003c0: 00ea 563c a5c8 47be d2f0 b43d 5060 5b3c
000003d0: 11e0 173e d2ff 1abe 9c99 85bd 1ed0 813d
000003e0: cf01 003e 20f8 73bd 9b24 1c3e 6889 3f3d
000003f0: 027e ff3d 09e2 113e 00f3 833b 98ae e8bc
-0.11048961 0.14474349 -0.029286265 -0.1149215 -0.09701331 0.065411195 -0.08169482 0.028555632
-0.05550058 0.034802705 0.059068933 -0.019183278 0.15100433 -0.17821017 -0.19844341 -0.078358844
0.19368972 -0.1930853 0.0971549 -0.0050218552 -0.1717104 0.0042429864 0.050141558 0.08824505
0.11395006 0.1345167 -0.01699002 -0.061553 -0.115473226 -0.08245249 0.120908305 0.19970582
0.11204292 0.12413193 -0.046530694 -0.15213525 -0.11075797 0.08943702 0.06638114 -0.10925734
-0.09762752 -0.08403297 0.16443776 -0.067287296 -0.15131538 0.1401938 0.18421058 -0.050043702
0.15446423 -0.12411966 0.002698347 -0.07711585 -0.048936084 -0.0026251823 -0.027507633 -0.14498627
0.056049243 -0.1180336 0.14959635 0.14033426 -0.18177341 0.17984657 -0.0975457 -0.1635724
-0.15505624 0.095634356 0.103611544 0.106974736 0.13333775 -0.13275856 -0.13521487 -0.012744993
0.07756202 0.0022101104 -0.051243156 0.114506766 -0.19931057 -0.17814043 -0.050277516 -0.18449783
-0.080305986 0.12693544 -0.07178827 -0.15265684 -0.086709075 -0.16209385 -0.11865232 0.0068835765
0.10287131 -0.06032467 -0.056626916 -0.08372052 -0.12605178 -0.07198313 -0.039066628 0.0038506985
-0.19155315 0.1147057 0.1834351 -0.16287217 0.15249278 0.0040379018 0.06917997 -0.0060860217
0.05789815 0.010757729 -0.15421331 0.17346992 0.081244424 0.07940842 0.057179347 -0.09536474
0.07739057 -0.1386528 0.05426933 0.08764626 0.07044388 0.0005927086 0.15865533 0.14713277
-0.027313754 0.051367655 -0.11347943 -0.07821939 -0.049688146 -0.042038754 0.052876487 0.18499936
0.13815151 -0.09906228 -0.10578673 -0.19151175 -0.06599848 -0.105409026 -0.011748627 -0.007243544
0.00891614 0.14831708 0.12496723 0.13823868 -0.08714755 0.118027225 -0.093386486 -0.00911434
-0.19803584 0.12451704 -0.1744519 -0.07946737 -0.019194886 -0.11141496 -0.17897108 0.15665023
-0.0867579 0.13553561 0.010273486 0.04219778 0.091137424 0.1355138 -0.020119026 -0.12933011
-0.11207898 -0.1854573 0.053604588 0.121252105 0.0767148 0.13656585 -0.014946461 0.0863169
0.0032146424 0.12500511 0.06931926 -0.13952434 -0.06413834 -0.12434103 -0.022994637 -0.12658247
-0.16792428 0.044307917 0.18453576 -0.12494016 -0.18653743 -0.044710353 0.033061147 -0.018438488
-0.13421674 -0.18433975 -0.026688576 0.074000284 0.05654733 -0.113144375 0.0089265555 0.006635338
-0.12946454 0.07713474 -0.13399106 -0.14349575 -0.0943023 -0.022234052 -0.18534815 0.13064574
0.050145075 -0.18325971 -0.17532241 -0.03753245 0.19936599 -0.07776616 0.074843034 -0.09488838
-0.085486606 0.024921209 -0.17197154 0.17891018 0.10532008 -0.008227587 0.10193087 0.11118363
-0.18889058 -0.13546506 0.099730626 0.11894758 -0.14795569 0.12082715 0.0987028 0.026560158
-0.036478877 -0.09523087 -0.032382995 -0.074579194 -0.020060346 -0.066606805 0.030695155 -0.08451793
-0.1533589 0.13562305 -0.17858613 -0.067424014 0.17749362 0.07422157 -0.10211463 -0.122988105
0.013117313 -0.19510134 0.08834995 0.013389662 0.14831568 -0.1513665 -0.06523439 0.06338523
0.1250069 -0.059562802 0.15248339 0.0467619 0.12475206 0.14246382 0.0040267706 -0.028403565

weight f4 [144]
00000000: 0000 803f 0000 803f 0000 803f 0000 803f
00000010: 0000 803f 0000 803f 0000 803f 0000 803f
00000020: 0000 803f 0000 803f 0000 803f 0000 803f
00000030: 0000 803f 0000 803f 0000 803f 0000 803f
00000040: 0000 803f 0000 803f 0000 803f 0000 803f
00000050: 0000 803f 0000 803f 0000 803f 0000 803f
00000060: 0000 803f 0000 803f 0000 803f 0000 803f
00000070: 0000 803f 0000 803f 0000 803f 0000 803f
00000080: 0000 803f 0000 803f 0000 803f 0000 803f
00000090: 0000 803f 0000 803f 0000 803f 0000 803f
000000a0: 0000 803f 0000 803f 0000 803f 0000 803f
000000b0: 0000 803f 0000 803f 0000 803f 0000 803f
000000c0: 0000 803f 0000 803f 0000 803f 0000 803f
000000d0: 0000 803f 0000 803f 0000 803f 0000 803f
000000e0: 0000 803f 0000 803f 0000 803f 0000 803f
000000f0: 0000 803f 0000 803f 0000 803f 0000 803f
00000100: 0000 803f 0000 803f 0000 803f 0000 803f
00000110: 0000 803f 0000 803f 0000 803f 0000 803f
00000120: 0000 803f 0000 803f 0000 803f 0000 803f
00000130: 0000 803f 0000 803f 0000 803f 0000 803f
00000140: 0000 803f 0000 803f 0000 803f 0000 803f
00000150: 0000 803f 0000 803f 0000 803f 0000 803f
00000160: 0000 803f 0000 803f 0000 803f 0000 803f
00000170: 0000 803f 0000 803f 0000 803f 0000 803f
00000180: 0000 803f 0000 803f 0000 803f 0000 803f
00000190: 0000 803f 0000 803f 0000 803f 0000 803f
000001a0: 0000 803f 0000 803f 0000 803f 0000 803f
000001b0: 0000 803f 0000 803f 0000 803f 0000 803f
000001c0: 0000 803f 0000 803f 0000 803f 0000 803f
000001d0: 0000 803f 0000 803f 0000 803f 0000 803f
000001e0: 0000 803f 0000 803f 0000 803f 0000 803f
000001f0: 0000 803f 0000 803f 0000 803f 0000 803f
00000200: 0000 803f 0000 803f 0000 803f 0000 803f
00000210: 0000 803f 0000 803f 0000 803f 0000 803f
00000220: 0000 803f 0000 803f 0000 803f 0000 803f
00000230: 0000 803f 0000 803f 0000 803f 0000 803f
1.0 1.0 1.0 1.0 1.0 1.0 1.0 1.0
1.0 1.0 1.0 1.0 1.0 1.0 1.0 1.0
1.0 1.0 1.0 1.0 1.0 1.0 1.0 1.0
1.0 1.0 1.0 1.0 1.0 1.0 1.0 1.0
1.0 1.0 1.0 1.0 1.0 1.0 1.0 1.0
1.0 1.0 1.0 1.0 1.0 1.0 1.0 1.0
1.0 1.0 1.0 1.0 1.0 1.0 1.0 1.0
1.0 1.0 1.0 1.0 1.0 1.0 1.0 1.0
1.0 1.0 1.0 1.0 1.0 1.0 1.0 1.0
1.0 1.0 1.0 1.0 1.0 1.0 1.0 1.0
1.0 1.0 1.0 1.0 1.0 1.0 1.0 1.0
1.0 1.0 1.0 1.0 1.0 1.0 1.0 1.0
1.0 1.0 1.0 1.0 1.0 1.0 1.0 1.0
1.0 1.0 1.0 1.0 1.0 1.0 1.0 1.0
1.0 1.0 1.0 1.0 1.0 1.0 1.0 1.0
1.0 1.0 1.0 1.0 1.0 1.0 1.0 1.0
1.0 1.0 1.0 1.0 1.0 1.0 1.0 1.0
1.0 1.0 1.0 1.0 1.0 1.0 1.0 1.0

bias f4 [144]
00000000: 0000 0000 0000 0000 0000 0000 0000 0000
00000010: 0000 0000 0000 0000 0000 0000 0000 0000
00000020: 0000 0000 0000 0000 0000 0000 0000 0000
00000030: 0000 0000 0000 0000 0000 0000 0000 0000
00000040: 0000 0000 0000 0000 0000 0000 0000 0000
00000050: 0000 0000 0000 0000 0000 0000 0000 0000
00000060: 0000 0000 0000 0000 0000 0000 0000 0000
00000070: 0000 0000 0000 0000 0000 0000 0000 0000
00000080: 0000 0000 0000 0000 0000 0000 0000 0000
00000090: 0000 0000 0000 0000 0000 0000 0000 0000
000000a0: 0000 0000 0000 0000 0000 0000 0000 0000
000000b0: 0000 0000 0000 0000 0000 0000 0000 0000
000000c0: 0000 0000 0000 0000 0000 0000 0000 0000
000000d0: 0000 0000 0000 0000 0000 0000 0000 0000
000000e0: 0000 0000 0000 0000 0000 0000 0000 0000
000000f0: 0000 0000 0000 0000 0000 0000 0000 0000
00000100: 0000 0000 0000 0000 0000 0000 0000 0000
00000110: 0000 0000 0000 0000 0000 0000 0000 0000
00000120: 0000 0000 0000 0000 0000 0000 0000 0000
00000130: 0000 0000 0000 0000 0000 0000 0000 0000
00000140: 0000 0000 0000 0000 0000 0000 0000 0000
00000150: 0000 0000 0000 0000 0000 0000 0000 0000
00000160: 0000 0000 0000 0000 0000 0000 0000 0000
00000170: 0000 0000 0000 0000 0000 0000 0000 0000
00000180: 0000 0000 0000 0000 0000 0000 0000 0000
00000190: 0000 0000 0000 0000 0000 0000 0000 0000
000001a0: 0000 0000 0000 0000 0000 0000 0000 0000
000001b0: 0000 0000 0000 0000 0000 0000 0000 0000
000001c0: 0000 0000 0000 0000 0000 0000 0000 0000
000001d0: 0000 0000 0000 0000 0000 0000 0000 0000
000001e0: 0000 0000 0000 0000 0000 0000 0000 0000
000001f0: 0000 0000 0000 0000 0000 0000 0000 0000
00000200: 0000 0000 0000 0000 0000 0000 0000 0000
00000210: 0000 0000 0000 0000 0000 0000 0000 0000
00000220: 0000 0000 0000 0000 0000 0000 0000 0000
00000230: 0000 0000 0000 0000 0000 0000 0000 0000
0.0 0.0 0.0 0.0 0.0 0.0 0.0 0.0
0.0 0.0 0.0 0.0 0.0 0.0 0.0 0.0
0.0 0.0 0.0 0.0 0.0 0.0 0.0 0.0
0.0 0.0 0.0 0.0 0.0 0.0 0.0 0.0
0.0 0.0 0.0 0.0 0.0 0.0 0.0 0.0
0.0 0.0 0.0 0.0 0.0 0.0 0.0 0.0
0.0 0.0 0.0 0.0 0.0 0.0 0.0 0.0
0.0 0.0 0.0 0.0 0.0 0.0 0.0 0.0
0.0 0.0 0.0 0.0 0.0 0.0 0.0 0.0
0.0 0.0 0.0 0.0 0.0 0.0 0.0 0.0
0.0 0.0 0.0 0.0 0.0 0.0 0.0 0.0
0.0 0.0 0.0 0.0 0.0 0.0 0.0 0.0
0.0 0.0 0.0 0.0 0.0 0.0 0.0 0.0
0.0 0.0 0.0 0.0 0.0 0.0 0.0 0.0
0.0 0.0 0.0 0.0 0.0 0.0 0.0 0.0
0.0 0.0 0.0 0.0 0.0 0.0 0.0 0.0
0.0 0.0 0.0 0.0 0.0 0.0 0.0 0.0
0.0 0.0 0.0 0.0 0.0 0.0 0.0 0.0

running_mean f4 [144]
00000000: 0000 0000 0000 0000 0000 0000 0000 0000
00000010: 0000 0000 0000 0000 0000 0000 0000 0000
00000020: 0000 0000 0000 0000 0000 0000 0000 0000
00000030: 0000 0000 0000 0000 0000 0000 0000 0000
00000040: 0000 0000 0000 0000 0000 0000 0000 0000
00000050: 0000 0000 0000 0000 0000 0000 0000 0000
00000060: 0000 0000 0000 0000 0000 0000 0000 0000
00000070: 0000 0000 0000 0000 0000 0000 0000 0000
00000080: 0000 0000 0000 0000 0000 0000 0000 0000
00000090: 0000 0000 0000 0000 0000 0000 0000 0000
000000a0: 0000 0000 0000 0000 0000 0000 0000 0000
000000b0: 0000 0000 0000 0000 0000 0000 0000 0000
000000c0: 0000 0000 0000 0000 0000 0000 0000 0000
000000d0: 0000 0000 0000 0000 0000 0000 0000 0000
000000e0: 0000 0000 0000 0000 0000 0000 0000 0000
000000f0: 0000 0000 0000 0000 0000 0000 0000 0000
00000100: 0000 0000 0000 0000 0000 0000 0000 0000
00000110: 0000 0000 0000 0000 0000 0000 0000 0000
00000120: 0000 0000 0000 0000 0000 0000 0000 0000
00000130: 0000 0000 0000 0000 0000 0000 0000 0000
00000140: 0000 0000 0000 0000 0000 0000 0000 0000
00000150: 0000 0000 0000 0000 0000 0000 0000 0000
00000160: 0000 0000 0000 0000 0000 0000 0000 0000
00000170: 0000 0000 0000 0000 0000 0000 0000 0000
00000180: 0000 0000 0000 0000 0000 0000 0000 0000
00000190: 0000 0000 0000 0000 0000 0000 0000 0000
000001a0: 0000 0000 0000 0000 0000 0000 0000 0000
000001b0: 0000 0000 0000 0000 0000 0000 0000 0000
000001c0: 0000 0000 0000 0000 0000 0000 0000 0000
000001d0: 0000 0000 0000 0000 0000 0000 0000 0000
000001e0: 0000 0000 0000 0000 0000 0000 0000 0000
000001f0: 0000 0000 0000 0000 0000 0000 0000 0000
00000200: 0000 0000 0000 0000 0000 0000 0000 0000
00000210: 0000 0000 0000 0000 0000 0000 0000 0000
00000220: 0000 0000 0000 0000 0000 0000 0000 0000
00000230: 0000 0000 0000 0000 0000 0000 0000 0000
0.0 0.0 0.0 0.0 0.0 0.0 0.0 0.0
0.0 0.0 0.0 0.0 0.0 0.0 0.0 0.0
0.0 0.0 0.0 0.0 0.0 0.0 0.0 0.0
0.0 0.0 0.0 0.0 0.0 0.0 0.0 0.0
0.0 0.0 0.0 0.0 0.0 0.0 0.0 0.0
0.0 0.0 0.0 0.0 0.0 0.0 0.0 0.0
0.0 0.0 0.0 0.0 0.0 0.0 0.0 0.0
0.0 0.0 0.0 0.0 0.0 0.0 0.0 0.0
0.0 0.0 0.0 0.0 0.0 0.0 0.0 0.0
0.0 0.0 0.0 0.0 0.0 0.0 0.0 0.0
0.0 0.0 0.0 0.0 0.0 0.0 0.0 0.0
0.0 0.0 0.0 0.0 0.0 0.0 0.0 0.0
0.0 0.0 0.0 0.0 0.0 0.0 0.0 0.0
0.0 0.0 0.0 0.0 0.0 0.0 0.0 0.0
0.0 0.0 0.0 0.0 0.0 0.0 0.0 0.0
0.0 0.0 0.0 0.0 0.0 0.0 0.0 0.0
0.0 0.0 0.0 0.0 0.0 0.0 0.0 0.0
0.0 0.0 0.0 0.0 0.0 0.0 0.0 0.0

running_var f4 [144]
00000000: 0000 803f 0000 803f 0000 803f 0000 803f
00000010: 0000 803f 0000 803f 0000 803f 0000 803f
00000020: 0000 803f 0000 803f 0000 803f 0000 803f
00000030: 0000 803f 0000 803f 0000 803f 0000 803f
00000040: 0000 803f 0000 803f 0000 803f 0000 803f
00000050: 0000 803f 0000 803f 0000 803f 0000 803f
00000060: 0000 803f 0000 803f 0000 803f 0000 803f
00000070: 0000 803f 0000 803f 0000 803f 0000 803f
00000080: 0000 803f 0000 803f 0000 803f 0000 803f
00000090: 0000 803f 0000 803f 0000 803f 0000 803f
000000a0: 0000 803f 0000 803f 0000 803f 0000 803f
000000b0: 0000 803f 0000 803f 0000 803f 0000 803f
000000c0: 0000 803f 0000 803f 0000 803f 0000 803f
000000d0: 0000 803f 0000 803f 0000 803f 0000 803f
000000e0: 0000 803f 0000 803f 0000 803f 0000 803f
000000f0: 0000 803f 0000 803f 0000 803f 0000 803f
00000100: 0000 803f 0000 803f 0000 803f 0000 803f
00000110: 0000 803f 0000 803f 0000 803f 0000 803f
00000120: 0000 803f 0000 803f 0000 803f 0000 803f
00000130: 0000 803f 0000 803f 0000 803f 0000 803f
00000140: 0000 803f 0000 803f 0000 803f 0000 803f
00000150: 0000 803f 0000 803f 0000 803f 0000 803f
00000160: 0000 803f 0000 803f 0000 803f 0000 803f
00000170: 0000 803f 0000 803f 0000 803f 0000 803f
00000180: 0000 803f 0000 803f 0000 803f 0000 803f
00000190: 0000 803f 0000 803f 0000 803f 0000 803f
000001a0: 0000 803f 0000 803f 0000 803f 0000 803f
000001b0: 0000 803f 0000 803f 0000 803f 0000 803f
000001c0: 0000 803f 0000 803f 0000 803f 0000 803f
000001d0: 0000 803f 0000 803f 0000 803f 0000 803f
000001e0: 0000 803f 0000 803f 0000 803f 0000 803f
000001f0: 0000 803f 0000 803f 0000 803f 0000 803f
00000200: 0000 803f 0000 803f 0000 803f 0000 803f
00000210: 0000 803f 0000 803f 0000 803f 0000 803f
00000220: 0000 803f 0000 803f 0000 803f 0000 803f
00000230: 0000 803f 0000 803f 0000 803f 0000 803f
1.0 1.0 1.0 1.0 1.0 1.0 1.0 1.0
1.0 1.0 1.0 1.0 1.0 1.0 1.0 1.0
1.0 1.0 1.0 1.0 1.0 1.0 1.0 1.0
1.0 1.0 1.0 1.0 1.0 1.0 1.0 1.0
1.0 1.0 1.0 1.0 1.0 1.0 1.0 1.0
1.0 1.0 1.0 1.0 1.0 1.0 1.0 1.0
1.0 1.0 1.0 1.0 1.0 1.0 1.0 1.0
1.0 1.0 1.0 1.0 1.0 1.0 1.0 1.0
1.0 1.0 1.0 1.0 1.0 1.0 1.0 1.0
1.0 1.0 1.0 1.0 1.0 1.0 1.0 1.0
1.0 1.0 1.0 1.0 1.0 1.0 1.0 1.0
1.0 1.0 1.0 1.0 1.0 1.0 1.0 1.0
1.0 1.0 1.0 1.0 1.0 1.0 1.0 1.0
1.0 1.0 1.0 1.0 1.0 1.0 1.0 1.0
1.0 1.0 1.0 1.0 1.0 1.0 1.0 1.0
1.0 1.0 1.0 1.0 1.0 1.0 1.0 1.0
1.0 1.0 1.0 1.0 1.0 1.0 1.0 1.0
1.0 1.0 1.0 1.0 1.0 1.0 1.0 1.0

weight f4 [40, 144, 1, 1]
00000000: 478b 813d 8b9b 11bd d6a3 793d 4eff 65bd
00000010: d082 803b ac6a da3c 2267 003d 0087 77bd
00000020: ec59 9b3c 0002 6bbc ba8e 9dbd 7040 1dbd
00000030: f6fb 92bd b5fc 873d eb17 7bbd 71d9 9a3d
00000040: d4be 963c b848 123c d0d1 a1bb 6cd3 a0bd
00000050: ac21 ca3c 2428 e63c 4095 b43b e175 993d
00000060: dbe6 74bd 8262 693d 0090 8eba 35ab 963d
00000070: eefc 6b3d 36f9 793d 185f 28bc 1a47 7c3d
00000080: 1010 a8bb 2b81 88bd f3a0 8cbd 6d89 8f3d
00000090: 400c c13a 7275 703d fc67 82bc 95ba 933d
000000a0: d676 cfbc c097 863c 0085 db3a 9bbe 72bd
000000b0: a1e4 803d a8d6 293d aa01 4d3d 38d6 7d3c
000000c0: 454c 983d e09e 31bd 1804 25bd 8fb9 a13d
000000d0: e0e7 0c3c 0098 0539 00ea edbc eba9 80bd
000000e0: 88e7 6c3c 460e 5fbd 390d 8a3d 9326 6bbd
000000f0: da72 793d 1310 833d 015f a73d c74b 93bd
00000100: 8303 9bbd 82b3 393d c841 443c 2634 e4bc
00000110: 705f 9a3c 5048 2ebd c4cf 8bbd bc8b 983c
00000120: 82ad 5a3d 7cc7 f93c 0591 8f3d 905f ff3b
00000130: 7262 233d 408b 0d3c e237 433d 607f 023b
00000140: 6ed6 1fbd 9c63 ba3c e495 f23c a69a 7f3d
00000150: c053 91bb 1020 97bd 0893 003d 3635 2cbd
00000160: 483d 02bd 5863 7dbc a39a 973d d6ee b4bc
00000170: 54a9 9cbc 1293 6c3d 83fe 09bd 80a5 153a
00000180: 1e56 293d ccc8 fbbc 9396 0fbd 1589 823d
00000190: c0ec cb3c d0bf fc3b 4221 2c3d 2863 96bd
000001a0: c863 1abd abd8 65bd ecad 8cbc 1169 9d3d
000001b0: 0e52 a6bd b0ec c33c 7633 2f3d 137e 6abd
000001c0: f34e 1abd 42e7 053d 85ff a93d 209e 6fbb
000001d0: 00d0 3c3a 58fa 12bd 3238 523d 1a20 313d
000001e0: 8046 143d 841a b63c b2c8 303d a6e0 e3bc
000001f0: f8a5 40bc ccd3 c23c 8091 2bba 68b0 15bc
00000200: 6948 a23d 886f 593c f550 863d 18f2 9abd
00000210: c03b 833c 7867 323c 735d 91bd da75 9ebd
00000220: 6b38 50bd d050 8cbb f8bc 50bd ec1a 8ebc
00000230: fb0a 983d b847 4fbc db77 a5bd a0da 0a3b
00000240: 300c a4bc 737a 48bd 308e f3bc a787 993d
00000250: 2a48 653d 80fd 7e3c 3824 1ebc eca7 f63c
00000260: f252 643d 280e 2f3c 4681 113d 78a9 99bd
00000270: 607b fd3c b81a 103d c2c4 80bd 7a8a 373d
00000280: 6ea3 9fbd a8a6 6bbd a648 a4bd 691e 883d
00000290: db1b 44bd d7aa 8a3d 6e7b 45bd ba26 3a3d
000002a0: 43b5 61bd be5f 80bd 7494 8bbc fa5c 003d
000002b0: 86b9 193d 0200 193d 7cf3 fbbc 0c67 90bd
000002c0: 615a 983d e397 5bbd 74a2 a1bd 20ef 8fbd
000002d0: f808 023c 587d 16bc 88de 223c 2eab 143d
000002e0: 6606 72bd 05a0 a83d 8c5d a43c 0075 283c
000002f0: 80b1 a9bd 64b8 ff3c 2ef3 523d 60d7 07bc
00000300: 1847 233d 8092 b3bc 444a cb3c aab8 733d
00000310: 247c 8dbd 5ccd 973c e072 5abb ba43 133d
00000320: 2290 663d 90c1 35bd 6b9b 03bd 6014 04bb
00000330: e5f1 823d f0dd d3bb 4059 053d c085 55bc
00000340: 10c0 b53b 2210 663d 18a3 223d 0e4c 11bd
00000350: d7cb 81bd c36e 82bd 6033 043c bc88 ab3c
00000360: c8fe 1ebc 0be2 a9bd 4454 dd3c 96b8 4cbd
00000370: 4773 a2bd 80b8 c7bc 0056 cebb 80a6 203b
00000380: 143c 9ebc 6487 8dbd b3a0 833d 6824 4bbc
00000390: c0c6 98bb 9bd2 a93d 1ad9 033d 269c 683d
000003a0: 4753 81bd 2c07 bdbc 202d f1bc eb33 14bd
000003b0: 94aa a03c e286 3b3d 5244 4d3d a044 123c
000003c0: da9b 9ebd ac49 aa3c 9088 70bd 9051 c23b
000003d0: eef0 4d3d 5bcf 84bd f095 ddbb 94ce c83c
000003e0: fcd5 f1bc 20d9 7abb c628 37bd 23a7 8bbd
000003f0: 71f5 8e3d d631 05bd c593 8c3d 305a cabb
0.06325393 -0.035548728 0.06094726 -0.05615168 0.003921844 0.026662193 0.031348355 -0.06043148
0.018963777 -0.014343739 -0.076932386 -0.03839153 -0.07176964 0.06639997 -0.061302107 0.07561005
0.01840154 0.00892847 -0.0049383417 -0.078528255 0.02467426 0.028095312 0.005510956 0.07493187
-0.059790473 0.05697871 -0.0010876656 0.07356874 0.05761426 0.06102868 -0.010276578 0.061591245
-0.005128868 -0.06665262 -0.06866636 0.07008634 0.0014728382 0.058705755 -0.015918724 0.07213322
-0.02532522 0.016429782 0.0016748011 -0.059263807 0.062936075 0.041464478 0.050050415 0.015492968
0.07436422 -0.043364406 -0.040287107 0.078967206 0.008600205 0.00012740493 -0.029042244 -0.06282409
0.014459498 -0.05445697 0.06740803 -0.057409834 0.060900547 0.0639955 0.081724174 -0.07192188
-0.07569029 0.045337208 0.011978574 -0.027856898 0.018844336 -0.04254943 -0.068267375 0.018621318
0.053388126 0.03049063 0.07010082 0.0077933744 0.039888807 0.008639157 0.047660716 0.0019912347
-0.039022855 0.022752576 0.029612489 0.062403344 -0.0044350326 -0.07379162 0.03139022 -0.042042933
-0.031796724 -0.01546558 0.074025415 -0.022086542 -0.01912371 0.057757445 -0.033689987 0.00057085603
0.041341893 -0.030735396 -0.03505571 0.063738026 0.024893165 0.0077132955 0.042023905 -0.07343131
-0.037692815 -0.056114834 -0.017172776 0.076860555 -0.081211194 0.023916572 0.042773686 -0.05724914
-0.037672948 0.032691248 0.083006896 -0.0036562756 0.0007202625 -0.035883278 0.051323123 0.043243505
0.036200047 0.02222944 0.043160148 -0.027817082 -0.01175832 0.023782633 -0.00065448135 -0.009136297
0.079239674 0.01327122 0.0655841 -0.07565707 0.016019702 0.010888927 -0.07097902 -0.07737322
-0.050835054 -0.0042820945 -0.050961465 -0.017346822 0.07423969 -0.012651376 -0.08079501 0.002118744
-0.020025343 -0.0489449 -0.029730886 0.07496577 0.055977024 0.015563369 -0.00965219 0.030109368
0.055743165 0.010684527 0.035523675 -0.07503027 0.030942619 0.03518173 -0.062875286 0.044809796
-0.077948436 -0.057531983 -0.08021669 0.06646425 -0.047878128 0.06770866 -0.048213415 0.04544709
-0.055104505 -0.062682614 -0.017038561 0.03133867 0.037530445 0.037353523 -0.03075575 -0.07050905
0.074391134 -0.053611647 -0.078923136 -0.07028031 0.007936709 -0.009185158 0.009940751 0.036296062
-0.059088133 0.08233646 0.020064138 0.010281801 -0.082858086 0.031215854 0.051501445 -0.0082910955
0.039862722 -0.021920443 0.024815686 0.05950228 -0.069084436 0.01853054 -0.003333263 0.03595326
0.0562898 -0.04437405 -0.03213064 -0.0020153746 0.06393794 -0.006465666 0.03255582 -0.013032377
0.0055465773 0.05616773 0.03970632 -0.035472922 -0.063377075 -0.06368782 0.008068889 0.020939223
-0.009704299 -0.082950674 0.02701772 -0.049980722 -0.07932144 -0.024379969 -0.006296873 0.0024513304
-0.019315757 -0.06910589 0.06427135 -0.012398817 -0.0046623647 0.08292123 0.032189466 0.05678954
-0.06314712 -0.023074709 -0.029440463 -0.036182325 0.019612588 0.04578293 0.050113983 0.008927494
-0.0774457 0.020787083 -0.058723986 0.005930133 0.050278597 -0.064848624 -0.0067622587 0.024512567
-0.029520981 -0.003827639 -0.04471662 -0.06818988 0.06980408 -0.03251823 0.06864122 -0.006175302

bias f4 [40]
00000000: ea40 653d a886 6b3c 1e5f 10bd 0020 9bbd
00000010: c035 e7ba 6466 ca3c 00cf 9c39 d427 ba3c
00000020: aa9f 453d 867c 1a3d 7b63 913d 40f3 b13a
00000030: f853 2abd 2c44 e6bc f63c 0c3d d8df 9ebd
00000040: 807e 393c 1c41 c83c f818 643c 18fc 393c
00000050: 7aaf 83bd f07d c23b 7e96 95bd 40e7 bfbc
00000060: e6f7 21bd 5372 943d 9624 3dbd c0cb 383c
00000070: 3e89 24bd 406b 163c 5070 ce3c 62c3 5a3d
00000080: 508e 46bd 70f5 c53c a189 863d 7889 6a3c
00000090: 4c74 cf3c c8f4 023d 6843 2cbd f266 0f3d
0.05597011 0.014375366 -0.03524696 -0.07574463 -0.001763992 0.024707027 0.00029908866 0.02272407
0.04824797 0.03771641 0.070990525 0.0013576522 -0.041583985 -0.028108679 0.034237824 -0.077575386
0.011321664 0.02444511 0.013921969 0.011351608 -0.06429954 0.005935423 -0.07304095 -0.023425698
-0.039543055 0.07248368 -0.04617747 0.011279047 -0.040169947 0.009180844 0.02520004 0.053408988
-0.048475564 0.024164885 0.065692194 0.014315002 0.02532401 0.031971723 -0.04205647 0.035010286

weight f4 [144, 40, 1, 1]
00000000: ce0b bdbd 795f abbd 80e4 a5bd aac7 b03d
00000010: 840b 033d 03b4 1e3e 4254 42bd bcd6 a53d
00000020: a014 a93b 2a1f dabd 7002 4bbc 10dd f83c
00000030: 1c21 ab3d eaa1 e2bd 49a5 0bbe 68e6 8f3d
00000040: 76a4 1fbe 362d fdbd 769d b33d 1095 72bc
00000050: e7d5 a3bd 50c3 2fbc 4cf9 c8bd 7ac6 55bd
00000060: 00c2 17bd ec16 a0bd 49c2 003e 803a b2bb
00000070: 40c7 04be 962a e93d f2a4 b8bd 3e3d 0abe
00000080: 080e 54bd 3e93 54bd 0001 21ba 4660 cebd
00000090: 40cd 553b 420d f03d 92f0 d23d 4406 37bd
000000a0: 8c42 f8bd d827 0dbe 1c24 1ebd 3b51 8cbd
000000b0: 1024 f8bc a032 873c 8243 96bd 0cb6 063d
000000c0: 001e b5bc 0cee e9bd f5e6 d8bd d378 e4bd
000000d0: 64ae d5bd 58a9 c7bc 5afb 33bd 2226 f93d
000000e0: 40b1 853c a8dc f73c 90e0 e0bd 3094 6f3c
000000f0: dc26 20be 9058 f9bd 82ae b43d dd0c 1b3e
00000100: 877b 1d3e 68d1 f4bc 0097 ec3a 1895 03bd
00000110: 5f59 12be ac76 10be 582c 743d 65d7 063e
00000120: 4494 93bd ddbd 033e f62f 09be 88bc 87bc
00000130: 3058 e83c cfda 0fbe 60c5 9a3d 15bc a2bd
00000140: 8bb1 203e 7274 fd3d 8090 e9ba 5cd9 573d
00000150: 61ce 023e d852 353d 1a76 f13d afd0 1b3e
00000160: fc0d 9f3d 604a 31bc 28b7 d8bd 1d4a 113e
00000170: 5023 253c 0013 4b3c c282 57bd a0e1 d33c
00000180: b636 d93d 18ed 00be 949f b8bd 4c23 673d
00000190: 963f 78bd ca60 ea3d 2e95 d23d 8040 013c
000001a0: 2045 7dbc 7064 a73d 5c48 383d 6863 e23c
000001b0: e270 e53d d8c6 e1bc 1020 a6bc 6b8e 163e
000001c0: 9eac 9dbd 4939 093e 16aa 77bd 5ec5 ff3d
000001d0: 6c16 1a3d 8732 0a3e b358 afbd 38ba e0bd
000001e0: 3814 8fbd 4806 e6bd 29e9 16be 984c 383d
000001f0: f814 f2bc 2828 bbbc 17d3 8dbd 402c 653b
00000200: 807c cf3c fd1f 013e 2e57 f13d b88d f1bc
00000210: b6bf dd3d 31bd 113e 50b2 153c f29b d53d
00000220: c4e0 d1bd 20d3 90bc 7c3b 823d 5c82 013d
00000230: 6b2f 013e 954d e1bd 9cfd 263d 76f7 10be
00000240: ac8e 20be ba93 14be af83 15be 59de a4bd
00000250: 3cd7 0ebe 9f9a cfbd a898 ac3d e288 4dbd
00000260: a07f d6bd b6fb d63d 835d 06be 68a0 98bc
00000270: 00c2 1a3d ca23 5dbd 2a15 a53d 7002 6c3d
00000280: 80a1 8e3b 507d 0fbe 6f9d 153e 08fa d2bc
00000290: 58a9 8dbc 7af6 41bd 68de 1bbd a047 99bc
000002a0: f9c9 043e e99a 9abd 4028 8bbc 50be 9d3d
000002b0: 52bd e73d 28c9 0dbd f39e 0a3e 98cf 873d
000002c0: 142c 8ebd 98e7 41bd 1aef 20be 4204 8c3d
000002d0: 8a12 cb3d a0b2 b03d f694 5ebd e5f3 0b3e
000002e0: 1092 14bc 2bb2 1ebe 555c 003e 40ac 073d
000002f0: 64b3 613d eb19 05be 2ed8 d33d a04a c6bc
00000300: dc65 c7bd 5817 823c 18cb d1bc 9cf6 66bd
00000310: 256f 103e e010 b4bc ecb3 8c3d c9d6 82bd
00000320: 32c5 5fbd 2d3f 03be d449 0f3d e8ef fcbd
00000330: ca7e bc3d a016 433c e55a acbd 028b ccbd
00000340: 18e3 88bc 3a4b 45bd c057 813c b89b cdbc
00000350: b2ec 06be a840 663d 111a 1b3e cd5b 8dbd
00000360: 90f5 353c dc0f 653d da16 b5bd 4e21 893d
00000370: 832e 1f3e b4c1 5b3d c07b 153b 20f9 983c
00000380: b8ea b7bc 2ea0 863d 0019 e5ba 50ca 0cbe
00000390: 200d d43b 72bd 4cbd 98fe bb3c 6d59 02be
000003a0: 7d1f b8bd 0b39 8bbd 2449 1fbe 6086 77bc
000003b0: 3a7b 0abd 64b1 7fbd 8a86 bc3d c584 08be
000003c0: 2845 85bc b9f1 06be 61f1 a9bd a84d e3bd
000003d0: 70e5 993c 6028 4b3d 27ed 103e 222f e53d
000003e0: 2935 193e ab1c 13be b317 cbbd 9d44 153e
000003f0: e0fd 7fbc ea2a fb3d c5c7 143e b8c1 63bd
-0.09230767 -0.08367819 -0.081002235 0.08631833 0.031993404 0.15498357 -0.047443636 0.08097598
0.0051599294 -0.10650475 -0.012390718 0.030378848 0.083559245 -0.11066039 -0.1363727 0.070263684
-0.1559008 -0.12362139 0.08770268 -0.014806047 -0.07999783 -0.0107277185 -0.098131746 -0.052191235
-0.037050247 -0.07816872 0.12574114 -0.0054391026 -0.12966633 0.11385076 -0.09015836 -0.13499925
-0.051771194 -0.051898234 -0.00061418116 -0.100769565 0.003262356 0.11721279 0.102997914 -0.04468371
-0.12122068 -0.1378473 -0.038608655 -0.06851431 -0.030290633 0.016503632 -0.07337095 0.032888457
-0.022109032 -0.11422357 -0.105909266 -0.11155858 -0.10433653 -0.024372742 -0.04394088 0.121654764
0.016319871 0.030256584 -0.10980332 0.014622733 -0.15639824 -0.12175095 0.08822347 0.15141626
0.15379153 -0.029885009 0.0018050373 -0.03212461 -0.14291905 -0.1410777 0.059612602 0.13168104
-0.07206014 0.12865396 -0.13397202 -0.01656939 0.028362364 -0.14048313 0.075571775 -0.0794603
0.15692727 0.12375726 -0.0017819554 0.052697524 0.1277404 0.04426846 0.11790104 0.15216325
0.07766339 -0.010820955 -0.10581809 0.14188428 0.01007922 0.012394667 -0.052614935 0.025864422
0.106061384 -0.12590444 -0.09014812 0.056430146 -0.060607515 0.11444242 0.1028236 0.007888913
-0.015458375 0.08173454 0.044990882 0.027635291 0.11203171 -0.027560636 -0.02027896 0.14702766
-0.0769894 0.13400759 -0.06046494 0.12488817 0.03761904 0.13495837 -0.0856184 -0.109730184
-0.06986278 -0.11231667 -0.14737381 0.04499492 -0.029551014 -0.022846296 -0.06925028 0.0034969002
0.02532792 0.12609859 0.11784206 -0.029486522 0.108275816 0.14232327 0.009136751 0.10430135
-0.10247949 -0.017678797 0.06359002 0.03161846 0.12615745 -0.11001126 0.040769204 -0.14156899
-0.15679425 -0.14509478 -0.14601015 -0.08050222 -0.13949293 -0.101369135 0.08427554 -0.05017937
-0.10473561 0.10497229 -0.1312161 -0.018631175 0.03778267 -0.05398921 0.08060677 0.057619512
0.0043527484 -0.14012647 0.14610837 -0.02575399 -0.017292663 -0.0473542 -0.0380539 -0.018710911
0.12967671 -0.07549078 -0.016986966 0.07702315 0.11315407 -0.034615666 0.13537197 0.06631392
-0.06942001 -0.047340006 -0.1571621 0.068367496 0.099156454 0.0862782 -0.05434128 0.13667257
-0.009068027 -0.15497653 0.12535222 0.033123255 0.05510272 -0.12998168 0.103439674 -0.024205506
-0.09736225 0.015880272 -0.025609538 -0.05638753 0.14104898 -0.021980703 0.06870255 -0.06388623
-0.05463142 -0.12817068 0.034982517 -0.12350446 0.092038706 0.01190725 -0.08415774 -0.09987451
-0.01670985 -0.048167445 0.015788913 -0.025098667 -0.1317623 0.056214005 0.15146662 -0.06902275
0.01110591 0.055923328 -0.08842249 0.066958055 0.15545087 0.053651527 0.0022809356 0.01867348
-0.02245079 0.065735206 -0.0017478764 -0.13749051 0.006471291 -0.049985357 0.022948548 -0.12729426
-0.08990381 -0.067979895 -0.15555245 -0.015107721 -0.033808924 -0.062425032 0.09205349 -0.13331898
-0.016268328 -0.13178147 -0.082979925 -0.11098796 0.018786162 0.04959905 0.14152966 0.111906305
0.14961685 -0.14366405 -0.0991663 0.14576955 -0.015624493 0.122640446 0.14529331 -0.055604666

bias f4 [144]
00000000: 7d54 a2bd 33a0 133e ebea 093e c87a cbbc
00000010: ce19 50bd 3ec4 803d f8e3 2f3d f5b4 0a3e
00000020: 8454 893d e8d6 e63c 0024 69bd 402c 38bb
00000030: 47aa 04be 9c9d 773d 9f89 cdbd 405b 333c
00000040: 4c22 1fbd 1849 edbc b194 80bd d863 bbbc
00000050: 809b f1bb 00ea bd39 4c2a b0bd aacf a63d
00000060: 20bd b7bb 4482 003d c9cb b7bd 7c98 3a3d
00000070: 48a1 173d 943b 43bd e076 5abc a015 3dbc
00000080: ad4c bebd 204f c9bc e645 f93d 5ce5 a2bd
00000090: 97b4 10be 2030 c73c 9871 b4bd ce91 93bd
000000a0: a051 51bd da2e f13d 68a5 a23c 74fb cdbd
000000b0: c7e1 083e 66d1 5ebd d10a a5bd 45a7 023e
000000c0: 32d5 3abd f833 dabc 5e35 db3d b658 32bd
000000d0: c02e 36bc 2027 d5bb 8833 f73c 0c5b 8b3d
000000e0: 78a2 cd3c e84f 953c 5367 a2bd f614 af3d
000000f0: 2a2a c2bd b253 0ebe ac58 5f3d 3ca6 873d
00000100: b878 413d 1c9a 953d 7de4 173e d3c3 b3bd
00000110: c695 893d 6ea7 efbd c0e1 f3bb 4e35 833d
00000120: 1041 b1bc 2e8a d83d 2f0d 11be 3abe dcbd
00000130: c9f2 0dbe 6489 e9bd fa28 1ebd 18b4 8b3c
00000140: 2af3 08be 607d 953c 5acb 823d 98b7 a73c
00000150: 2798 e1bd 06be c03d 9c59 083d f569 00be
00000160: f89e 053d a51f 19be b88b 723d 30a9 3b3c
00000170: 14d5 173d 9fb2 073e c540 0b3e de54 edbd
00000180: 20d5 c03c c620 08be 38af 05bd 9cfb b1bd
00000190: 1673 eb3d 8e11 963d aed7 73bd 32b6 b1bd
000001a0: 12d8 e4bd 27d4 bbbd 672c ddbd 8a42 e03d
000001b0: 78d6 c2bd 9faf 0dbe 43c3 a9bd 2efd b03d
000001c0: 065e 55bd f461 7f3d 10d4 5b3c 44b9 883d
000001d0: a923 babd c371 023e 011c 06be 9614 5abd
000001e0: 20da 6d3d 5032 273d 30f7 e2bd 1686 a03d
000001f0: d443 833d 8a47 803d 0026 95bc 04fa a9bd
00000200: a640 ccbd cb03 16be 1c24 6b3d 769f 83bd
00000210: 80f9 cb3c 8695 d53d fc84 7a3d 91d4 99bd
00000220: 4221 c2bd d04e e1bc c857 2e3d 90e2 8cbc
00000230: 7210 5fbd 4605 cc3d 60b1 07bc 8fca a0bd
-0.07926271 0.1441658 0.1346852 -0.02483882 -0.05080586 0.0628743 0.042942017 0.13545592
0.06705573 0.028178647 -0.056919098 -0.0028102547 -0.1295558 0.060453042 -0.10036015 0.010947049
-0.038851067 -0.028965518 -0.06278361 -0.022874758 -0.0073732734 0.00036223233 -0.086018175 0.081450775
-0.0056072623 0.03137423 -0.08974416 0.045555577 0.037019044 -0.04766424 -0.013334006 -0.0115408
-0.092919685 -0.024573863 0.12171535 -0.07953903 -0.1413139 0.02431494 -0.08810729 -0.072055444
-0.051103234 0.11776514 0.019854262 -0.100577265 0.13367377 -0.054398917 -0.08058704 0.12759121
-0.045613475 -0.026636109 0.10703538 -0.043541633 -0.0111195445 -0.006504908 0.03017594 0.06804475
0.025101885 0.018226579 -0.07929864 0.0854892 -0.094806984 -0.13899115 0.054527923 0.066235036
0.047234267 0.07304785 0.14833255 -0.08777585 0.0671802 -0.117018566 -0.007442683 0.064066514
-0.02163747 0.10573231 -0.14165185 -0.1077847 -0.13862146 -0.11403158 -0.038613297 0.017053649
-0.1337401 0.01824826 0.063864425 0.020473287 -0.11015349 0.09411244 0.033288583 -0.1254042
0.032622308 -0.14953478 0.059215277 0.011453912 0.03706844 0.13251732 0.13598926 -0.11588453
0.023539126 -0.13293752 -0.032637805 -0.08690569 0.1149656 0.07327567 -0.05953186 -0.08677329
-0.11174025 -0.09171324 -0.10799485 0.10950191 -0.09513563 -0.13836525 -0.08289196 0.0864204
-0.05209162 0.062349275 0.013417259 0.066759616 -0.09088833 0.12738709 -0.1309662 -0.05324229
0.05806935 0.040819466 -0.110823035 0.07838075 0.064094216 0.06263645 -0.018206596 -0.0829964
-0.09973268 -0.14649884 0.057407483 -0.06426899 0.024899244 0.1042891 0.06116198 -0.07511247
-0.09479 -0.027503401 0.042564183 -0.017197877 -0.054459043 0.09961943 -0.008282036 -0.07851135
