Evolutionary_Search/blocks/b0_3_224_224.pth (torch, 8380 bytes, 7 tensors)

weight f4 [3, 3, 1, 1]
0	0x3e77e3e4	0.24208027
1	0xbe408e2a	-0.18804231
2	0x3e9635e8	0.29338002
3	0xbcde5960	-0.027142227
4	0x3e913ca4	0.28366578
5	0xbec15395	-0.3775908
6	0xbe97d915	-0.29657808
7	0xbee09c35	-0.43869177
8	0x3e3f6380	0.186903

bias f4 [3]
0	0x3ed17692	0.40910774
1	0x3eee2e04	0.46519482
2	0xbc90b840	-0.017665982

weight f4 [24, 3, 3, 3]
0	0xbc851d08	-0.016249195
1	0x3dadd85e	0.084885344
2	0x3d2d4a60	0.042307258
3	0xbe3ae327	-0.18250714
4	0x3df952f2	0.12174024
5	0x3e442bb9	0.19157304
6	0x3d877f6a	0.06616099
7	0xbdc34bb8	-0.095359266
8	0xbe0315e0	-0.12801313
9	0x3d880cc2	0.06643058
10	0xbcec3dd0	-0.028838068
11	0x3db2376e	0.087019786
12	0xbc85a238	-0.016312703
13	0xbd3d8044	-0.0462649
14	0x3e2e112b	0.16998737
15	0x3e430af5	0.19047149
16	0xbda7e7e9	-0.0819853
17	0x3d48f318	0.049059957
18	0x3d0ba808	0.034095794
19	0xbe2a96fc	-0.16659158
20	0xbd57f5f4	-0.052724794
21	0x3d4707b0	0.048591316
22	0xbd23ad90	-0.039960444
23	0x3d2daab0	0.04239911
24	0x3e3e7b1f	0.18601654
25	0xbc94f220	-0.01818186
26	0xbdfd560f	-0.1236993
27	0x3cdfc618	0.027316138
28	0x3e0d516d	0.13800593
29	0xbe227a6a	-0.1586701
30	0xbdc8ea2d	-0.098102905
31	0xbd907ccd	-0.07055054
32	0x3c284030	0.01026921
33	0xbda936b3	-0.08262386
34	0x3e01388f	0.12619232
35	0x3e25aadf	0.16178463
36	0x3e22c8f9	0.15896977
37	0x3d99523a	0.074863866
38	0xbe208d03	-0.15678792
39	0xbdc41f36	-0.095762655
40	0xbcdd08b8	-0.026981696
41	0x3dfb9822	0.122848764
42	0xbe410b2a	-0.18851915
43	0x3e0d8f0f	0.13824104
44	0x3e014e0f	0.12627433
45	0x3d293b74	0.041316465
46	0xbdafd47a	-0.085854486
47	0x3dd1f7a6	0.10252313
48	0x3da5bb7e	0.08092402
49	0xbd7e4050	-0.062073052
50	0x3e35289b	0.17691271
51	0x3d85e486	0.06537728
52	0x3dc12ab6	0.094319746
53	0x3da0b646	0.07847266
54	0xbd96e1f0	-0.07367313
55	0xbe38cc29	-0.18046631
56	0x3d118c7c	0.035534367
57	0xbc8ab0b0	-0.016929954
58	0xbe24b646	-0.16085157
59	0xbdd1209c	-0.10211298
60	0xbe346053	-0.1761487
61	0xbe44c028	-0.19213927
62	0xbcc40310	-0.023927242
63	0x3c882348	0.016618386
64	0xbe1cf37f	-0.15327261
65	0xbe30506d	-0.1721818
66	0x3e21cb31	0.15800168
67	0xbd634cec	-0.05549328
68	0x3dcfda9e	0.1014912
69	0xbe436353	-0.19080858
70	0x3ca8b168	0.020592406
71	0x3d2ccf00	0.042189598
72	0xbd53de98	-0.051725954
73	0xbc16a4d0	-0.009194568
74	0x3e43a29d	0.19105001
75	0x3ce54fb0	0.0279921
76	0xbda79e14	-0.08184448
77	0x3e067f3d	0.13134475
78	0x3d9d9b6a	0.076956585
79	0x3d1dc500	0.038517952
80	0x3d444e80	0.047926426
81	0xbe37a0c9	-0.17932428
82	0xbdaca2c5	-0.08429483
83	0x3e3c803f	0.18408297
84	0xbe41a1cf	-0.18909381
85	0x3dbc63be	0.09198712
86	0xbd8ca9c8	-0.06868321
87	0x3e0baa47	0.13639174
88	0x3d9cfd6a	0.076655224
89	0x3dafdc72	0.085869685
90	0x3dd198c6	0.10234217
91	0x3e287dff	0.16454314
92	0x3d3de1fc	0.046358094
93	0xbe0d3d92	-0.13793018
94	0x3c9bc510	0.019014865
95	0x3e1f7a01	0.15573885
96	0x3c19fe70	0.0093990415
97	0x3bd197e0	0.0063962787
98	0xbc93a6b0	-0.018023819
99	0xbe41a208	-0.18909466
100	0xbcb87f98	-0.022521779
101	0xbe1b4bd7	-0.1516565
102	0xbe25b814	-0.16183501
103	0xbe29a573	-0.1656702
104	0x3dfdf31a	0.123998836
105	0xbdc47978	-0.09593481
106	0xbd4ff5dc	-0.05077158
107	0xbc702940	-0.014658272
108	0xbe3985db	-0.18117468
109	0xbbd4f2a0	-0.0064986497
110	0xbd36149c	-0.04445325
111	0x3ddd7b16	0.108144924
112	0xbe04fd88	-0.1298734
113	0x3e137e1d	0.14403577
114	0xbe385f1a	-0.18005028
115	0x3e08c6dd	0.1335711
116	0xbdd89f40	-0.105772495
117	0xbe4124e4	-0.18861729
118	0x3dcb996a	0.09941371
119	0x3dcc50fe	0.099763855
120	0x3ccec6a8	0.025241211
121	0x3dfc0746	0.12306075
122	0x3d39afe0	0.045333743
123	0xbe39cf0f	-0.18145393
124	0x3d891326	0.066931054
125	0xbe3d2299	-0.18470229
126	0x3da0dd52	0.078547135
127	0x3db9cd2a	0.09072335
128	0x3df237ee	0.11827074
129	0x3d1215d8	0.035665363
130	0x3bd84b80	0.006600797
131	0x3e37b709	0.17940916
132	0xbc98b840	-0.018642545
133	0xbc814400	-0.015779495
134	0xbdc4f3f0	-0.0961684
135	0xbdcfa392	-0.101386204
136	0xbe127ffa	-0.14306632
137	0x3d8dc59e	0.06922458
138	0x3de2cf86	0.11074738
139	0x3bd13240	0.006384164
140	0xbd91a0bf	-0.07110738
141	0xbdac6208	-0.084171355
142	0x3e142903	0.1446877
143	0xbe31afff	-0.17352293
144	0xbd13ffec	-0.036132738
145	0xbd245424	-0.040119305
146	0x3e2626e5	0.16225775
147	0x3e209e3b	0.1568536
148	0x3d2261a8	0.039643914
149	0x3df37322	0.11887194
150	0xbd9857e4	-0.07438639
151	0x3e36afd9	0.17840518
152	0xbcebca50	-0.028782994
153	0x3ca1d428	0.019754484
154	0xbe27b6dc	-0.16378349
155	0x3c88cab0	0.016698211
156	0xbdddaf30	-0.1082443
157	0xbe30ac0e	-0.17253134
158	0xbdbfb9a1	-0.09361578
159	0xbd9e613b	-0.07733389
160	0x3ce200d8	0.027588293
161	0x3d975d66	0.07390861
162	0xbdb4cba5	-0.088279046
163	0xbda58a98	-0.08083075
164	0x3e0d9ed3	0.13830118
165	0xbd8dcb3a	-0.06923528
166	0x3e33722f	0.17524026
167	0x3e09b669	0.1344849
168	0x3d073868	0.033012778
169	0xbe379cd7	-0.17930923
170	0xbc13e6a0	-0.009027153
171	0x3e27f547	0.1640216
172	0xbdc168b2	-0.09443797
173	0xbceed6e0	-0.029155195
174	0xbd9f3fbd	-0.07775829
175	0x3d9565de	0.0729482
176	0xbc957948	-0.018246308
177	0x3ca91d20	0.02064377
178	0x3dcee9f2	0.10103215
179	0xbbdb7e00	-0.00669837
180	0x3e0b9741	0.13631918
181	0x3da811d6	0.08206527
182	0xbc83e1a0	-0.016098797
183	0x3e2ae94f	0.16690563
184	0x3c7dd6e0	0.015493125
185	0x3e3614f3	0.17781429
186	0xbe2974dc	-0.16548485
187	0x3cf7c750	0.030246407
188	0xbd6b1428	-0.05739227
189	0x3d8ea9a2	0.06965949
190	0x3c35a3d0	0.011086419
191	0xbe2b66c4	-0.1673842
192	0x3bb572e0	0.005537376
193	0x3dba8d4e	0.09108983
194	0x3d03e628	0.032201916
195	0xbcf2d288	-0.029641405
196	0x3cda2110	0.026627094
197	0xbe36dec6	-0.17858419
198	0x3df3223a	0.118717626
199	0xbe43cf4b	-0.19122045
200	0xbe17daf1	-0.14829613
201	0xbbada3c0	-0.0052990615
202	0xbe0d6646	-0.13808545
203	0xbd050ed8	-0.03248486
204	0xbe0aa598	-0.13539732
205	0xbb756c00	-0.0037448406
206	0xbe1e45a0	-0.15456247
207	0xbe339a95	-0.17539437
208	0xbc3c0470	-0.011475667
209	0xbdfaf4b9	-0.122537084
210	0x3d70309c	0.058640108
211	0xbe09a923	-0.13443427
212	0xbe395db5	-0.18102153
213	0x3daf167e	0.08549212
214	0xbd4d3994	-0.05010374
215	0xbe19038e	-0.14942762
216	0x3e3df10d	0.18548985
217	0x3dbcf4fa	0.09226413
218	0x3d94bbd6	0.07262389
219	0xbd104d3c	-0.035229906
220	0x3ddc0806	0.10743718
221	0xbd8f702d	-0.07003818
222	0xbd87a4de	-0.06623243
223	0x3b15ddc0	0.002286777
224	0xbd92226c	-0.07135472
225	0x3e281581	0.16414453
226	0x3e13e829	0.14444031
227	0xbd12f81c	-0.035881147
228	0x3deebdee	0.1165732
229	0xbdde27da	-0.10847445
230	0x3c944788	0.018100515
231	0xbe1f61c7	-0.15564643
232	0xbda0a123	-0.078432344
233	0x3dec6596	0.115428135
234	0x3c9e66e8	0.019336179
235	0xbe151af1	-0.14561059
236	0xbc4bcd80	-0.012439132
237	0x3e433353	0.19062547
238	0x3d89dd06	0.0673161
239	0xbe2a962e	-0.16658852
240	0xbd9d91f9	-0.07693858
241	0x3c4d2ae0	0.012522429
242	0xbe3c93bf	-0.18415736
243	0xbd47e2f0	-0.04880041
244	0x3c9d8118	0.019226596
245	0xbb8ba9a0	-0.0042621642
246	0xbd911f1e	-0.07086013
247	0x3e118aa1	0.14213039
248	0xbdbd5099	-0.092438884
249	0x3c89eec0	0.016837478
250	0x3e0c52c7	0.13703452
251	0xbdddd22a	-0.10831101
252	0x3d9f1e0e	0.07769404
253	0xbdd85d09	-0.1056462
254	0x3d12efac	0.0358731
255	0x3e2680cb	0.16260068

weight f4 [24]
0	0x3f800000	1.0
1	0x3f800000	1.0
2	0x3f800000	1.0
3	0x3f800000	1.0
4	0x3f800000	1.0
5	0x3f800000	1.0
6	0x3f800000	1.0
7	0x3f800000	1.0
8	0x3f800000	1.0
9	0x3f800000	1.0
10	0x3f800000	1.0
11	0x3f800000	1.0
12	0x3f800000	1.0
13	0x3f800000	1.0
14	0x3f800000	1.0
15	0x3f800000	1.0
16	0x3f800000	1.0
17	0x3f800000	1.0
18	0x3f800000	1.0
19	0x3f800000	1.0
20	0x3f800000	1.0
21	0x3f800000	1.0
22	0x3f800000	1.0
23	0x3f800000	1.0

bias f4 [24]
0	0x00000000	0.0
1	0x00000000	0.0
2	0x00000000	0.0
3	0x00000000	0.0
4	0x00000000	0.0
5	0x00000000	0.0
6	0x00000000	0.0
7	0x00000000	0.0
8	0x00000000	0.0
9	0x00000000	0.0
10	0x00000000	0.0
11	0x00000000	0.0
12	0x00000000	0.0
13	0x00000000	0.0
14	0x00000000	0.0
15	0x00000000	0.0
16	0x00000000	0.0
17	0x00000000	0.0
18	0x00000000	0.0
19	0x00000000	0.0
20	0x00000000	0.0
21	0x00000000	0.0
22	0x00000000	0.0
23	0x00000000	0.0

running_mean f4 [24]
0	0x00000000	0.0
1	0x00000000	0.0
2	0x00000000	0.0
3	0x00000000	0.0
4	0x00000000	0.0
5	0x00000000	0.0
6	0x00000000	0.0
7	0x00000000	0.0
8	0x00000000	0.0
9	0x00000000	0.0
10	0x00000000	0.0
11	0x00000000	0.0
12	0x00000000	0.0
13	0x00000000	0.0
14	0x00000000	0.0
15	0x00000000	0.0
16	0x00000000	0.0
17	0x00000000	0.0
18	0x00000000	0.0
19	0x00000000	0.0
20	0x00000000	0.0
21	0x00000000	0.0
22	0x00000000	0.0
23	0x00000000	0.0

running_var f4 [24]
0	0x3f800000	1.0
1	0x3f800000	1.0
2	0x3f800000	1.0
3	0x3f800000	1.0
4	0x3f800000	1.0
5	0x3f800000	1.0
6	0x3f800000	1.0
7	0x3f800000	1.0
8	0x3f800000	1.0
9	0x3f800000	1.0
10	0x3f800000	1.0
11	0x3f800000	1.0
12	0x3f800000	1.0
13	0x3f800000	1.0
14	0x3f800000	1.0
15	0x3f800000	1.0
16	0x3f800000	1.0
17	0x3f800000	1.0
18	0x3f800000	1.0
19	0x3f800000	1.0
20	0x3f800000	1.0
21	0x3f800000	1.0
22	0x3f800000	1.0
23	0x3f800000	1.0
